Assignments/Assignment 4/results/classifier_cnn/classifier_cnn.model (torch, 179343 bytes, 8 tensors)

weight f4 [16, 1, 3, 3]
00000000: 4d7c 423e 88e3 4e3e 93d0 7cbe 455c 9e3e
00000010: 4940 6dbe 8a33 7abe c22a 60be d5ad d2be
00000020: 29a7 533c bac2 9bbd fb76 783e b6cc 1db9
00000030: 1a44 193d 3644 4e3e 620a b43e 80ab ad3e
00000040: d4eb b73e 0338 94bd 4fda e5bd dcb5 6cbe
00000050: e75c d4be 5c17 6ebe 9c37 8cbe 96c4 5f3c
00000060: 04d5 423e 0208 873e 6475 e7bd 879a 96be
00000070: 82ca ba3d cd15 6c3e 1c3e 603d 765f b93e
00000080: cfa4 ae3e b9dc a0be 85b1 a4be f4b5 6bbe
00000090: aa24 bb3e 33d3 38bd a13f 45be bc68 003e
000000a0: eef1 9bbd 5a6e 0d3e 416e 383e a6bb 373e
000000b0: 7b15 2b3e bd07 6e3e 2a27 9f3e 7818 c03d
000000c0: 6fa9 b2be c710 443e 38c7 9b3e de47 833e
000000d0: d5a2 243e 9789 c13d 802e 0abe 3d46 913e
000000e0: e822 f43d 1f05 e63d ccfa f73c 68dc 6a3e
000000f0: 1a63 f0bd 6508 bd3e 4856 be3e 2241 803e
00000100: e384 74be 5474 c3be 8369 86be bf51 63bd
00000110: e506 c6be 35e9 e6bc 03d6 b33e b134 67be
00000120: 4d2f 833e dbe7 843c 4351 ad3e b63c 1a3d
00000130: eef7 cc3e 1afc a73d 1f50 d03d cbc8 953e
00000140: 1508 963d 817c 65bd 9a75 60be b588 7d3e
00000150: bf0e 52be 33c2 febd 22b4 be3e 1aca 333e
00000160: 7338 ad3d 808f 7abe 5136 f8bd a0a9 693e
00000170: a5e6 c63e c981 a9bd 57c3 2fbd d82d 8bbe
00000180: 1159 9ebe 3e6e 53be 6fd6 6dbe abaa 13be
00000190: 5f5b 95be d3d9 5e3d 2ce1 023e a346 aa3d
000001a0: 6cc1 c93e ae8f 763e 9546 43be aa3e 923e
000001b0: 568d 0e3e 9653 ea3c 83b2 403e d023 ffbd
000001c0: e793 943e a3a0 0cbe 7d2a 88be 7353 48be
000001d0: 304e bbbd dc12 ad3e 73c6 283d 56df a4be
000001e0: d30f e23e a0b5 3bbc 963d 463d 6fda 383e
000001f0: 4a70 cb3e fde1 463e d915 18be 834a 963e
00000200: 9221 b2bc ff19 173e 63ff 9bbe d4f2 a13e
00000210: 4454 69be d350 a9be f946 1c3e 462a 7bbd
00000220: 2674 5dbe 3144 b23e 117e 763e 4f31 0abe
00000230: 9051 403e dffe 503c 29af 92be 90b0 823e
0.1899273 0.20203984 -0.2468894 0.3092977 -0.23169054 -0.24433723 -0.21891311 -0.41148248
0.012918272 -0.076055005 0.24264137 -0.00015048948 0.037418462 0.20143208 0.3516417 0.33919907
0.3592211 -0.07237246 -0.1122328 -0.23116249 -0.4147713 -0.23251098 -0.27386177 0.01365771
0.19026572 0.26373297 -0.11301687 -0.2941477 0.091206565 0.23055191 0.054746732 0.36205643
0.34110114 -0.31418398 -0.32166687 -0.23018628 0.3655141 -0.04512329 -0.19262554 0.12539953
-0.07614504 0.13811627 0.18010809 0.17942676 0.16707413 0.2324514 0.31084567 0.09379667
-0.34894893 0.19147025 0.3042543 0.25640768 0.1607774 0.09450071 -0.13494301 0.283739
0.1192072 0.112314455 0.030270956 0.22935641 -0.11737652 0.36920467 0.37175202 0.25049692
-0.23878817 -0.3817469 -0.26252374 -0.05549788 -0.38677135 -0.028187374 0.35124215 -0.22578694
0.25622025 0.016223839 0.3385106 0.037655555 0.40032905 0.082023814 0.10171532 0.29254755
0.0732576 -0.05602694 -0.21919861 0.24759181 -0.20513438 -0.12439384 0.37246805 0.17557564
0.084580325 -0.24468803 -0.12119735 0.22818613 0.38847843 -0.08276708 -0.0429109 -0.27183414
-0.30927327 -0.20647523 -0.23226331 -0.14420573 -0.29171273 0.054406952 0.12781209 0.08314254
0.39405382 0.24078247 -0.19069894 0.28563434 0.13921103 0.02860431 0.18818097 -0.124580026
0.2901909 -0.13733153 -0.26594916 -0.19563083 -0.091457725 0.3380345 0.04120488 -0.32201642
0.44152698 -0.011456877 0.048398577 0.18052076 0.39734107 0.19422145 -0.14852084 0.29353723
-0.021744523 0.1475601 -0.30468282 0.31630576 -0.22786051 -0.33069476 0.15261449 -0.061319612
-0.21626338 0.3481765 0.24071528 -0.13495372 0.18781114 0.0127560785 -0.28649262 0.25525331

bias f4 [16]
00000000: 4d70 733c 4b75 96be 89b9 a43e 099e 573e
00000010: 0430 6a3e a1bf 7d3e 7baa efbd e584 9c3e
00000020: 46ad a93e 8728 c2bd 118c c3bd 6b45 edbd
00000030: 0efa df3b bdcb c7bc 7b18 213e 1a58 593e
0.014858318 -0.29386362 0.32172802 0.2105638 0.22869879 0.24780132 -0.117024384 0.3057014
0.3314001 -0.09480386 -0.095482 -0.11585506 0.0068352288 -0.024389142 0.15731995 0.21225014

weight f4 [64, 16, 3, 3]
00000000: 4e83 b53d 9d91 6d3d 5d2f 613d d371 0abd
00000010: 0102 0d3d f662 09bd f7c2 823d 6dfe 25bd
00000020: a532 2bbd a3e9 843d de96 8bbc 35a5 903d
00000030: 8493 13bd 6188 1dbd 0230 3b3d 5cfd 653d
00000040: 9b34 80bd df3a 9b3d fa9e 5ebd ce5c b53d
00000050: f9eb d9bc 1c23 48bd 821b cfbc 9bd5 9fbd
00000060: a638 9cbd a4b6 21bd b5c3 38bd 02e6 c5ba
00000070: 3dfa cabd 5348 b6bd 656a e0bc 1328 dd3b
00000080: fc67 b0bd 81d2 993d 8ce6 90bc acff 15bd
00000090: b237 24bd f030 dfbb 40fb e73c e1a5 db3d
000000a0: c0d6 843d b88b 80bd 761c 24bd 95bc 85bd
000000b0: d52a b83c 7489 0cbd 138e 993d aa38 90bc
000000c0: 7364 77bc 3499 6dbd 0b85 2c3c b6c1 693d
000000d0: 8adb 603d bb4c 8c3d 5be1 8abd d6af 9b3b
000000e0: c9c6 8bbd c4d1 7bbd 39ef a8bd e7a1 8d3d
000000f0: 6bc9 343d 91cb 9c3d b08b b33d eb68 f3bc
00000100: aa4b eb3c 98b5 b33c 5122 a53d d8f2 e9bc
00000110: 2277 d93d 6c5e 8a3c 4bf2 32bd dfc1 6d3d
00000120: 073d 13bd 9dad c6bb 43df a53d 06f9 b73d
00000130: e2ff e93c be61 b93c 6886 6a3d a30c 74bd
00000140: 81c4 ae3d 86d8 1e3d 0461 743d d89f 8e3b
00000150: 2a78 c6bd 97c1 f43d 744e 9cbd 13e6 23bd
00000160: 0836 f8bc 5a4b f2bc 366a bdbd 4ea4 88bd
00000170: eaf4 66bd 3183 12bd 3476 463c cf5c ddbd
00000180: 8d54 fabc 7445 53bd d1b8 87bd ccb4 93bd
00000190: dc3c ff3c 8beb 24bd 2d1e b0bd d2e1 633c
000001a0: 80fb a8bd 213e 8f3d d60e c03c a30e 9dbd
000001b0: 58b3 b3bd 8e31 5fbd 1d9c c3bd 9c20 87bd
000001c0: 660d 43bc 0cdd 04be 213e af3c 33bb 663d
000001d0: 174f 34bd b9bb f83b 293f 2e3d 65b1 8e3d
000001e0: d994 903d 62c8 aabc 6378 94bd 479c 81bd
000001f0: f3ed 223d de3a d1bb 12d9 41bd e9b8 993d
00000200: 43d5 f0bd 63f8 91bd 1cc6 173d bdae 253d
00000210: ee1d 9e3d 8f21 09bd fdd2 1ebd a542 1e3d
00000220: 9dfc 543d 02bb 91bc 2ee4 2a3d 1bf5 9fbd
00000230: a945 1cbd 20ef 6abc 7d5f 973d b016 f1bc
00000240: 2002 a43c c16d 90bd 1074 2fbc 77dd ebbd
00000250: 8a64 193c c1fa f4bb 84e5 f6bc f429 4d3d
00000260: e0f3 73bd 6196 313b 5417 b93d 2e63 be3d
00000270: 022a dcbc 502f a63d 18f8 ab3d 8a8b 61bc
00000280: 8fa1 9e3c f065 2f3c f0dc ee3c 9a22 7d3d
00000290: 6c08 2bbd ee11 82bd 6b89 c2bd 13c1 01bd
000002a0: e1f7 23bb e28b 52bc ca88 a9bd 2a76 dfbd
000002b0: 5bdd 123c 0eca 0b3d 8aca 993c 0721 e13d
000002c0: 479e 16bd d0a6 d7bd c677 a2bc 1360 e8bb
000002d0: 3cbe 57bd a763 6a3d 3827 dbbc 7353 7dbc
000002e0: bf7d 7fbd 73b5 063d 4180 ed3c aec4 d43c
000002f0: 64c5 a8bd 1b87 9c3d 0364 413d 3845 e13d
00000300: e8e2 c53c b583 abbc 0e40 3e3c 63fb acbd
00000310: f24e 9c3d d7dd 3bbd 70b2 843d 852b 8bbd
00000320: 7f36 28bd cabe acbb 0d12 be3d fd2f 5e3d
00000330: 4866 883d 3374 193c cb9d 7dbb 25dc 68bd
00000340: 8626 253c 623d 94bd 6ea8 cabd 0a5e 8ebd
00000350: 0cba 493c 239f 9f3d 5b72 babd 6b91 8abc
00000360: 0c70 7cbd bcd6 65bd fe9d c9bb c234 f83c
00000370: 6356 23bd d0f3 4f3c 7d4f b5bc 02b1 593d
00000380: a633 e7bc 2d99 bdbd c4d5 fbbb e2b0 73bd
00000390: eedb 89bc a883 b4bc 9d36 1abd ac57 d63b
000003a0: 26d0 04be 0abc 6fbd 9f32 e7bd 952b b9bd
000003b0: f0ce c8bd a2f6 c93b f92c 093a d257 f73b
000003c0: 066d 2e3c 111e fc3d 826a 1abd d664 163d
000003d0: 2f93 953d 77b6 4bbd 62cc 0dbd 3108 0fbd
000003e0: b018 583a ffbd 79bd d8dd 623b 6d99 b9bd
000003f0: a504 72bd be88 aabd a86d 2a3d a2c4 b6bd
0.08862935 0.058000196 0.05497681 -0.033799957 0.03442574 -0.033541642 0.06384843 -0.040525842
-0.041796345 0.06489875 -0.017039713 0.07062761 -0.036029354 -0.03846014 0.04570008 0.056149825
-0.06260034 0.07579588 -0.05435083 0.08855592 -0.026601778 -0.048861608 -0.025281671 -0.07804414
-0.07627992 -0.03948082 -0.045108516 -0.0015098455 -0.099110104 -0.089005135 -0.027394483 0.006749162
-0.086135834 0.075108536 -0.017688058 -0.03662078 -0.040092178 -0.0068112537 0.028318048 0.10724998
0.06486273 -0.06276649 -0.040066205 -0.0653011 0.022481361 -0.034310773 0.07497802 -0.017605145
-0.015099633 -0.058007434 0.010529767 0.057069503 0.05489687 0.06850573 -0.067812644 0.004751186
-0.06825025 -0.061479345 -0.08248753 0.06915646 0.0441374 0.07656015 0.08766878 -0.029713115
0.028722603 0.021937177 0.08063186 -0.02855818 0.10618426 0.016890727 -0.0436881 0.058046218
-0.035946872 -0.006063177 0.080992244 0.08983044 0.028564397 0.022629615 0.057257086 -0.059582364
0.08533574 0.03878071 0.059662834 0.004352551 -0.09690888 0.11950987 -0.07632151 -0.040014338
-0.030299202 -0.029576946 -0.09248774 -0.06671964 -0.056385912 -0.035769645 0.012113143 -0.108087175
-0.030557895 -0.051579908 -0.06627048 -0.07212219 0.03115695 -0.040263694 -0.085995056 0.01390882
-0.08251095 0.06994272 0.023444574 -0.07668807 -0.087744415 -0.05449062 -0.095512606 -0.065980166
-0.01190505 -0.12974948 0.02139193 0.05633087 -0.04402074 0.0075907377 0.042540703 0.06967429
0.070596404 -0.020847503 -0.072495244 -0.06328636 0.039777707 -0.0063851913 -0.047326155 0.07505972
-0.117594264 -0.07127454 0.037054166 0.040449847 0.077205524 -0.03347927 -0.038775433 0.038637776
0.051998723 -0.017789368 0.041721515 -0.07810422 -0.03815237 -0.014339238 0.0739126 -0.029429764
0.020020545 -0.07052184 -0.010708824 -0.115168504 0.009362349 -0.0074761813 -0.030138738 0.050088838
-0.05955875 0.002709769 0.090376526 0.09296261 -0.0268755 0.08114493 0.083969295 -0.013766179
0.019364147 0.010705456 0.029158086 0.061800577 -0.04175608 -0.06351076 -0.09498867 -0.03167827
-0.0025019574 -0.0128507335 -0.082780436 -0.1091121 0.008963908 0.03412824 0.018773336 0.109926276
-0.03677204 -0.10529864 -0.019832503 -0.007091531 -0.052671656 0.057223942 -0.0267521 -0.01546179
-0.06237578 0.032887887 0.02899182 0.02597269 -0.08240774 0.07642957 0.04721452 0.109995306
0.024156049 -0.020936826 0.0116119515 -0.08446386 0.07632245 -0.04586586 0.06479347 -0.0679541
-0.041067597 -0.0052717673 0.09280787 0.054244984 0.066601336 0.009366083 -0.0038698788 -0.05685057
0.0100799855 -0.0723827 -0.09895407 -0.0695153 0.012312423 0.07794025 -0.09103843 -0.016915044
-0.061630294 -0.05611299 -0.0061528673 0.030298594 -0.039877307 0.012692407 -0.02213263 0.053147323
-0.02822287 -0.092577316 -0.007685395 -0.05949486 -0.016828503 -0.022035435 -0.03764974 0.006541213
-0.12970027 -0.058528937 -0.11288952 -0.09041516 -0.09805095 0.006163434 0.00052328367 0.007548311
0.01064611 0.12310422 -0.03769923 0.03671726 0.07303464 -0.04973456 -0.034618743 -0.03491992
0.0008243425 -0.06097221 0.0034617092 -0.09062467 -0.05908646 -0.08326863 0.041608483 -0.089242235

bias f4 [64]
00000000: 3873 4bbd cd3b 22bd 0d9c 23bd e4e8 f43b
00000010: 70ba a2bd 82de 07bd e543 913d 30c0 80bd
00000020: df23 a13c 740f 873d a3dc 933d 630d 53bd
00000030: bd5b 84bd 6a77 82bd e324 a8bd 0763 babd
00000040: 62ad 2e3d a19b 91bd 0821 32bc cda3 813d
00000050: 2bb6 913d 14be 82bd 077d 8f3d 1f4e ed3c
00000060: 7665 b93c c4c2 753d 2abe d0bc 6dd7 e3bb
00000070: dd3f a83d 6ee3 893d 9dc1 74bd c2bf a13b
00000080: 8c6b 87bb 9268 eebc 98d7 9dbc 37fa a4bd
00000090: 5d7f 59bd 4aab 46bc f9e8 94bc 63a6 a3bc
000000a0: 8d0c 84bd e9f4 62bb d294 80bd aab9 38bc
000000b0: 59f8 04bd dbd2 f33c 33be 6abd 29d5 983c
000000c0: c0b4 893d 5b83 98bc bc91 933d 6a2d 43bd
000000d0: ca40 52bd d2b0 82bb 6450 27bd 5c42 543d
000000e0: 5b31 aebc 3d8c ddbc 2479 83bd cfdc 8d3d
000000f0: 10f4 dbbc e831 2e3d dc8b 543d a372 713d
-0.049670428 -0.03960781 -0.039943743 0.007474052 -0.079457164 -0.033171184 0.07093028 -0.06286657
0.019670425 0.06594744 0.072198175 -0.05152644 -0.0646281 -0.06370433 -0.082101606 -0.09100919
0.04264582 -0.07109762 -0.010872133 0.06330071 0.07114824 -0.06383911 0.07006269 0.028967915
0.022631388 0.060000196 -0.025481302 -0.006953171 0.08215306 0.06732832 -0.059754957 0.0049361894
-0.0041326936 -0.029102597 -0.019267842 -0.08055537 -0.05309998 -0.012125799 -0.018177496 -0.0199768
-0.06447706 -0.003463084 -0.06278385 -0.0112747345 -0.032463405 0.02976363 -0.057310294 0.01865633
0.067239285 -0.018617323 0.07205531 -0.047650732 -0.05133132 -0.003988364 -0.04084815 0.051821098
-0.021263769 -0.02704441 -0.0641959 0.069268815 -0.026849777 0.042528063 0.051891193 0.058947217

weight f4 [128, 256]
00000000: 4a0b 563d f30b 5b3c 0358 783d 0279 d83c
00000010: 47c5 a5bd 8318 31bd 3d3a 54bd d50d e0bc
00000020: a310 bdbc 85f2 09bd 088b 20ba cfd4 3a3d
00000030: d63b a5ba 6231 56bd 8122 81bc 74f6 123d
00000040: dc96 3cbd 76cb 08bd ea9a edbc 0fa6 c83d
00000050: e457 d5bc 612c 24bc c22a ae3c e4ad 7b3d
00000060: fc83 a7bb ffa2 61bc 884c a23b 0dfa 593d
00000070: 3c92 5abb addd 87bd c714 0a3d e4f7 903c
00000080: 6ecd 6fbd 153b ff3c fc1f 96bd 6a9c 613d
00000090: baa9 213d 5d7d f93d fd0e 7c3c 08d6 63bd
000000a0: 793d e1bc 1934 12bb fb18 9f3c dd3c 8dbd
000000b0: 16e1 8a3d ebd8 a2bc 7e27 833c 4404 84bd
000000c0: 86c0 163d 1c36 243d 1b24 203d de81 573d
000000d0: 6b81 e2bb 7c3b 863d 1335 a93c 1cbf a5bb
000000e0: fb18 833d 0f43 74bd a353 873d 04c2 813d
000000f0: 3a0d 2abc 584b d1bb 5ba3 0cbc 4ff8 3a3d
00000100: ed0f 673c 28d7 233b 1b36 bdbc 392a 24bd
00000110: 17e3 f1bc 7089 243d f35a 483d 2920 9b3c
00000120: ec82 2e3d 9576 93bc 0ff1 483d 42d3 a13c
00000130: 5d70 35bc c615 0d3d dbec 303d b41d bd3b
00000140: 3098 37bd 0ca4 4ebd 4035 0bbc 693a 013d
00000150: 634c 5dbc 54a5 29bd be97 293d 90b6 46bc
00000160: cc85 8cbd e179 d93a ac13 8bbc d42f 12bc
00000170: a5c5 023c 75dd 60bd 8e17 30bd d7ce 00bd
00000180: 144e c13c e371 acbc e782 43bd 9a26 763d
00000190: 43ca cfbc 2c85 24bd 9531 8abc dd8b 073c
000001a0: 09c3 9dbc ff76 ffbc d537 fe3b b0cd f03c
000001b0: c6b9 ca3c 1a42 0c3d 71e9 91bd 5213 edbc
000001c0: e61e 8d3c 228c 583d 6d44 193d 6822 0c3d
000001d0: c7ff fc3c b73f eb3c bce9 00bd fa38 893d
000001e0: 951d 5d3d 0ada 203c 1c6f cebc 7ba8 42bc
000001f0: e924 73bd 7b47 d03a bdd2 2c3c 42b9 6c3d
00000200: 7ad6 e6bc 25ff 053d cf62 083c 2edc 0fbd
00000210: cd5d 4a3d d8ba 1ebd dc60 013d 1a06 f2bb
00000220: 3070 bdbc e699 753d 8529 9abc a6b1 a6bc
00000230: 741d 17bd 094d 533d 6d5d 823d 500f 5a3d
00000240: 2d5c 92bd 2a90 343c d313 54bc 696b 3c3d
00000250: d903 47bd bfe7 31bd 61f6 733d c628 023d
00000260: b49f 82bc b582 a43c b286 753c a5d6 8ebd
00000270: bdf4 31bc 37a8 673d 07dc 29bd f223 d93c
00000280: ac30 f23c 95f6 513d b422 073d 0594 563d
00000290: c740 8b3d fd71 833d 8381 82bc 71c0 5d3c
000002a0: 8a7b 633c 14c9 d0bc d347 d6bc b731 3f3d
000002b0: 2fb2 c73d f784 493b 594c bebb 2aa8 aa3d
000002c0: 8dfc 3dba ae9d a33d b677 2a3d ec05 7f3d
000002d0: 6fda c13d 49c6 063d 9d47 7f3c c7a8 3ebd
000002e0: 9e48 6ebd 0d42 a4bc c58b 89bd 2a75 abbb
000002f0: 6970 b13a 8333 d7bd f74d 28bd f917 55bd
00000300: c794 a2bc dc3c 3c3d 6724 a33d cb13 00bd
00000310: 6e2f 85bd ae92 70bd 4976 0abd 75b3 3a3d
00000320: e0c3 b93b 7838 b93b f80a ccbb 27bf 7ebd
00000330: a68b 6d3d 3c98 9338 ed43 ad3c bbde 043d
00000340: 9a3e ce3c b654 0e3d 0f82 b93c 7db0 ed3c
00000350: 2623 d6bc 349b 373d 984f 0a3d 667e 643d
00000360: d43d fbbc f841 f83b 679d 6d3d 4a3f 453d
00000370: ae07 6f3d 7bdc 7cbd c677 1f3c 7d91 823d
00000380: 88ea 563c fed1 543d b958 53bc 2e4a 7c3d
00000390: 4d0d 6fbd 41b0 3e3d 2a6a c13d b551 263d
000003a0: 1d05 a5bd 926a 203b 40e2 2ebc f408 35bd
000003b0: 69d2 2d3d 4890 003a 4cee 41bd 4a45 303d
000003c0: 654d 683d 13a6 aebc 25a8 f1ba 39bd 5c3c
000003d0: 9fd8 57bd d383 cf3c c59d bb3c 8e2e a0b8
000003e0: 7d16 533d da0f c73c 3d8f 69bc 5e5e 7cbc
000003f0: 97b6 0a3d 6d4f e9bc 452f d1bd b95f a4bd
0.05225686 0.013369548 0.06063081 0.026424889 -0.08094268 -0.043236267 -0.051813353 -0.027350346
-0.023079222 -0.03367855 -0.0006124233 0.045613106 -0.0012606333 -0.05229319 -0.015763523 0.035879567
-0.04604231 -0.03339716 -0.029004533 0.09797298 -0.026042886 -0.010020346 0.021260623 0.061445132
-0.0051121693 -0.013771771 0.004952971 0.053216983 -0.0033351323 -0.06634078 0.03371122 0.017696328
-0.058545522 0.031156102 -0.07330319 0.05508081 0.039468504 0.12182114 0.015384433 -0.055624038
-0.027495133 -0.0022308885 0.019421091 -0.068963744 0.06781213 -0.019878825 0.016010042 -0.06446126
0.0368047 0.040090665 0.039096933 0.052614085 -0.0069124005 0.065543145 0.02065519 -0.0050581824
0.06401249 -0.059634265 0.06607749 0.06335834 -0.01037913 -0.0063871555 -0.008583869 0.04564696
0.014102918 0.002500007 -0.023097089 -0.04007933 -0.02952723 0.040170133 0.04891486 0.018936234
0.042605326 -0.01800088 0.049058016 0.019754056 -0.011074153 0.034444593 0.043194633 0.005771363
-0.04482287 -0.050449416 -0.0084965825 0.031549845 -0.013506982 -0.041417435 0.04140448 -0.012128487
-0.06861457 0.0016592109 -0.016977154 -0.008922536 0.007981692 -0.054898698 -0.042991214 -0.031447258
0.0235968 -0.0210504 -0.04773226 0.060095407 -0.025365 -0.040166065 -0.016869346 0.008273092
-0.01925804 -0.031184671 0.0077581205 0.029394954 0.024746787 0.034242727 -0.071246035 -0.028939877
0.017226648 0.052868016 0.03741877 0.0342125 0.030883683 0.028716905 -0.031472906 0.067003205
0.05398329 0.00981761 -0.025199465 -0.011880989 -0.059361372 0.0015890443 0.010548291 0.057793863
-0.028178442 0.032714028 0.008324339 -0.03512209 0.04940586 -0.038752407 0.031586513 -0.0073859813
-0.023124784 0.059961222 -0.018818626 -0.020348381 -0.036893323 0.05158714 0.06365476 0.05323726
-0.071464874 0.0110206995 -0.01294418 0.04600087 -0.048587654 -0.0434339 0.059561137 0.031777166
-0.015945293 0.020081857 0.014985727 -0.06974534 -0.010861573 0.056556907 -0.0414696 0.026506398
0.029564224 0.05126055 0.03299208 0.052387256 0.06799465 0.06418226 -0.015930897 0.013534651
0.0138844345 -0.025486507 -0.026157295 0.04667827 0.09750783 0.003074942 -0.005807441 0.08332856
-0.0007247411 0.079890594 0.04161807 0.062261507 0.09465491 0.032903943 0.015581039 -0.046547677
-0.058174722 -0.020051027 -0.06716112 -0.005232473 0.0013537529 -0.10507872 -0.041089978 -0.052024815
-0.019846333 0.045956478 0.079659276 -0.031268876 -0.06503187 -0.058733635 -0.03380421 0.0455813
0.005669102 0.0056524836 -0.0062268935 -0.062194016 0.057994507 7.037862e-05 0.021150554 0.032438975
0.025176335 0.034748755 0.022645025 0.02901482 -0.026139807 0.044825748 0.033767313 0.055784605
-0.03066913 0.0075762235 0.05801144 0.04815606 0.058356933 -0.061733704 0.009733146 0.06375406
0.01311744 0.051958077 -0.012899571 0.06159418 -0.058362294 0.046554808 0.09444077 0.040605266
-0.08057616 0.0024477583 -0.010674059 -0.04419799 0.04243699 0.0004904312 -0.0473464 0.04303483
0.056714434 -0.021319425 -0.0018436952 0.013472849 -0.05269682 0.025331413 0.022902379 -7.638066e-05
0.05153512 0.02429955 -0.014255342 -0.015403358 0.033865537 -0.028480256 -0.10214094 -0.0802607

bias f4 [128]
00000000: 2489 5d3d d6f2 053a 2b06 013d e7f4 79ba
00000010: ddaf 8e3c f4cf 48bc f710 42bd c845 473d
00000020: e074 ebbc 897b 523c 9977 c6bb 526e b43b
00000030: 2951 7ca6 9552 f6b9 927c 4abd 34b7 c53c
00000040: c0e8 3cbc 93a3 d1bc ed4e 1cbd 15e2 563d
00000050: 8faa 6b3c df45 dbbc 43c0 cf3b 3963 ccbc
00000060: e026 5bbd 8fc8 313d 9ea1 5f3d b40f 60bd
00000070: 69a2 963c 5944 6abb 9e33 55ba e253 36bd
00000080: f4a9 62bc 0d29 3b3d b32a 55bd 9a1d 453b
00000090: 2f40 11bd 6b8b 033d 5a5f 923c 333c 033d
000000a0: 3a92 29bc 856f 4ab9 809b 97bb 53ee 583d
000000b0: d9de 833c ec1e 323c 0a6c 9abc 0f62 b13b
000000c0: 50f8 8abc 8e20 a2bc bda1 debc 876a 27bd
000000d0: 6751 39ba ee40 673c 8b61 5b3d 3460 b3b9
000000e0: fbfd 523d 239b e03b 05f3 f8bb 388b 643d
000000f0: 262c 293d 0c16 0a3d 0383 2cbd 7d12 873c
00000100: 8bf9 fbba 57c1 56bd a469 f339 ba7c 3bbc
00000110: c943 72b8 26db 28aa 85a6 7f39 541c a83c
00000120: 216c 583d fd11 8dbc 073d 66bd 439c 353c
00000130: 29d1 14bb 46ea 913c 1dda a13c 8825 c23c
00000140: 7973 183d bd48 483c b6ab 183d 02b0 58bd
00000150: 8340 153d 4cae 6f3d 1bd4 603d 8021 38bd
00000160: 5001 593c 7226 20bd e895 d1bb bd2d 26bd
00000170: 2172 833c 6c53 30bd 5dd7 373c 794c ffbb
00000180: 1072 103d 7089 763c 3fbb 9fbc 2aaa f1bc
00000190: 6a6a 33bd 38eb 47bd a025 84bd 908c 013d
000001a0: 0f2d 35bc 34c7 f8bc c829 31bc c684 aabc
000001b0: 27f6 433d 6b02 223c a548 32bd 4c8a ddbc
000001c0: 324d 84bc 7a46 aabb 19e0 45bc 183d debc
000001d0: 44f5 2d3d 72cd aa3c badb cbba ed15 8fbc
000001e0: 4b7f 143d ab50 c73c d615 a0bc abff 3bbd
000001f0: d63c 36bd 9ae0 6bbd b914 433c 4c4e 1abd
0.054085866 0.0005109733 0.031500023 -0.00095350895 0.017417843 -0.012256611 -0.04737946 0.048650533
-0.028742254 0.012846836 -0.0060567376 0.0055063153 -8.7540056e-16 -0.00046982305 -0.049435206 0.02413521
-0.011530101 -0.025590694 -0.038161207 0.052461702 0.014383926 -0.026766716 0.006340058 -0.024949657
-0.05350387 0.04340416 0.05459749 -0.054702476 0.01838799 -0.0035746305 -0.0008132997 -0.04451359
-0.013834465 0.045693446 -0.052042674 0.0030077458 -0.0354616 0.03211538 0.017867733 0.032039832
-0.010349805 -0.00019305765 -0.0046266913 0.05296166 0.016097473 0.01087163 -0.018850345 0.005413301
-0.016964108 -0.019790914 -0.027176732 -0.040873077 -0.000706932 0.014114602 0.05355982 -0.00034213217
0.051511746 0.0068544312 -0.0075973296 0.05579683 0.04130187 0.03371243 -0.04211713 0.016488308
-0.001922415 -0.052430477 0.0004642728 -0.011443311 -5.7760426e-05 -1.499743e-13 0.00024380728 0.02052132
0.052837495 -0.017220492 -0.056210544 0.011084619 -0.0022707677 0.017811906 0.019757325 0.023699537
0.0372195 0.012224373 0.03727313 -0.05290223 0.036438476 0.05851583 0.05488978 -0.044953823
0.013244942 -0.039099164 -0.006396044 -0.040570963 0.016045632 -0.043048307 0.01122078 -0.0077910987
0.03526503 0.015047416 -0.019498466 -0.029500086 -0.043802656 -0.048808306 -0.06452489 0.03162819
-0.011058106 -0.030368425 -0.010813184 -0.020815264 0.04784217 0.009888272 -0.04352631 -0.027043484
-0.01615009 -0.0051963897 -0.012077355 -0.027128741 0.04247023 0.020849917 -0.0015553155 -0.01746651
0.03625421 0.024330458 -0.019541662 -0.04589812 -0.04449161 -0.057587244 0.011906796 -0.037672326

weight f4 [10, 128]
00000000: cbf1 9b3c 7663 4f3c 2d16 203d 6be3 8d3a
00000010: e39c 713d 1632 7d3d 4cbb e33c 7dc8 1c3c
00000020: dd5b 2e3d 8697 86bd 894e f9bc 46fd e9bc
00000030: b681 f3b9 f095 b739 8775 2dbd 5e79 9e3d
00000040: 6f28 5d3c 913b 1b3d 4f9c edbc d657 82bd
00000050: 35f1 563c 6c77 6d3d ce6a 56bd 1bac e5bc
00000060: f13c a5bd fc98 e23c f3a3 8fbd a965 af3b
00000070: 3ab6 ff3c e24e 21bb 9b85 1c92 b929 343d
00000080: d2ed c83d c452 c6bc abfa 8bbd 2c7e 463c
00000090: 6991 48bd c273 cd3d 25dc 6fbd 8ef0 9dbd
000000a0: f457 6f39 6a92 47b1 5ee7 123d 26b4 263d
000000b0: b300 383c f18a bebd 5b1c a9bd 8a51 f23c
000000c0: e2c9 b93c f6c6 b0bc ce42 8e3b ee96 a63d
000000d0: f4cf 2037 f46c 08bd aea3 63bd f3db 723a
000000e0: e1a6 3e3c 0eef a83d 9304 f9bd f706 293d
000000f0: 6237 99bd 66f4 12bc 0a9b 89bc 8e78 b5bd
00000100: 3f39 8fbd 75cb dbbc 4ee2 a4bd 3e5d 2abd
00000110: 7da0 7cb9 e0ee 583a 727f 553c 6b0d 343d
00000120: 7d43 0ebe b22c 38bc a0e8 51bd accb a03d
00000130: a05e cab9 18b4 0c3d 94b5 c4bd e9d9 9f3d
00000140: a3dc 8c3d 1593 883d fe3d 99bd 8106 bcbd
00000150: a5bb f2bd 5910 d23c 1af2 ddbc a00d be3d
00000160: f4a5 01be ae85 70bd 0e5c 943d 23e3 32bb
00000170: 3f2e bbbd 5df4 d83d e805 a13d 9b8d 8f3d
00000180: 6806 fabc 39ce 083d fecb e23d 05e2 7abd
00000190: a1a9 1fbd 4274 583d 5928 20bd 72ec f53b
000001a0: 3abb 93bb 26e8 9bbc 61ea 163d ef37 85bd
000001b0: 71e1 45bd 5757 e8bc a0ec 6cbd 9760 233c
000001c0: cc9d a3bd 938e a9bd 4bca 243b df31 943c
000001d0: 355c aabd 31c1 9b3d 93c5 b3ba d5ff 3abd
000001e0: e892 a83d 9344 b6bb 8283 323d 2389 12bd
000001f0: f05e 1cbd bee0 9c3d 8520 f6bc 7302 4d3c
00000200: 3e4b 09bd e684 603d ebfb 26bc dc56 f33b
00000210: b448 a03d 3865 c7bd 94ba d53d e459 70bd
00000220: 7a5d adbd b558 8abd 8301 43bd d2a1 733d
00000230: b6ab 433a 438a 93bc fd4c 753d 4bf6 e1bc
00000240: c7dd a93d 19ff a23d 1029 1bbd e9e5 0abc
00000250: 3d39 6fbd e783 533c 10a0 a5bd 8fdf d33d
00000260: 6fdb a33d d10c 1b3d 0867 023d 02fe a53d
00000270: 7304 85bc 019e ec3c 660b 8610 93a9 053c
00000280: 2ec9 04bd 84c1 adba 3796 a6bd d24e 61bd
00000290: 4962 75bd 7e5e aebd 0acb 38be 3731 b039
000002a0: 3aa3 b3aa 4870 8336 2fdf acbc 0e01 5cbc
000002b0: 4fda 383d 7f23 01bc 5fcb 563d 6956 d63a
000002c0: 6c53 b23d 996e 7fbb 18b6 a53d fffa 5e3d
000002d0: bcbb 243b dfda e3bd dcaf 813d 5d30 14ba
000002e0: 9f3b 1abd 41f9 35bd 41e4 d03c 2732 74bd
000002f0: e7c1 c83d a8e7 693d 3562 053e be05 98bd
00000300: b2d0 ab3d 31a6 0c3d e741 073d 5cae 21bc
00000310: 2156 e6b9 53a3 6b3a 57af abbd 3696 7e3d
00000320: 8e8f 2e3d f65d 96bd 2c10 773d 12c0 163c
00000330: cbe9 c03a 2046 0f3d e4a2 3f3d f131 6d3d
00000340: 0804 e23c da22 6fbd e5c9 073c 05ff 943d
00000350: c44f bf3d 3c70 6c3d e27a 563d aeba 39bb
00000360: 9743 23bc 8957 69bd 1d2e fbbd 7f51 32bd
00000370: e3d7 c93c f6b1 08be 2c5d e8bd 80fb a6bd
00000380: 997b e6bc 0496 383d 65f1 e1bd f561 cbbc
00000390: c03c f73d bbd3 893d f18e f53c 7188 9b3d
000003a0: 718b 08b5 f88f 89bd f63c ecbc 4b3a 64bd
000003b0: 4161 0f3c 4149 dcbc 7fbc e7bd 092e 5cbd
000003c0: 52b5 68bc 6cdd 723d 8980 8cbd 3c94 293c
000003d0: 11e9 c03d 9604 bfbb 5e39 0dbc bff6 29bd
000003e0: 4e7b 293c e350 c0bd a351 c3bd 63ea 63bd
000003f0: ba24 493d 9c07 8bbd 4190 27bc e806 ff3d
0.019036194 0.012657991 0.03908365 0.0010825222 0.05898751 0.061815344 0.027799271 0.0095692845
0.042568076 -0.065718696 -0.030432956 -0.028563153 -0.00046445214 0.00035016192 -0.04234841 0.07737993
0.01349841 0.037898604 -0.029005198 -0.063644096 0.013119032 0.057975218 -0.05234795 -0.028036168
-0.08068264 0.02766084 -0.07013693 0.005352695 0.031214822 -0.0024613668 -4.93896e-28 0.043985102
0.098109856 -0.024209388 -0.068349205 0.012115043 -0.0489668 0.10031845 -0.058559556 -0.07711898
0.00022825581 -2.9041538e-09 0.03586518 0.040699147 0.011230635 -0.09303845 -0.082573615 0.029579896
0.022679273 -0.021579247 0.00434146 0.08134256 9.585161e-06 -0.03330703 -0.05557602 0.00092643424
0.011636467 0.08248721 -0.121590756 0.041266408 -0.074812666 -0.008969402 -0.016797561 -0.088608846
-0.06993341 -0.026830414 -0.08050977 -0.04159283 -0.0002409238 0.0008275341 0.013030874 0.04395811
-0.13892932 -0.011241125 -0.05124724 0.07851347 -0.00038598944 0.03435144 -0.09604946 0.07805235
0.068780206 0.06668679 -0.07482527 -0.09180928 -0.118521966 0.02564256 -0.027092982 0.092799425
-0.12660962 -0.058721237 0.072441205 -0.0027296029 -0.0913968 0.105934836 0.07862455 0.07009431
-0.030520633 0.033399794 0.11074065 -0.061250705 -0.03898013 0.052845247 -0.03910098 0.007504993
-0.004508403 -0.019031595 0.036844615 -0.06504809 -0.0483107 -0.02836196 -0.05784285 0.009971759
-0.07989082 -0.08279147 0.002514499 0.018090187 -0.08318368 0.07605208 -0.0013715498 -0.045654137
0.08231145 -0.005562374 0.043582447 -0.035775315 -0.038176477 0.07660054 -0.030044803 0.012512791
-0.033519022 0.05481424 -0.010191898 0.007426126 0.07826367 -0.09736103 0.104359776 -0.058679476
-0.08465095 -0.06755201 -0.047608864 0.059480496 0.00074642466 -0.018010264 0.059887875 -0.027583262
0.08294254 0.07958812 -0.037880957 -0.008477666 -0.058404196 0.012909866 -0.0808717 0.10345375
0.08000838 0.03785402 0.03183654 0.08105089 -0.016237473 0.028883936 5.287124e-29 0.008158105
-0.032418422 -0.0013256525 -0.0813412 -0.05500681 -0.059908185 -0.08514117 -0.18046203 0.00033606004
-3.1910049e-13 3.9171755e-06 -0.021102516 -0.013427986 0.04513007 -0.007881998 0.052440044 0.0016352657
0.08707318 -0.0038975833 0.08091372 0.054438587 0.0025136312 -0.11125731 0.06332371 -0.00056529586
-0.037654515 -0.04442716 0.025499465 -0.05961814 0.09802609 0.05710569 0.13025744 -0.0742297
0.08389415 0.03433818 0.033021834 -0.009868231 -0.0004393319 0.0008988876 -0.08383053 0.06215497
0.042617373 -0.073421404 0.060318157 0.009201067 0.0014718113 0.034978986 0.046786204 0.057908956
0.027589813 -0.058382846 0.0082878815 0.072752036 0.09341386 0.057724223 0.052363284 -0.002834003
-0.009964845 -0.056968246 -0.12264655 -0.043534752 0.024639076 -0.13349137 -0.11345896 -0.081534386
-0.028135108 0.04506494 -0.110323705 -0.024826983 0.12072134 0.067298375 0.029975386 0.075943835
-5.086686e-07 -0.06716913 -0.028837662 -0.055719655 0.0087512145 -0.026890399 -0.1131525 -0.05375484
-0.014203386 0.059293196 -0.06860454 0.010350283 0.09419454 -0.005829404 -0.008619634 -0.04149508
0.01034434 -0.09390428 -0.09537055 -0.05564345 0.04910729 -0.06788561 -0.010227264 0.12452489

bias f4 [10]
00000000: 4ed6 aebd ccdb b1bd 643b 943d 5178 a33d
00000010: bae1 57bd 2f3c 40bd d363 a83d 21fa 033d
00000020: 6eb1 a93d 8433 703c
-0.08536969 -0.08684501 0.0723789 0.07981933 -0.052705504 -0.046932396 0.08222165 0.032220963
0.08285795 0.01466072
