Assignments/Assignment 4/results/classifier_cnn/classifier_cnn.model (torch, 179343 bytes, 8 tensors)

weight f4 [16, 1, 3, 3]
0	0x3ead9e40	0.33909798
1	0xbeb02167	-0.34400484
2	0x3e7e658e	0.24843428
3	0xbe9dd984	-0.30830014
4	0x3e8d3086	0.27576083
5	0xbeb553d1	-0.3541551
6	0xbe9b6ea4	-0.3035785
7	0xbe08a2fc	-0.13343424
8	0x3e91b1ad	0.28455868
9	0xbd008b8b	-0.03138308
10	0x3e7908c6	0.24319753
11	0x3ed12b4b	0.40853342
12	0x3ebbbbbc	0.36666667
13	0x3bd628a8	0.0065356083
14	0x3ecc7969	0.3993638
15	0x3e834154	0.2563578
16	0xbeac27f5	-0.33624235
17	0xbe498b4d	-0.19682045
18	0x3dd5470c	0.10413942
19	0x3eaf533c	0.3424319
20	0x3d9c9173	0.0764493
21	0x3e47bb1f	0.19504975
22	0x3eb86474	0.3601414
23	0xbc3d738e	-0.011563195
24	0x3e217a37	0.15769278
25	0xbe863cd1	-0.26218274
26	0xbe0d627a	-0.13807097
27	0xbdf3392a	-0.118761376
28	0xbe8c7ef6	-0.27440614
29	0x3dbea3a9	0.093085594
30	0xbe87a267	-0.2649109
31	0xbd8767f2	-0.06611623
32	0x3eb9195a	0.36152154
33	0x3eac187a	0.33612424
34	0x3e34cea1	0.17656948
35	0x3c909e52	0.017653618
36	0x3e80a4f6	0.25125855
37	0x3d5ed0a2	0.054398187
38	0x3e840e4e	0.25792164
39	0x3e885764	0.26629174
40	0x3e9aed26	0.30259055
41	0xbe1e6506	-0.15468225
42	0x3e88dd8e	0.26731533
43	0xbdf2ef99	-0.11862106
44	0xbda9c3e9	-0.0828932
45	0xbe4c9461	-0.19978477
46	0x3e0bddca	0.13658825
47	0x3e4c51aa	0.19953027
48	0x3e29fdf2	0.16600779
49	0x3d30ffdb	0.043212753
50	0x3ebb56b9	0.36589602
51	0xbe04c164	-0.12964398
52	0x3e279340	0.16364765
53	0x3e81e700	0.25371552
54	0x3e0fc4a1	0.14039852
55	0x3dda3bc1	0.106559284
56	0x3b6e8858	0.0036397185
57	0xbe315646	-0.17318067
58	0x3eebab26	0.46029013
59	0x3e29fa97	0.16599499
60	0x3ec2c4d9	0.38040808
61	0x3e2f7286	0.17133531
62	0xbdf135a1	-0.11777807
63	0x3e1ee59c	0.15517277
64	0x3ec5e927	0.38654444
65	0x3eb9b9f8	0.36274695
66	0xbe25c6d9	-0.16189136
67	0xbeb15ee4	-0.34642708
68	0xbea2475a	-0.31695062
69	0x3d99e0c9	0.075135775
70	0xbe01acc2	-0.12663558
71	0xbe5c6880	-0.21524239
72	0xbe86dfde	-0.26342672
73	0xbe8b082a	-0.27154666
74	0x3e0d5983	0.13803677
75	0xbeaca25b	-0.33717617
76	0x3ecab906	0.39594287
77	0x3e95a9a7	0.29230997
78	0x3d83ab59	0.06429166
79	0xbd1dd2a6	-0.038530968
80	0xbdebb4d2	-0.11509098
81	0x3eb932e7	0.36171648
82	0xbe99251b	-0.29911122
83	0xbeb406e2	-0.351615
84	0x3ec7ed8f	0.3904843
85	0x3e8e2cd0	0.27768564
86	0x3e81222f	0.25221393
87	0x3ea46ab2	0.32112652
88	0x3e4295fa	0.19002524
89	0x3d08247d	0.033237923
90	0x3e76ef0e	0.2411463
91	0xbe2ebfa0	-0.17065287
92	0x3e2f36d6	0.17110762
93	0xbe443914	-0.19162399
94	0x3e5a424a	0.2131435
95	0x3db8b2a9	0.09018452
96	0xbe660256	-0.22461829
97	0xbe5d960c	-0.2163927
98	0x3e8aa1ff	0.27076718
99	0x3e394e50	0.1809628
100	0xbd1c06f8	-0.038092583
101	0x3ea9fa0a	0.33198577
102	0xbe9ba733	-0.30401
103	0x3cfa1dc0	0.030531764
104	0xbdb1aacd	-0.08675156
105	0x3e50724d	0.20356102
106	0xbd9221b6	-0.07135336
107	0xbd28cd78	-0.041211575
108	0x3d3819e4	0.044946566
109	0x3da7db8b	0.081961714
110	0x3d3b0aa2	0.045664437
111	0x3dc22703	0.09480097
112	0x3d61bbd8	0.055110782
113	0x3e8f2217	0.27955696
114	0xbdbd209b	-0.092347346
115	0x3e9c33dd	0.3050832
116	0xbca506e3	-0.020144885
117	0xbe45b73e	-0.19308183
118	0xbe38e8b3	-0.18057518
119	0xbe2595c6	-0.16170415
120	0xbc48857c	-0.012238856
121	0xbea11113	-0.3145834
122	0xbec35294	-0.3814894
123	0x3c71b191	0.014751808
124	0x3e56549e	0.20930716
125	0xbeb06869	-0.3445466
126	0x3e8494d9	0.25894812
127	0x3cca1c32	0.024671648
128	0xbcd4f71b	-0.025996735
129	0x3e0f51ce	0.1399605
130	0xbeb4174c	-0.35174024
131	0x3aa640b3	0.0012684077
132	0xbd0ebfec	-0.034851
133	0x3d481969	0.048852358
134	0xbd9b67d5	-0.07588164
135	0x3e9edf6f	0.3102984
136	0x3e4c245c	0.19935745
137	0x3e0a3592	0.13496998
138	0x3e957fc3	0.29199037
139	0x3ebcb9a2	0.36860377
140	0x3e4d1f62	0.20031503
141	0xbeb332ce	-0.34999698
142	0xbe69516e	-0.22784969
143	0x3d04b04d	0.032394696

bias f4 [16]
0	0xbe770699	-0.2412361
1	0x3e4ae614	0.1981433
2	0x3e577397	0.21040188
3	0x3dda6738	0.10664219
4	0xbe6154aa	-0.22004953
5	0xbd586e92	-0.052839823
6	0x3e713f03	0.23559193
7	0x3e839a2e	0.25703567
8	0xbe75d817	-0.24008213
9	0x3da0a2fd	0.078435875
10	0x3e56516f	0.20929502
11	0xbe1f45a2	-0.15553907
12	0x3dad5416	0.08463304
13	0xbe99d59b	-0.3004578
14	0x3dc02cbb	0.09383532
15	0xbe823dc1	-0.2543774

weight f4 [64, 16, 3, 3]
0	0x3dc283f6	0.09497826
1	0x3ddac7b0	0.106826186
2	0x3d85a0a0	0.065247774
3	0xbc92c5c2	-0.017916564
4	0x3d9344bb	0.07190844
5	0x3cb4b52d	0.022059048
6	0x3d39bb56	0.045344673
7	0xbd058a90	-0.032602847
8	0x3d2caaad	0.042154957
9	0xbd65c740	-0.056098223
10	0x3d24a15d	0.04019295
11	0xbd8a81e7	-0.06763058
12	0xbd0377e4	-0.03209676
13	0xbacb3011	-0.0015501996
14	0x3c4f88d9	0.012666904
15	0x3ca0e735	0.019641498
16	0x3d22436d	0.039615083
17	0x3d415cbb	0.047207575
18	0x3cf27e77	0.029601319
19	0x3dbda2f3	0.09259596
20	0xbd3085c1	-0.043096308
21	0xbd9fd7b9	-0.07804818
22	0x3ccd5a67	0.025067521
23	0xbd286137	-0.041108336
24	0x3a4d7bda	0.0007838585
25	0x3da72f1f	0.081632845
26	0x3c8d8fd2	0.017280493
27	0xbda97214	-0.08273712
28	0x3d32bbc4	0.0436361
29	0x3d740397	0.059573736
30	0x3da2acce	0.07943116
31	0x3dbef527	0.09324103
32	0x3c3c418c	0.011490237
33	0xbc1c3523	-0.009534153
34	0x3d85ac6a	0.06527026
35	0xbd700679	-0.058599923
36	0x3d90c50b	0.07068833
37	0x3d816ebc	0.06319949
38	0x3c4da7b8	0.012552194
39	0x3c917432	0.017755602
40	0x3c3cb29c	0.011517193
41	0x3d383e4d	0.04498129
42	0x3da649d2	0.08119549
43	0x3da37b8a	0.079825476
44	0x3d9a32b8	0.07529205
45	0xbbd51df7	-0.006503816
46	0xbd17b0cb	-0.037033837
47	0x3d4e8c4e	0.050426774
48	0xbd8c35f1	-0.06846226
49	0xbcc6aded	-0.024252856
50	0x3d42eac2	0.047587164
51	0x3c33c330	0.010971829
52	0x3d83c822	0.06434657
53	0xbd1ebc3a	-0.038753726
54	0xbcd0ce35	-0.025488952
55	0x3cd73a23	0.026272839
56	0x3db3d939	0.08781666
57	0x3d723327	0.059130814
58	0x3cae534d	0.021279955
59	0x3ce4ba93	0.027920997
60	0xbcb11716	-0.021617454
61	0xbc0691b9	-0.008213454
62	0x3c557aea	0.013029793
63	0x3ddb17ea	0.106979206
64	0xbc01add3	-0.007914978
65	0xbde9c4b5	-0.11414472
66	0xbd308caa	-0.043102898
67	0xbde89d41	-0.11358119
68	0xbc01ec9c	-0.007929947
69	0x3d190e0a	0.037366904
70	0x3d66bf4d	0.056334782
71	0x3d9b95c4	0.07596925
72	0xbd5110b0	-0.051041305
73	0x3da26759	0.07929868
74	0x3cf3f720	0.029780924
75	0x3d8277c2	0.06370498
76	0xbd4a5809	-0.049400363
77	0x3cff3feb	0.031158408
78	0xbc0cd9d8	-0.00859686
79	0x3d860979	0.065447755
80	0x3c26b342	0.010174574
81	0xbd933644	-0.07188085
82	0x3d594bc4	0.05305077
83	0x3cd1238e	0.02552965
84	0x3c96885a	0.018375564
85	0x3d28f8ce	0.041252904
86	0x3cb52992	0.022114549
87	0x3dabda8c	0.08391294
88	0xbd3aff39	-0.045653556
89	0x3d8cb78c	0.06870946
90	0xbc1f7e84	-0.0097347535
91	0xbd5d167d	-0.053976525
92	0xbd0c5203	-0.0342579
93	0x3d2fdf50	0.042937577
94	0x3dcc0574	0.099619776
95	0x3c962d1e	0.01833206
96	0x3c2424e5	0.010018562
97	0xbc4fefa3	-0.012691411
98	0xbc40edfa	-0.011775488
99	0xbdb7dee6	-0.089780614
100	0x3da6b7ab	0.08140501
101	0xbdaeb392	-0.08530344
102	0xba9c8196	-0.0011940475
103	0xbd67a8de	-0.05655753
104	0x3d3f94b5	0.046772677
105	0xbd8fc71c	-0.07020399
106	0x3d272d3f	0.040814634
107	0x3c7feb4d	0.015620065
108	0x3d0117c2	0.031516798
109	0x3c8167d2	0.015796576
110	0x3d731ea5	0.059355397
111	0xbd116af8	-0.035502404
112	0x3d62cd7f	0.055371758
113	0x3cb85dbc	0.022505634
114	0xbd5f713f	-0.05455136
115	0x3d09f734	0.033683017
116	0x3d967811	0.073471196
117	0x3b7cb45e	0.0038559656
118	0x3cd079ab	0.02544864
119	0x3d17b343	0.03703619
120	0xbd42e29d	-0.047579397
121	0xbdbeecf5	-0.0932254
122	0x3d56cbf8	0.052440614
123	0x3c8386be	0.016055461
124	0xbd156ff1	-0.03648371
125	0x3d4a2127	0.049348023
126	0x3c835741	0.016032817
127	0x3d5363cf	0.051608857
128	0x3d84125d	0.06448815
129	0x3d845961	0.0646236
130	0x3d9753cd	0.073890306
131	0x3cfb4460	0.030672252
132	0x3d8be3f0	0.06830585
133	0x3da6a498	0.081368625
134	0x3d4376a6	0.047720574
135	0xbcb85790	-0.02250269
136	0xbd2d680d	-0.04233556
137	0xbc969ffe	-0.018386837
138	0x3d7f4995	0.062326033
139	0xbd522aa0	-0.05131018
140	0xbdb96c88	-0.09053904
141	0x3c0e2fa3	0.00867835
142	0xbd9fafe0	-0.07797217
143	0x3daa309f	0.08310055
144	0xbb41b8b7	-0.0029559562
145	0xbd07b694	-0.033133104
146	0x3d68a898	0.05680141
147	0x3d8f504c	0.06997737
148	0x3d84522d	0.06460986
149	0xbb83658a	-0.004009907
150	0xbd707c5a	-0.05871234
151	0xbdf2f4ee	-0.11863123
152	0x3d4841be	0.04889082
153	0xbde76070	-0.11297691
154	0xbd972786	-0.07380585
155	0xbd0e734c	-0.034777924
156	0xbdb909a8	-0.09035045
157	0xbdaad3d6	-0.08341186
158	0x3d108d13	0.03529079
159	0x3dc78605	0.09742359
160	0x3d6132e1	0.054980163
161	0xbd85519f	-0.065097086
162	0x3cc9fe4b	0.02465739
163	0xbd48e16c	-0.049043104
164	0xbd01fabe	-0.031733267
165	0xbdb2dc70	-0.08733451
166	0x3cd150e9	0.025551276
167	0xbd712895	-0.058876593
168	0xbd768bb3	-0.06019182
169	0x38c58919	9.4192284e-05
170	0xbd542658	-0.05179438
171	0xbc3ab21d	-0.011395005
172	0xbcaede27	-0.021346165
173	0xbcb32d42	-0.021872167
174	0x3c8f1aaa	0.01746877
175	0xbcba8583	-0.022768741
176	0x3da1952c	0.078897804
177	0xbc7c60f4	-0.015403975
178	0xbd6e0200	-0.058107376
179	0xbd4cd836	-0.050010882
180	0xbca4d4d0	-0.020121008
181	0xbd88d515	-0.06681267
182	0x3c9a6cc2	0.018850688
183	0xbdb5ea10	-0.088825345
184	0xbc890939	-0.01672803
185	0xbbfd585c	-0.0077314805
186	0xbbee650e	-0.0072752303
187	0x3dd0ec67	0.1020134
188	0x3d5da84a	0.05411557
189	0x3cae6b6b	0.021291455
190	0xb8ccb06e	-9.7603406e-05
191	0xbdb9ec8a	-0.09078319
192	0x3ca78b3e	0.020452138
193	0xbda0a9ef	-0.07844912
194	0xbd83cfcb	-0.06436118
195	0xbc8b523b	-0.017006984
196	0xbb51a530	-0.0031989329
197	0x3d23578d	0.039878417
198	0x3b0d27f2	0.0021538702
199	0x3b03cea2	0.0020112176
200	0x3d5fcc26	0.05463805
201	0xbd17151e	-0.036885373
202	0x3d55bbb6	0.05218097
203	0xbdc9338b	-0.09824284
204	0x3dddac8c	0.10823926
205	0x3dce6612	0.10078062
206	0x3c0c8495	0.008576532
207	0xbcc7ddf8	-0.024397835
208	0xbda4b40b	-0.08042153
209	0x3d112589	0.035436187
210	0xbdaa2cb8	-0.08309311
211	0xbd88adef	-0.066738
212	0xbd2b60ca	-0.041840352
213	0xbd76307c	-0.060104832
214	0xbdb54656	-0.08851306
215	0xbd0b33e8	-0.03398505
216	0x3cbf9605	0.023386965
217	0xbdadb7ae	-0.084823
218	0x3d4ace1d	0.04951297
219	0xbdb15e3c	-0.08660552
220	0xbbf4d7b8	-0.0074720047
221	0x3ce3678a	0.027759332
222	0xbd0519fb	-0.03249548
223	0x3d919389	0.07108218
224	0xbdeb717e	-0.11496256
225	0xbdb83d49	-0.08996064
226	0xbdc35a11	-0.09538663
227	0xbde12960	-0.1099422
228	0x3d748017	0.05969247
229	0x3d243d1f	0.040097352
230	0xbd0582b7	-0.032595363
231	0x3da5d378	0.08096975
232	0x3deedf70	0.11663711
233	0x3cd70149	0.02624573
234	0xbc86ab00	-0.016438961
235	0xbd571b18	-0.052516073
236	0x3d0b5b6d	0.034022737
237	0x3d9e4650	0.07728255
238	0xbd31f27d	-0.043444145
239	0xbdc300e8	-0.09521657
240	0x3d7f1393	0.062274527
241	0xbbaf949a	-0.005358291
242	0x3d4d616e	0.050141744
243	0xbb10caf4	-0.0022093626
244	0x3d7ffa04	0.062494293
245	0xbbc227c6	-0.0059251515
246	0xbd714312	-0.058901854
247	0xbda62887	-0.08113199
248	0xbdb4d130	-0.08828962
249	0x3db12bcd	0.086509325
250	0xbd88aa75	-0.06673137
251	0x3cdafc59	0.026731657
252	0x3b9728c4	0.004613014
253	0xba9bef02	-0.0011896791
254	0x3d7fcd9b	0.06245194
255	0xbd2e9bb5	-0.042628963

bias f4 [64]
0	0xbd7e39a9	-0.062066708
1	0x3d21ecde	0.039532535
2	0xbd24db1e	-0.04024803
3	0x3cfee978	0.031117186
4	0x3d6602fb	0.056155186
5	0xbd4e5c97	-0.05038127
6	0xbd3efe72	-0.046629377
7	0xbd97d8ca	-0.07414396
8	0xbd109311	-0.035296503
9	0xbd2ebf94	-0.042663172
10	0x3d0f2d51	0.034955326
11	0xbd58cbd2	-0.052928753
12	0xbc89949b	-0.016794493
13	0xbda0e1b3	-0.07855549
14	0xbd7aef46	-0.061263345
15	0x3d996bae	0.074912414
16	0x3c47ff5a	0.012206877
17	0xbd1c90c7	-0.038224008
18	0x3d3ced74	0.04612489
19	0x3d671126	0.05641284
20	0xbbd522d2	-0.006504395
21	0xbd9be2ad	-0.07611594
22	0xbd0e0e95	-0.034681875
23	0xbbb8244d	-0.0056195618
24	0x3c4c9ee5	0.012489055
25	0xbd110eb3	-0.03541441
26	0xbdad86e8	-0.08472997
27	0x3d097a1b	0.033563714
28	0xbd55ecec	-0.0522279
29	0xbd74118f	-0.059587058
30	0xbd87f51b	-0.06638547
31	0xbda2f235	-0.079563536
32	0xbb4164c3	-0.0029509522
33	0xbc59b5ec	-0.013288002
34	0xbd2aafe7	-0.04167166
35	0xbd6d6ea5	-0.057966847
36	0xbc669a98	-0.014074944
37	0xbd836d70	-0.06417358
38	0x3bdb0ccf	0.0066848765
39	0xbd47b58b	-0.048757117
40	0xbd6a0a2f	-0.057138618
41	0xbd07b215	-0.033128817
42	0xbcb7de12	-0.022444759
43	0x3dad4706	0.08460812
44	0x3d5c3108	0.053757697
45	0xbb87cca8	-0.00414427
46	0x3d944087	0.0723887
47	0x3dad09c3	0.084491275
48	0xbd0d812d	-0.03454702
49	0x3bf27119	0.007398736
50	0xb8a1f9a4	-7.7235774e-05
51	0x3c04cf71	0.0081060985
52	0x3dad2f7d	0.08456323
53	0x3d33a018	0.04385385
54	0x3c5d81be	0.0135197025
55	0x3d481621	0.04884923
56	0x3cf43009	0.029808061
57	0xbbe3d704	-0.006953122
58	0x3c08fdfd	0.008361337
59	0xbd652496	-0.055943094
60	0xbd8e57a6	-0.06950311
61	0xbcfd16fa	-0.030894745
62	0x3d9a60e6	0.07538013
63	0xbd52fc55	-0.051510174

weight f4 [128, 256]
0	0xbd7bba73	-0.06145711
1	0x3d6ea805	0.058265705
2	0xbd146a9e	-0.03623449
3	0xbd652017	-0.055938806
4	0xbd7e26f2	-0.06204886
5	0x38bf7002	9.128453e-05
6	0xbd29e90d	-0.04148202
7	0xbc9524a0	-0.01820594
8	0x3bea444e	0.007149256
9	0xbd1c86f0	-0.038214624
10	0xbbe130c4	-0.0068722684
11	0xbb08b559	-0.0020860045
12	0x3d74ac83	0.059734832
13	0xbd80bae9	-0.0628565
14	0x3d598f26	0.053115033
15	0xbd9d47e0	-0.07679725
16	0x3d74f17b	0.059800606
17	0x3cd814be	0.026377078
18	0x3c69d2f7	0.014271489
19	0x39e0ab69	0.0004285232
20	0x3d253c83	0.04034091
21	0x3d837b78	0.06420034
22	0xbd9574d6	-0.07297675
23	0x3cac0193	0.020996844
24	0x3d0e5a59	0.03475413
25	0xbd126314	-0.03573902
26	0xbd41562d	-0.047201324
27	0x3c9f3392	0.01943377
28	0x3bd2c55f	0.00643222
29	0x3c8b7f8d	0.017028594
30	0xbba897d3	-0.005145052
31	0xbd85c8e7	-0.0653246
32	0x3d21c4b6	0.03949424
33	0xbd798c44	-0.060924783
34	0xbd840d32	-0.06447829
35	0xbd6621bb	-0.05618451
36	0x3d93edf0	0.07223117
37	0xbdbafcd1	-0.09130252
38	0xbc4ec84f	-0.0126209995
39	0xbd5b4d32	-0.053540416
40	0xbd3f179b	-0.04665337
41	0x3cf4c7fc	0.029880516
42	0x3db2389b	0.08702203
43	0xbd0b9101	-0.034073833
44	0xbc8d04be	-0.017214175
45	0x3d5abcc1	0.053402666
46	0x3b07018f	0.0020600294
47	0xbc4b8363	-0.012421462
48	0xbd80ec4b	-0.06295069
49	0xbbc136bb	-0.005896417
50	0xbd009252	-0.031389542
51	0xbd0887a3	-0.03333248
52	0xbd4069f6	-0.046976052
53	0xbd801b78	-0.06255239
54	0x3d43a2ba	0.04776261
55	0x3d4f4547	0.050603177
56	0xbcce1c18	-0.02515988
57	0x3cab5163	0.020912832
58	0x3ddc62fb	0.107610665
59	0x3c5cdbe8	0.013480164
60	0x3d4a460a	0.0493832
61	0xbd652502	-0.055943497
62	0xbbb7e25b	-0.0056117005
63	0xbd87dced	-0.06633935
64	0xbb9fbf9f	-0.004875138
65	0x3db28c18	0.08718127
66	0x3d322dbc	0.043500647
67	0x3d8f4348	0.06995255
68	0x3dbeedec	0.09322724
69	0x3b52e51f	0.0032180024
70	0xbd9e6ed2	-0.07735981
71	0xbda96993	-0.0827209
72	0xbd6569d3	-0.056009125
73	0xbd1303b0	-0.03589219
74	0x3cef739b	0.02922993
75	0x3d71a322	0.058993466
76	0x3c5a3b8b	0.01331986
77	0xbd3d738f	-0.046252783
78	0x3d4f2186	0.05056908
79	0xbc953340	-0.018212914
80	0x3bcf4697	0.0063255536
81	0xbd617521	-0.055043343
82	0x3d0b169c	0.03395711
83	0x3b00d6e7	0.0019659342
84	0x3cd45e87	0.02592398
85	0x3c8ea2d9	0.017411636
86	0xbdb0dad9	-0.08635492
87	0xbb483ba7	-0.0030553134
88	0xb96a28a7	-0.00022331123
89	0x3c1ec62c	0.009690803
90	0x3cede2f0	0.029038876
91	0xbccf0edd	-0.025275642
92	0x3d66e66f	0.056372102
93	0x3ce55b3c	0.027997606
94	0x3d291e4a	0.04128865
95	0xbd1c9534	-0.03822823
96	0xbd6db3e6	-0.058032893
97	0x3d64fc7d	0.055904854
98	0xbd81538f	-0.06314766
99	0xbd4851db	-0.04890619
100	0x3d24b59e	0.040212266
101	0x3d79b062	0.060959227
102	0x3d94c33d	0.07263801
103	0x3c8706d3	0.016482746
104	0xbccd0874	-0.025028445
105	0xbcad9c57	-0.021192713
106	0x3bf54723	0.007485287
107	0xbcf686dc	-0.030093603
108	0xbd632409	-0.055454288
109	0xbcdf1c51	-0.027235182
110	0x3d075f0e	0.033049636
111	0xbd526d37	-0.051373687
112	0x3c998028	0.018737867
113	0x3ca2dd2b	0.019880852
114	0xbcf1aec5	-0.029502282
115	0xbd424123	-0.0474254
116	0x3d2903e7	0.041263487
117	0x3dd20131	0.102541335
118	0xbc2394d9	-0.0099842185
119	0x3de41544	0.111368686
120	0x3d47dfae	0.048797302
121	0x3d95a642	0.07307102
122	0x3d267cb9	0.04064629
123	0x38cf1852	9.875059e-05
124	0x3d10ab4b	0.035319608
125	0xbd0a8712	-0.03382022
126	0xbb9862a0	-0.004650429
127	0xbcc4008a	-0.023926038
128	0xbc1afb8b	-0.009459387
129	0x3d1bd85a	0.038048126
130	0x3d7ab0a7	0.061203625
131	0xbd3f7aea	-0.04674808
132	0x3d1753b8	0.036945075
133	0x3d69ed1b	0.057110887
134	0x3dc8c4a3	0.098031305
135	0x3cb6f4b6	0.022333484
136	0xbc83141f	-0.016000805
137	0x3c385670	0.011251077
138	0x3cfc937a	0.030832041
139	0x3d2be996	0.04197081
140	0x3bfcff8e	0.007720894
141	0x3d362b4a	0.044474877
142	0x3c552559	0.013009393
143	0xbba9a66c	-0.0051773097
144	0x3e0a3424	0.13496453
145	0x3cdd051b	0.026979974
146	0x3c76c9ab	0.01506273
147	0x3cb149a8	0.021641567
148	0x3cfb6a7b	0.030690422
149	0x3d8bb016	0.06820695
150	0x3d64eb31	0.05588836
151	0xbcbe9c40	-0.023267865
152	0xbd37588b	-0.044762176
153	0xbb87e6cf	-0.0041473876
154	0xbb753b27	-0.003741929
155	0x3c49177a	0.012273664
156	0xbd2cde31	-0.042204086
157	0xbbb8ecc4	-0.005643459
158	0xbd3f3b7b	-0.046687584
159	0x3cba6758	0.022754356
160	0x3b15b6d2	0.0022844565
161	0xbd27bd9a	-0.040952303
162	0xbd2d0d44	-0.04224898
163	0xbc936496	-0.017992299
164	0xbcca57c7	-0.024700059
165	0x3da33f35	0.0797104
166	0x3c2663f7	0.010155669
167	0x3d380151	0.04492313
168	0x3d609cfb	0.05483721
169	0xbb952781	-0.0045518284
170	0x3d05639b	0.032565694
171	0xbcefb0b4	-0.029259063
172	0x3d30e4ec	0.043187067
173	0xbc822a70	-0.015889376
174	0x3da91c0e	0.08257304
175	0x3b93dbdf	0.0045122947
176	0xbce3a4d5	-0.027788559
177	0x3d7b5840	0.06136346
178	0x3cf3f7ab	0.029781183
179	0xbd32528c	-0.043535754
180	0xbd119dd6	-0.035550915
181	0x3dba487f	0.09095859
182	0x39c59867	0.00037688317
183	0xbd5ed576	-0.05440279
184	0x3c8d654c	0.017260216
185	0xbcdca7e8	-0.026935533
186	0x3c044a11	0.008074299
187	0x3d051721	0.03249276
188	0x3c8d1814	0.017223395
189	0x3c1316ef	0.008977636
190	0xbb7d9372	-0.003869262
191	0xbccebb01	-0.025235655
192	0xbd990e44	-0.07473424
193	0x3d02da38	0.03194639
194	0x3cc67099	0.024223613
195	0x3d5c12ee	0.05372899
196	0xba2ec1f5	-0.0006666475
197	0x3c0e00d4	0.00866719
198	0x3c538870	0.012910947
199	0xbd583385	-0.052783508
200	0xbcb000c1	-0.021484734
201	0xbd20d50a	-0.03926567
202	0x3cbb0ef7	0.022834284
203	0xbd3d0316	-0.04614552
204	0xbbe19ea1	-0.006885365
205	0x3d0dbec2	0.03460575
206	0x3ce3a54a	0.027788777
207	0x3dad45be	0.08460568
208	0x3d545913	0.05184276
209	0x3d831500	0.0640049
210	0xbd229771	-0.039695207
211	0xbced8897	-0.028995795
212	0xbc98c3a9	-0.018647986
213	0xbd2917bb	-0.041282397
214	0xbd346e53	-0.044050526
215	0xbd606c1a	-0.054790594
216	0x3cd4e3ce	0.025987532
217	0x3d1b00f3	0.037842702
218	0x3d56b732	0.052420802
219	0x3d7206fa	0.059088685
220	0xbd97639e	-0.07392047
221	0x3cb6499a	0.022251893
222	0xbd0af59d	-0.03392564
223	0x3d708448	0.058719903
224	0x3d70cc4e	0.05878859
225	0xbd86b624	-0.06577709
226	0x3d0eac54	0.034832314
227	0xbcde38d5	-0.027126709
228	0x3c542d61	0.012950272
229	0x3d016a0f	0.031595286
230	0x3d458804	0.048225418
231	0x3c2279a6	0.009916699
232	0x3cd931a2	0.026512925
233	0x3ce8c4c6	0.028414141
234	0xbd1013cf	-0.03517514
235	0xbc9e601e	-0.019332942
236	0xbd24158b	-0.040059607
237	0x3daaa0f4	0.083314806
238	0xbc234161	-0.009964318
239	0x3d6632c1	0.056200746
240	0xbcfdbc08	-0.03097345
241	0xbd06d759	-0.032920215
242	0x3d455cd8	0.048184246
243	0xbcabc17c	-0.020966284
244	0xbcde4453	-0.027132189
245	0xbc0458da	-0.0080778245
246	0x3d56c425	0.05243315
247	0xbd342a82	-0.04398585
248	0x3b5b2277	0.003343729
249	0x3c96ab28	0.01839216
250	0xbb24f1bf	-0.0025168506
251	0x3d502143	0.05081297
252	0xbc0c87c2	-0.008577289
253	0xbd8fbea5	-0.070187844
254	0xbc473a0b	-0.012159835
255	0x3ce5e6c5	0.028064141

bias f4 [128]
0	0xbc24524d	-0.010029388
1	0xbd3293fb	-0.043598156
2	0xb019d31f	-5.5961097e-10
3	0x3d1c0916	0.038094603
4	0x3d2cbe82	0.04217387
5	0xba0abd48	-0.00052924873
6	0xbd577c4d	-0.052608777
7	0xac3c89ea	-2.6792965e-12
8	0x3cadd68e	0.021220472
9	0xbcb7f1d2	-0.022454176
10	0x3ca4f573	0.02013657
11	0xbcec2cc5	-0.028829942
12	0xbcad0106	-0.021118652
13	0x38e9da66	0.00011150986
14	0x3b604775	0.003422228
15	0xbcad6dd4	-0.021170534
16	0x3b2e8216	0.002662783
17	0x3d122dd2	0.03568823
18	0x3b712ec4	0.0036801556
19	0x3d3325be	0.043737166
20	0x3cb1ad1b	0.021688988
21	0x3c1d7340	0.009609997
22	0xbcaf8fce	-0.021430876
23	0x3b5ebc96	0.0033986918
24	0xba2c7b66	-0.0006579667
25	0xbcf6a5f5	-0.030108431
26	0x3d3ca95a	0.046059944
27	0x38d10ba2	9.9680634e-05
28	0x3c84bd14	0.01620344
29	0x3cffc950	0.031223923
30	0xbcb4e6fe	-0.022082802
31	0x3c37755a	0.011197412
32	0x3ba81242	0.0051291296
33	0x3d12944d	0.035785962
34	0x3d0c29a1	0.034219388
35	0xbcd3efa7	-0.025871111
36	0x3c23c2cb	0.009995173
37	0x3d0ac745	0.033881444
38	0x3c8b4f2c	0.017005526
39	0x3bb9d511	0.0056711514
40	0xbbdb7f15	-0.006698499
41	0x3d41f131	0.04734916
42	0x3cca3adc	0.02468627
43	0x3d2599ef	0.040430006
44	0x3ca146c0	0.019687057
45	0xbc0899f1	-0.008337484
46	0x3c9c3654	0.019068874
47	0xbcdd830e	-0.02704003
48	0x3cf006f6	0.029300194
49	0x3d4ff32e	0.050769024
50	0x3c8004ec	0.015627347
51	0xbcce4e4b	-0.025183817
52	0x3c7cc095	0.0154267745
53	0x3d351267	0.044207003
54	0xbd652057	-0.055939045
55	0xbcee81a8	-0.02911456
56	0x3c082aa8	0.008310951
57	0x3d41100b	0.04713444
58	0xbcbef12b	-0.023308357
59	0xbb6bf3bb	-0.003600343
60	0x3d48aa22	0.048990376
61	0xb55a6cdd	-8.1369745e-07
62	0x3c5d2c15	0.0134992795
63	0xbd22f754	-0.03978665
64	0x3d489885	0.04897358
65	0xbd1e5510	-0.03865534
66	0xb98079f8	-0.00024504936
67	0xbbf58013	-0.0074920743
68	0x3d3b856a	0.04578153
69	0x3d252b6b	0.04032461
70	0x3d1edd11	0.038785044
71	0x3d519cc6	0.0511749
72	0x3cdbffc7	0.026855363
73	0x3c385916	0.0112517085
74	0x3d7c7c48	0.06164196
75	0x3a3e6dd2	0.00072642893
76	0xba8385ac	-0.0010034344
77	0x3c8a3ee7	0.016875697
78	0x3d28a874	0.041176274
79	0xbd1992af	-0.037493404
80	0xbc7f49e8	-0.0155815855
81	0x3c7ff6ed	0.015622837
82	0x3ce8a6ac	0.028399788
83	0x3d341b8f	0.043971594
84	0x3c9b9de7	0.018996192
85	0x3d43aeeb	0.047774237
86	0x3d20146c	0.039081976
87	0x3c7b89a6	0.015352642
88	0x3d23bd7c	0.03997563
89	0xbd1aac13	-0.03776176
90	0x3d2fc458	0.042911857
91	0xbcf14be8	-0.02945514
92	0x3aac50e1	0.0013146662
93	0x3bd441fc	0.0064775925
94	0xbd5a35d2	-0.053273983
95	0x3d7fcd6c	0.062451765
96	0x3c466597	0.012109182
97	0xbb3f0a23	-0.002915033
98	0xb8d8f92a	-0.00010346093
99	0xb356017b	-4.9827104e-08
100	0xbd402b89	-0.04691652
101	0xbb9f0014	-0.0048523042
102	0x3cbb2b19	0.022847699
103	0xbd11aef2	-0.03556723
104	0xbc062ba3	-0.008189115
105	0xb91b901a	-0.00014835634
106	0xb983baa1	-0.00025125316
107	0x3c7bb510	0.015362993
108	0xbd1a2b16	-0.037638746
109	0xb942a392	-0.00018562216
110	0xbc73dad4	-0.014883716
111	0xbc4efa29	-0.012632885
112	0xb9b92fb0	-0.0003532148
113	0xbaa89234	-0.0012860955
114	0x3c8bf7e4	0.017085977
115	0xbd55c839	-0.0521929
116	0xac493075	-2.8590717e-12
117	0x12311435	5.587626e-28
118	0x3d7ad69e	0.06123983
119	0xbd1750ca	-0.03694228
120	0x3c60047e	0.013672946
121	0xbd0ab3a3	-0.03386272
122	0x3c24c858	0.010057531
123	0x3cb2e809	0.021839159
124	0xba39369e	-0.00070653285
125	0xbd6350d8	-0.05549702
126	0x3d4a0479	0.04932067
127	0x3c4f0917	0.0126364445

weight f4 [10, 128]
0	0xbda7960d	-0.08182917
1	0x3d49d9ba	0.049279906
2	0x1892f069	3.7982868e-24
3	0xbd8df149	-0.06930787
4	0x3d027bb5	0.031856257
5	0xbaa24bcf	-0.0012382212
6	0xbd93a35e	-0.07208894
7	0xab61bf2f	-8.020138e-13
8	0xbd436493	-0.047703337
9	0xbce730e5	-0.028221557
10	0x3de8c75b	0.11366149
11	0x37c85595	2.388171e-05
12	0xbc2521ad	-0.01007883
13	0xbd0a08ad	-0.03369968
14	0xbc385f78	-0.01125323
15	0x3dc500f7	0.09619325
16	0xbd7a4b25	-0.06110682
17	0xbd58df9b	-0.05294762
18	0x3d909ca1	0.070611246
19	0xbda0158b	-0.07816609
20	0xb98c5d8d	-0.00026772582
21	0xbd9dd994	-0.07707515
22	0xbba43806	-0.0050115613
23	0xbb5b8ef8	-0.0033501964
24	0xba21950a	-0.0006163871
25	0x3d92c693	0.07166781
26	0xbd53aa50	-0.051676095
27	0xba0c9912	-0.00053633854
28	0xbbd1d3b7	-0.006403412
29	0x3c247cf2	0.010039555
30	0xbde509bc	-0.11183497
31	0x3bf2f399	0.007414293
32	0xbd950ce9	-0.07277853
33	0x3d852024	0.06500271
34	0x3d9110c9	0.0708328
35	0xbcf0cf0c	-0.029395603
36	0x3c8382de	0.016053613
37	0xbd0dea79	-0.03464744
38	0x3bb54521	0.0055319224
39	0x3c8e3741	0.017360331
40	0xbd8a3be1	-0.06749702
41	0xbdde18a2	-0.10844542
42	0xbadb44ec	-0.0016728914
43	0xbdf49edd	-0.11944363
44	0x3d83d3f6	0.06436913
45	0x3d21ecce	0.039532475
46	0x3cf6893f	0.03009474
47	0x3d047088	0.03233388
48	0xbdcddf15	-0.10052315
49	0x3bfa85f5	0.0076453635
50	0xbcbaa8b2	-0.022785518
51	0xbbb12810	-0.005406387
52	0x3e0582b6	0.13038144
53	0x3d9cf141	0.07663203
54	0xbdbffb15	-0.09374062
55	0xbcbce34c	-0.023057602
56	0xbd84bbb5	-0.06481115
57	0x3ca17515	0.01970915
58	0xbd2bd035	-0.04194661
59	0x3ba9284f	0.005162276
60	0x3d96d89c	0.07365534
61	0x39b97b9a	0.0003537804
62	0xbd742ad8	-0.05961117
63	0x3d38aef6	0.04508873
64	0xbd09ca28	-0.033640057
65	0x3dc1ba81	0.09459401
66	0xba79f175	-0.0009534576
67	0xbcc09eef	-0.023513285
68	0xba86bc10	-0.0010279436
69	0xbc820a1a	-0.015873957
70	0xbd189992	-0.03725583
71	0x3a0f06b0	0.00054560136
72	0x3cfa6863	0.030567354
73	0x3d1c6f0e	0.038191848
74	0x3d9662bd	0.073430516
75	0xbc80503a	-0.015663255
76	0x3ce84d37	0.028357131
77	0x3d63f861	0.055656794
78	0x3d2e029c	0.042482957
79	0xbd646dcb	-0.05576877
80	0xbb748f83	-0.0037316985
81	0xbdd2a4df	-0.10285353
82	0xbd7ca13e	-0.06167721
83	0xbd1a3f08	-0.037657768
84	0x3dc5e74d	0.09663258
85	0xbd06979e	-0.032859437
86	0xbc0a2620	-0.008431941
87	0x3cdc3c01	0.02688408
88	0xbdce463e	-0.100719914
89	0x3cd426c8	0.025897399
90	0xbd0be7f3	-0.03415675
91	0x3d89ba78	0.06725019
92	0x3cefd5e7	0.029276801
93	0xbd1292e1	-0.035784606
94	0x3d3ad6dd	0.045615066
95	0xbb4586cf	-0.0030140167
96	0x3cef1b05	0.029187689
97	0x3d8b7246	0.06808905
98	0x2588865a	2.368328e-16
99	0xba9780ef	-0.0011558811
100	0x3b908221	0.004410044
101	0x3dc696aa	0.09696706
102	0x3d9abcb6	0.07555525
103	0xb938dfec	-0.00017631025
104	0xbd1c6dee	-0.038190775
105	0xbad0c5d1	-0.0015928095
106	0x3a2eded3	0.00066707766
107	0xbd8b4bed	-0.06801591
108	0xbd32cdba	-0.043653227
109	0x37f38ddb	2.9033914e-05
110	0xbd7d4691	-0.061834875
111	0xbc78c6a0	-0.015184075
112	0xba634c79	-0.0008670758
113	0x3dbbd456	0.09171359
114	0x3de45b15	0.11150185
115	0xbdac2b24	-0.08406666
116	0xa8072212	-7.501393e-15
117	0x8a369482	-8.7909125e-33
118	0xbd9f3c8d	-0.07775221
119	0xbd35001e	-0.044189565
120	0xbc822e74	-0.015891291
121	0x3d9b4d0d	0.07583056
122	0x3da80258	0.08203572
123	0xbdaacf6b	-0.08340343
124	0xbb672584	-0.0035270164
125	0xbd167bdd	-0.03673922
126	0x3d9a4cb7	0.075341634
127	0x3d9bb0e7	0.07602101
128	0x3dc70446	0.09717612
129	0x3d8b3f75	0.06799213
130	0x158ffb11	5.815335e-26
131	0x3d62c280	0.05536127
132	0xbda6dcea	-0.08147605
133	0x3adc7007	0.0016818055
134	0xbdfda4e7	-0.12384968
135	0x2d2ae4b4	9.7141635e-12
136	0x3bea7b2a	0.0071557956
137	0x3d0c4f75	0.034255464
138	0xbb9cca5e	-0.0047848662
139	0xb7a75e28	-1.9951796e-05
140	0xbda57b01	-0.08080102
141	0xbac47acc	-0.001499021
142	0x3d05b662	0.032644637
143	0x3c65f848	0.014036246
144	0x3d94d149	0.072664805
145	0xbc6542c1	-0.013992966
146	0x38ee5e49	0.00011366286
147	0x3da88a85	0.082295455
148	0xb7e240ca	-2.697147e-05
149	0xbd8b4c75	-0.068016924
150	0x3e03b4e5	0.12861975
151	0xbd8e2f32	-0.069425955
152	0x3a951b11	0.0011375864
153	0xbcc6e8b2	-0.02428088
154	0xbd8bfdb4	-0.068354994
155	0xb9299b12	-0.00016174864
156	0xbc9b9772	-0.018993113
157	0xbd2106ef	-0.039313253
158	0x3dc2aa4c	0.09505138
159	0x3dd05f22	0.10174395
160	0xbc0da8c3	-0.008646193
161	0xbd5c1935	-0.053734977
162	0x3d9334d0	0.071878076
163	0xbd444524	-0.0479175
164	0xbdfd8010	-0.123779416
165	0xbc1d7d59	-0.009612405
166	0x3cc25335	0.023721317
167	0x3b661387	0.0035106854
168	0x3d05470d	0.032538462
169	0x3ca32ef6	0.019919854
170	0xbd70365e	-0.0586456
171	0xbda70bfd	-0.081565835
172	0x3d88a331	0.06671751
173	0xbd72bf9a	-0.059264757
174	0xbdcf236d	-0.10114179
175	0x3dd1b7b6	0.10240118
176	0x3db077ba	0.08616586
177	0xbda5dbf0	-0.080985904
178	0xbd5a8a27	-0.05335441
179	0xbd3b1411	-0.045673434
180	0x3d2a1403	0.04152299
181	0xbc94d557	-0.018168135
182	0xbd11dc62	-0.035610564
183	0x3c50ec2b	0.012751619
184	0x3d189b1e	0.037257306
185	0xbd2d2e20	-0.042280316
186	0x3cbac016	0.022796672
187	0xbd8c1393	-0.06839671
188	0x3c2a860c	0.010407936
189	0x3ac61368	0.0015111985
190	0xbdac4cae	-0.08413063
191	0xbbed1304	-0.007234933
192	0x3e0c81e3	0.13721423
193	0x3a84a380	0.0010119528
194	0x3a09739f	0.0005243364
195	0xbd01cc00	-0.03168869
196	0xbdf17757	-0.117903404
197	0x3c8bac82	0.017050032
198	0xbc9924e4	-0.018694349
199	0x3da9fecc	0.08300552
200	0x3d0b15cc	0.033956334
201	0xbcfac8d5	-0.030613342
202	0x3d4e36af	0.05034512
203	0x3cfda219	0.030961083
204	0xbe06d998	-0.13168943
205	0x3de9b379	0.11411185
206	0x3dc99a94	0.098439366
207	0x3dd1f3a8	0.10251552
208	0xba60878b	-0.00085651194
209	0x3d3e58e0	0.046471477
210	0x3caeaf7f	0.021323917
211	0xbc78be3e	-0.015182076
212	0xbdf6c357	-0.12048977
213	0x3d92dcfe	0.07171057
214	0x3db79a59	0.08964986
215	0x3b1a9d25	0.00235922
216	0xbac660aa	-0.0015135009
217	0xbc36d68d	-0.011159551
218	0xbd92393d	-0.071398236
219	0xbdb6bb1c	-0.08922407
220	0x3b81bf80	0.003959596
221	0x3b323dc9	0.0027197471
222	0xbc2d8937	-0.010591797
223	0x3d9eaddb	0.07748004
224	0xbda01a11	-0.07817472
225	0xbd869056	-0.06570499
226	0xba29c30b	-0.0006475902
227	0x3a9b6647	0.0011856043
228	0xbce11894	-0.02747754
229	0x3df06263	0.11737516
230	0x3d917951	0.071032174
231	0x3d7a4419	0.0611001
232	0x3cdb1c96	0.02674703
233	0x3b0c8e50	0.002144713
234	0xb8f88e32	-0.000118520475
235	0xb997170a	-0.0002881813
236	0xbcd3d75f	-0.025859533
237	0x8938048e	-2.2150336e-33
238	0xbd2a2a92	-0.041544504
239	0x3b8c00ad	0.0042725415
240	0xba1b179d	-0.00059162994
241	0x3d8701f6	0.06592171
242	0x3cccd46b	0.025003633
243	0x3d91ba62	0.07115628
244	0xb32d0dbe	-4.02922e-08
245	0x92832150	-8.275474e-28
246	0x3da83eee	0.08215128
247	0xbda59a05	-0.080860175
248	0x3d4000e5	0.046875853
249	0x3d64a68e	0.0558229
250	0x3c9a0414	0.018800773
251	0x3cb13d64	0.021635719
252	0xb969d132	-0.00022298543
253	0xbbffdb84	-0.0078081507
254	0x3cacccfc	0.021093838
255	0xbd72fdfd	-0.059324253

bias f4 [10]
0	0x3d9796c0	0.074018
1	0xbb16f1a6	-0.0023032217
2	0xbd724637	-0.059148993
3	0xbd0228c8	-0.031777173
4	0xbd126b29	-0.035746727
5	0x3ca40943	0.020023948
6	0x3c6c992c	0.014440816
7	0x3db45ad5	0.08806387
8	0xbb372402	-0.0027945046
9	0xbcce932e	-0.025216665
