Assignments/Assignment 4/results/classifier_cnn/classifier_cnn.model (torch, 179343 bytes, 8 tensors)

weight f4 [16, 1, 3, 3]
-0.14727986 0.1517449 -0.19387518 0.05042274 0.12182015 0.21768387 -0.07729973 0.34011766
0.3193357 -0.41890812 0.25195074 0.09121878 -0.27781346 0.32698718 0.13809252 -0.21846043
-0.30040017 -0.2703466 0.28075194 -0.291613 0.09976109 0.365898 -0.08233191 0.28021753
-0.024354987 -0.2618961 -0.0016977924 -0.10193001 -0.34908664 -0.26365757 0.020696212 -0.05673537
-0.36603594 -0.05851757 -0.20857842 -0.29794198 0.20734495 0.30860043 0.032267693 -0.27606496
0.11860712 0.2358996 0.2983667 -0.16090547 0.15754087 0.35404903 0.15279 0.024030495
0.03825097 -0.06993231 -0.3474688 0.4038202 0.13832153 -0.39194927 -0.13190566 -0.07255949
-0.28219846 0.34501472 0.09620388 0.3931935 -0.08746744 0.12026818 -0.15877844 -0.3886602
-0.391198 -0.23620792 0.10668437 -0.24205828 -0.124067165 0.16274624 0.36171952 0.011594621
0.09636021 -0.07260701 0.16071546 0.3140398 0.06390713 0.0573457 0.30399826 0.31609586
0.20262511 0.0997282 -0.3274303 0.293872 0.09530291 0.35335463 0.2844774 0.3580127
0.052871957 0.16595396 0.00091327855 0.31965208 -0.14317931 -0.32302758 -0.21564569 0.05522592
0.3648851 -0.26284578 0.21269873 -0.0074995863 -0.10213601 0.32348666 0.08188318 0.2902065
0.06477741 -0.3133452 -0.33767155 0.25184783 -0.23062247 0.11754028 -0.09942799 0.13712889
0.2753648 -0.39045215 0.37731856 -0.32096547 -0.012698167 0.34108332 0.40452987 0.25982463
-0.041202754 0.26144746 0.34313414 -0.1436204 -0.40931818 -0.21506445 0.033106435 0.03030396
-0.2854811 -0.40815058 -0.24370481 0.30174366 0.005222918 -0.3285716 0.01409009 0.26096636
0.2322154 -0.07273205 -0.11682697 0.41792628 -0.19961499 0.16900176 0.22706446 -0.13151109
00000000: 88d0 16be 0463 1b3e 3787 46be 1388 4e3d
00000010: d87c f93d 85e8 5e3e 524f 9ebd e723 ae3e
00000020: f87f a33e 207b d6be b0ff 803e e9d0 ba3d
00000030: 913d 8ebe dd6a a73e 2068 0d3e 17b4 5fbe
00000040: 0dce 99be df6a 8abe b8be 8f3e 4d4e 95be
00000050: 8b4f cc3d fc56 bb3e a29d a8bd ac78 8f3e
00000060: 1c84 c7bc 3f17 86be 7688 deba aec0 d0bd
00000070: 7cbb b2be 20fe 86be 1a8b a93c 5963 68bd
00000080: 1069 bbbe 1fb0 6fbd 9595 55be da8b 98be
00000090: 3c52 543e e000 9e3e 212b 043d 6358 8dbe
000000a0: 4ae8 f23d aa8f 713e 85c3 983e 67c4 24be
000000b0: 6552 213e ea45 b53e fb74 1c3e 9adb c43c
000000c0: 0dad 1c3d ac38 8fbd 6ee7 b1be 85c1 ce3e
000000d0: 29a4 0d3e 93ad c8be 4712 07be 129a 94bd
000000e0: 517c 90be c5a5 b03e 8a06 c53d a950 c93e
000000f0: 2122 b3bd 2a4f f63d d196 22be 78fe c6be
00000100: 1b4b c8be 7de0 71be 567d da3d 20de 77be
00000110: ed16 febd f3a6 263e 4d33 b93e 5ef7 3d3c
00000120: 8058 c53d fcb2 94bd 9892 243e d3c9 a03e
00000130: bee1 823d 53e3 6a3d a9a5 9b3e 51d7 a13e
00000140: f57c 4f3e 4c3e cc3d f2a4 a7be 6476 963e
00000150: 2c2e c33d e6ea b43e 06a7 913e 714d b73e
00000160: 4490 583d d6ef 293e 1669 6f3a 70a9 a33e
00000170: 999d 12be df63 a5be 39d2 5cbe 9334 623d
00000180: 38d2 ba3e b993 86be b2cd 593e 17bf f5bb
00000190: af2c d1bd 0ba0 a53e 5eb2 a73d f295 943e
000001a0: 05aa 843d c86e a0be 49e3 acbe 33f2 803e
000001b0: 4c28 6cbe f5b8 f03d e7a0 cbbd 846b 0c3e
000001c0: 9dfc 8c3e 58e9 c7be e62f c13e 9655 a4be
000001d0: f90b 50bc 79a2 ae3e 8a1e cf3e bc07 853e
000001e0: 38c4 28bd 71dc 853e 47af af3e 3a11 13be
000001f0: 2792 d1be db39 5cbe 9d9a 073d 0340 f83c
00000200: 942a 92be 1df9 d0be c18d 79be 257e 9a3e
00000210: 0325 ab3b 893a a8be 1fda 663c 629d 853e
00000220: e0c9 6d3e 8bf4 94bd fa42 efbd 6ffa d53e
00000230: df67 4cbe cc0e 2d3e 9683 683e d8aa 06be

bias f4 [16]
-0.32553786 0.26123938 0.08981774 0.059187286 -0.011246741 -0.0648538 -0.020716544 -0.20808564
0.09205994 0.0023031342 -0.061094783 0.14596865 0.19062147 0.13362932 -0.12239544 0.055079337
00000000: e6ac a6be 2bc1 853e 5df2 b73d 5e6e 723d
00000010: 4044 38bc 12d2 84bd beb5 a9bc 6714 55be
00000020: ec89 bc3d 2ef0 163b 863e 7abd ce78 153e
00000030: 4632 433e 20d6 083e 76aa fabd df9a 613d

weight f4 [64, 16, 3, 3]
0.087487414 0.056820378 -0.03149086 -0.01620769 -0.030231439 0.05896146 -0.054301776 -0.009938717
0.021468224 -0.06471875 0.09999057 0.06290132 -0.06538093 -0.014109956 -0.1107737 0.055787
0.11181516 0.07728549 0.03815967 -0.02603538 0.03260542 0.016545549 -0.13117559 0.05810344
-0.004033102 -0.085170776 0.0026483168 0.08046344 0.012837468 -0.048071846 0.15269089 -0.010195725
0.061931748 -0.056789055 -0.10323245 -0.05171955 0.026528303 0.0383823 0.08959276 -0.058517
0.0008251667 -0.03856365 -0.03722699 -0.02241569 0.028313547 0.0063081034 -0.057778656 0.0070949476
-0.03396258 -0.044676296 -0.09006857 -0.037839558 0.058645982 -0.059340585 0.11904727 0.02651536
0.07868907 -0.14279969 -0.0369752 0.017604215 0.08505257 0.044228822 0.062736206 -0.03800982
-0.12235744 -0.005521075 -0.039034165 0.020374397 0.07329228 0.10200711 0.103679925 -0.05321864
0.003824604 0.014895724 0.06387433 -0.08359826 -0.03848839 -0.08123109 -0.007508381 0.07661284
-0.093204126 0.01889453 -0.060263846 -0.029986175 -0.1156808 -0.08000574 0.0030970066 -0.05076143
0.10028019 -0.076885335 -0.03498857 0.042676616 0.10062055 -0.03326072 0.07194128 0.12799035
0.029819746 -0.009099873 -0.013089393 -0.055514652 -0.050487813 0.10715349 -0.036328632 -0.023595996
0.0054963306 -0.03712755 -0.037504237 -0.054576587 -0.0071532694 -0.05252501 -0.013094196 0.026903797
0.006427223 0.06999508 -0.08284102 -0.036596354 -0.05516485 0.10082831 0.10403721 0.009761999
0.015813345 -0.045891814 0.045081552 -0.062489755 0.12549548 0.051187154 -0.07010477 0.0712584
0.0940222 -0.08958537 0.121208124 0.11465605 0.091358095 -0.034514852 0.076594904 -0.00020950887
-0.06584241 -0.062860794 0.0032683073 -0.03841875 -0.012866136 -0.035035394 0.09424204 0.04726496
0.059813984 0.025972435 0.008963369 0.0278636 -0.052143697 -0.006138441 0.046130523 -0.07226945
-0.04725226 -0.088641606 -0.028658096 -0.0814053 -0.05801328 0.12029076 -0.020949211 0.02372995
-0.024607867 -0.10187198 0.040014453 -0.022106532 0.01908894 -0.06564272 0.01588076 -0.0205652
0.02352648 0.021189915 -0.056166966 0.028281728 0.118825175 -0.02806768 0.02251648 -0.020145081
-0.098883204 -0.03736649 0.13354823 -0.0561331 -0.07490351 -0.03582715 0.053694118 -0.0036601396
0.075308874 0.025835115 0.06988771 0.008641347 0.08886288 0.0787322 0.057784136 -0.011499425
0.022913445 -0.017051868 -0.019054241 0.006664694 -0.014431279 -0.07902115 -0.05533777 -0.03973265
0.026158053 0.042388324 0.0786162 -0.012733604 0.04186432 0.015504487 0.007942307 0.037658233
-0.014976818 0.11382307 0.06517511 0.09461769 0.024553373 -0.114700414 0.0015378289 -0.12387102
0.02472488 -0.028259143 -0.036131952 0.023238577 -0.06584324 0.011823059 0.072741605 0.0021179998
-0.07888575 -0.023782404 -0.066064216 0.067670085 0.021962048 -0.053260554 0.08014423 -0.040166553
-0.0013194021 -0.03711871 -0.09381801 0.02627253 -0.09584833 0.09648827 0.08619606 -0.019676235
0.07972387 0.057519563 0.027019147 -0.04507636 -0.040572606 -0.009812782 -0.07262004 0.06681245
0.047593363 0.08421193 0.031565364 0.056822862 -0.0054425932 -0.0050165183 0.080727406 -0.013449732
00000000: 9a2c b33d 7cbc 683d 8ffc 00bd fdc5 84bc
00000010: eca7 f7bc 9281 713d 8a6b 5ebd 00d6 22bc
00000020: 21de af3c 448b 84bd dbc7 cc3d 68d2 803d
00000030: 70e6 85bd 722d 67bc 52dd e2bd e980 643d
00000040: 59ff e43d db47 9e3d 504d 1c3d 2648 d5bc
00000050: 438d 053d 888a 873c e552 06be dffd 6d3d
00000060: 1d28 84bb 046e aebd 628f 2d3b 04ca a43d
00000070: 3e54 523c fce6 44bd 005b 1c3e f80b 27bc
00000080: 25ac 7d3d a49b 68bd 896b d3bd e1d7 53bd
00000090: e251 d93c c236 1d3d 697c b73d 86af 6fbd
000000a0: 0050 583a ebf4 1dbd 547b 18bd 1ca1 b7bc
000000b0: d0f1 e73c 35b4 ce3b 50a9 6cbd bc7c e83b
000000c0: 591c 0bbd 7efe 36bd df75 b8bd a7fd 1abd
000000d0: c536 703d 1d0f 73bd 0ecf f33d be36 d93c
000000e0: bc27 a13d 153a 12be 4f73 17bd b736 903c
000000f0: 0b30 ae3d 4829 353d d77b 803d 2fb0 1bbd
00000100: 8a96 fabd 22ea b4bb 4ae2 1fbd 35e8 a63c
00000110: 431a 963d 1be9 d03d 2456 d43d cafb 59bd
00000120: 35a6 7a3b 320d 743c 8bd0 823d 9135 abbd
00000130: 01a6 1dbd 7c5c a6bd dd08 f6bb 31e7 9c3d
00000140: cee1 bebd b4c8 9a3c 39d7 76bd 91a5 f5bc
00000150: 0eea ecbd 0dda a3bd 26f7 4a3b 38eb 4fbd
00000160: b35f cd3d 0f76 9dbd 2d50 0fbd adcd 2e3d
00000170: 2612 ce3d 653c 08bd f355 933d e70f 033e
00000180: 8a48 f43c a217 15bc e574 56bc 5563 63bd
00000190: 4fcc 4ebd 4a73 db3d 55cd 14bd 644c c1bc
000001a0: 901a b43b 0f13 18bd 0b9e 19bd b38b 5fbd
000001b0: f965 eabb 7724 57bd 0a89 56bc 5a65 dc3c
000001c0: 749b d23b 9559 8f3d 8da8 a9bd 0fe6 15bd
000001d0: 8af4 61bd 137f ce3d 7611 d53d cbf0 1f3c
000001e0: fd8a 813c 0ef9 3bbd 6fa7 383d 42f5 7fbd
000001f0: e381 003e 9fa9 513d 1793 8fbd edef 913d
00000200: b68e c03d 8978 b7bd f73b f83d cbd0 ea3d
00000210: f419 bb3d 725f 0dbd cadd 9c3d 9caf 5bb9
00000220: 63d8 86bd 29bd 80bd 1931 563b fb5c 1dbd
00000230: 7ccc 52bc 4681 0fbd f801 c13d e798 413d
00000240: 82ff 743d 25c4 d43c 18db 123c 3442 e43c
00000250: a194 55bd fa24 c9bb 5cf3 3c3d 0102 94bd
00000260: 968b 41bd bb89 b5bd 62c4 eabc d2b7 a6bd
00000270: 559f 6dbd 015b f63d ae9d abbc 5065 c23c
00000280: 7096 c9bc 42a2 d0bd 32e6 233d c218 b5bc
00000290: 6960 9c3c b16f 86bd 5e18 823c 5a78 a8bc
000002a0: 9bba c03c 7996 ad3c 550f 66bd 15af e73c
000002b0: 9d5a f33d 31ee e5bc 7b74 b83c 4c07 a5bc
000002c0: 4783 cabd 9b0d 19bd dec0 083e d2eb 65bd
000002d0: 0367 99bd 7dbf 12bd 5dee 5b3d f4de 6fbb
000002e0: 8a3b 9a3d 2aa4 d33c 4a21 8f3d 7094 0d3c
000002f0: befd b53d 593e a13d 0faf 6c3d 1668 3cbc
00000300: fab4 bb3c 5cb0 8bbc a417 9cbc 8163 da3b
00000310: 2c71 6cbc d7d5 a1bd dca9 62bd b4be 22bd
00000320: 6a49 d63c 619f 2d3d 8801 a13d 9ba0 50bc
00000330: ec79 2b3d 8806 7e3c 7320 023c 853f 1a3d
00000340: 5461 75bc 121c e93d 877a 853d ebc6 c13d
00000350: 2824 c93c 0de8 eabd fa90 c93a 17b0 fdbd
00000360: d58b ca3c b87f e7bc 19ff 13bd d45e be3c
00000370: d2d8 86bd 81b5 413c 8df9 943d 24ce 0a3b
00000380: da8e a1bd 51d3 c2bc ad4c 87bd 9d96 8a3d
00000390: c1e9 b33c bd27 5abd a822 a43d af85 24bd
000003a0: caef acba ca09 18bd a823 c0bd 7d39 d73c
000003b0: 214c c4bd a49b c53d 8f87 b03d 0e30 a1bc
000003c0: 4546 a33d a299 6b3d 4257 dd3c fda1 38bd
000003d0: 762f 26bd cac5 20bc d1b9 94bd f7d4 883d
000003e0: 42f1 423d 4e77 ac3d af4a 013d 17bf 683d
000003f0: c857 b2bb 9b61 a4bb 6954 a53d 445c 5cbc

bias f4 [64]
0.04256231 0.013203138 -0.00013284473 -0.061286375 -0.07329041 -0.06735373 0.037563127 0.06658175
-0.032971144 0.06805069 0.0442183 0.047610343 0.06041802 0.036946367 -0.08073504 -0.009920175
0.07058523 0.018128078 0.036118224 0.01705601 -0.041142285 -0.06732608 -0.062402308 -0.015047408
-0.06921147 -0.008794333 0.07038277 0.03349062 0.05699901 0.025564197 0.060120594 -0.0053389645
-0.04071935 0.01882244 0.039156288 -0.04699184 -0.029923862 -0.07018381 -0.0055994764 0.012175545
-0.00062731595 0.008629191 0.069657795 -0.05668685 0.013623917 0.0591155 -0.0741611 -0.049548402
-0.015833752 0.07153719 0.069676384 0.037510794 -0.069005124 -0.0037420606 -0.018698378 0.05411994
-0.07081885 -0.047184527 -0.037911683 0.080364354 -0.017544905 0.04537421 -0.024299107 0.015409886
00000000: d155 2e3d f951 583c 3c4c 0bb9 6c07 7bbd
00000010: 4819 96bd c1f0 89bd cbdb 193d 035c 883d
00000020: c00c 07bd 295e 8b3d 401e 353d 1003 433d
00000030: e378 773d 1355 173d 6a58 a5bd 3b88 22bc
00000040: fd8e 903d 5681 943c b4f0 133d 0cb9 8b3c
00000050: d084 28bd 41e2 89bd 9099 7fbd 6789 76bc
00000060: bebe 8dbd 1b16 10bc d724 903d 762d 093d
00000070: cb77 693d 026c d13c 0341 763d 7bf2 aebb
00000080: 55c9 26bd 8531 9a3c 5862 203d 847a 40bd
00000090: e322 f5bc 88bc 8fbd d07b b7bb f07b 473c
000000a0: 7672 24ba 7361 0d3c bfa8 8e3d 7830 68bd
000000b0: d936 5f3c 1823 723d c6e1 97bd 44f3 4abd
000000c0: c9b5 81bc 1782 923d 7eb2 8e3d eba4 193d
000000d0: 8f52 8dbd 5c3d 75bb 572d 99bc dfac 5d3d
000000e0: 7909 91bd 9044 41bd 4849 1bbd 1196 a43d
000000f0: 55ba 8fbc 4fda 393d ec0e c7bc bf79 7c3c

weight f4 [128, 256]
3.8955388e-38 -2.351276e-23 8.351223e-31 3.7638695e-38 6.1693224e-38 -7.7151866e-30 -8.490211e-39 1.2256646e-36
-1.5911216e-22 1.3741026e-29 6.050222e-21 2.527264e-23 6.5617825e-28 -8.64655e-31 -5.719334e-14 1.6227063e-37
-2.5282459e-23 1.0802407e-27 -1.9426918e-34 1.775525e-38 -5.0938955e-34 -1.4225385e-16 6.6181695e-38 2.3660312e-33
-2.5675013e-09 -2.9279894e-12 -3.711609e-25 -1.2827006e-27 1.6619392e-23 7.0398174e-38 4.7881926e-38 -1.015058e-38
-6.428381e-38 -2.1283893e-23 -3.6776523e-25 -9.2845597e-38 -1.3792923e-13 -4.285722e-16 1.18024e-40 5.837787e-24
-3.7828716e-32 -1.4468899e-27 -5.915736e-25 3.1989494e-19 -8.882306e-12 1.5361154e-19 -1.04318545e-13 -6.30758e-40
-1.1092105e-11 -1.2045464e-35 -1.2540081e-10 3.5267644e-38 4.0249667e-35 -3.277814e-38 -1.2595255e-14 1.5888233e-33
-6.9480083e-38 -1.0206025e-34 -3.040246e-37 -5.651603e-38 9.777174e-32 -2.2741447e-20 3.902025e-16 1.8827196e-38
-6.582533e-11 -5.2675984e-12 -7.128854e-13 -1.5724845e-21 7.0932285e-27 1.8609477e-37 6.058081e-38 -2.0056059e-38
-5.213261e-15 -1.0238433e-12 -2.721513e-22 3.3997555e-19 1.122168e-26 2.3694881e-26 -1.828753e-38 5.00571e-38
-7.28305e-22 -1.2167659e-23 -1.772652e-39 1.1235857e-34 5.8812657e-25 8.7606297e-32 3.989329e-38 5.383576e-39
9.881532e-39 -4.4270168e-35 4.6446793e-24 -1.00774525e-14 -2.7862615e-11 -6.2012963e-35 -2.5211735e-17 -2.5769654e-26
-5.0010857e-26 -4.2860157e-30 -3.3137045e-15 2.9803374e-19 -2.1857264e-23 1.7364493e-38 -2.0512153e-12 3.8215715e-20
4.1091286e-29 -3.7577627e-17 -5.6555886e-28 -5.805359e-35 -6.897688e-30 -4.4723262e-38 3.86816e-31 2.329588e-23
-3.6155538e-34 -8.976899e-32 -1.195726e-32 1.5099371e-37 -2.0502175e-11 -2.0761148e-13 3.7030214e-20 -5.963638e-17
-6.647265e-14 -3.0406707e-23 -2.8600943e-12 -3.3527385e-16 5.8302926e-28 -3.4490267e-34 -1.374039e-38 -2.6115893e-38
-1.435109e-13 -1.1777301e-10 -1.4262295e-14 -1.7425867e-14 -4.5285107e-38 -5.864437e-38 1.2832864e-27 -1.5487839e-25
-3.245299e-31 3.236282e-38 -3.493593e-25 3.2850537e-19 -6.081897e-38 1.67025e-30 -1.02331394e-20 3.241137e-39
-1.2624777e-38 -2.1820389e-38 -4.753471e-25 -6.9057205e-38 -8.696489e-09 -2.8813874e-09 -2.5107735e-11 -5.484496e-11
-1.5804839e-21 -4.699577e-13 3.022961e-38 4.02975e-39 -1.7504757e-10 -8.85058e-15 5.046305e-38 -6.986653e-39
3.254338e-19 3.272439e-20 1.3225629e-20 2.1009444e-23 -4.8012074e-14 -5.5375916e-11 -2.3186933e-36 6.271825e-29
5.1906195e-13 4.0733474e-26 8.595945e-30 7.907966e-32 -3.1590457e-09 -2.3059741e-15 -1.5961593e-09 -3.6716935e-11
-9.475542e-16 -1.7886493e-16 3.7554404e-31 -8.072023e-38 -3.2304873e-38 4.989698e-37 6.421087e-38 -2.0213725e-38
2.808831e-38 -3.1613462e-38 6.5148173e-29 1.8605359e-23 8.502808e-31 1.4667681e-24 3.8379875e-38 5.356735e-38
-2.5037361e-11 -2.379512e-15 -7.152399e-15 -5.1946975e-38 -2.0511335e-08 -2.0512026e-13 1.5703126e-19 -3.5136556e-31
-3.694731e-38 -6.319529e-25 -7.859105e-38 1.5844031e-33 1.3888933e-32 2.2191474e-29 -1.0019138e-27 -7.387138e-32
3.2484523e-38 1.1806102e-38 -4.4209355e-38 1.0345641e-34 1.3799642e-26 -5.7061337e-25 -6.0414814e-38 -6.38314e-38
-3.4842365e-08 -6.8787083e-09 4.718573e-27 3.170205e-19 -5.7985545e-38 1.0872036e-30 3.9397568e-38 -2.527238e-38
9.69923e-29 -5.425649e-13 -7.094944e-12 -2.2790034e-09 -9.120494e-15 -2.5256723e-17 -3.960256e-15 -5.0417693e-16
9.391307e-22 -4.9747526e-25 2.0370927e-37 -6.295446e-25 -4.213285e-10 4.012782e-34 -1.9448172e-10 -9.417299e-39
9.061487e-39 1.00714495e-23 -1.0070022e-21 -4.9222085e-13 -1.2245272e-13 -7.529636e-11 2.6380744e-26 -6.364965e-38
-4.68907e-13 -1.1338281e-10 -1.4909638e-13 -1.0317796e-12 -2.815487e-39 7.2601486e-12 -1.1016208e-32 -7.0530944e-21
00000000: e317 5401 c666 e399 a081 870d afec 4c01
00000010: e7f1 a701 8a7b 1c8f 4173 5c80 3989 d003
00000020: d45a 409b be59 8b0f 2892 e41d 076c f419
00000030: 81f3 4f12 5d4c 8c8d b7c9 80a9 10df 5c02
00000040: 5684 f499 c52b ab12 301d 8187 6a56 c100
00000050: 1246 2988 ed01 24a5 e929 b401 eb8f 4409
00000060: f66f 30b1 f809 4eac cbbc e596 8540 cb92
00000070: 9fbb a019 5ea4 bf01 d558 8201 b087 6e80
00000080: 47ff ae81 5ed8 cd99 baa2 e396 f0bf fc81
00000090: 654b 1baa 180e f7a5 0149 0100 a4d6 e118
000000a0: fd6a 448b d444 e592 4a15 3797 28d5 bc20
000000b0: 5a42 1cad 3d5a 3520 8ce7 eaa9 4cde 0680
000000c0: 6622 43ad df16 8085 31e1 09af ec03 4001
000000d0: 0201 5606 0f76 3281 5de5 62a8 89fe 0309
000000e0: 8d24 bd81 4ea9 0787 8ee8 ce82 edd9 9981
000000f0: 78d4 fd0b 72c9 d69e baef e025 9002 cd00
00000100: 5ec0 90ae 4f56 b9ac cfa8 48ab 8ca0 ed9c
00000110: f17e 0c14 904c 7d02 aaea a401 2264 da80
00000120: d9d3 bba7 d817 90ab 6081 a49b a7af c820
00000130: ad44 5e14 a9a9 ea14 3122 c780 b544 8801
00000140: df1d 5c9c 545b 6b99 6f4d 1380 a459 1507
00000150: 3004 3617 5f70 e30b 2233 5901 389f 3a00
00000160: b199 6b00 6e61 6b86 adae b318 0c8a 35a8
00000170: 0815 f5ad d6db a486 8789 e8a3 d635 ff94
00000180: 4ba4 7795 88dc ad8e 0fc7 6ea7 96ed af20
00000190: f763 d399 2415 bd00 6957 10ac f777 341f
000001a0: 8a5b 5010 d54b 2da4 963b 3392 3a55 9a86
000001b0: d8e6 0b8f 217f 7381 d50e fb0c ce4d e119
000001c0: 764b f087 ba0d e98b b357 788a a185 4d02
000001d0: cb56 b4ad efbf 69aa c8de 2e1f 1b83 89a4
000001e0: e0ae 95a9 ae09 139a e142 49ac b045 c1a5
000001f0: f4c4 3812 263a e587 9e9e 9580 3e30 0e81
00000200: 3394 21aa 287e 01af 9d76 80a8 50f5 9ca8
00000210: 3a8e 7681 29a5 9f81 4858 cb12 ecba 3f96
00000220: c7a1 d28c 3033 3001 313e d896 54ea c120
00000230: a390 a581 bc81 070e 6d4c 419e f94a 2300
00000240: be78 8980 5e9a ed80 e11c 1397 d9fd bb81
00000250: 9067 15b2 e701 46b1 98d9 dcad ef35 71ae
00000260: 02d6 ee9c 0548 04ab ed95 2401 4ee1 2b00
00000270: 8377 40af 1970 1fa8 9d5f 8901 f213 4c80
00000280: 2a1a c020 5c89 1a1f 38d3 791e dd30 cb19
00000290: 273a 58a9 bd8b 73ae ab40 4584 7902 9f10
000002a0: 5b1a 122b d0b3 4915 b358 2e0f 734d cd0b
000002b0: 8516 59b1 b729 26a7 dd5f dbb0 987b 21ae
000002c0: 948e 88a6 9c37 4ea5 f5bd f30c cabd db81
000002d0: 6ce2 2f81 66ca 2903 72cc ae01 a41b dc80
000002e0: 64ed 1801 bc1e 2c81 952b a510 a3f0 b319
000002f0: 48f7 890d acf8 e217 bdf5 5001 ffd2 9101
00000300: 203b dcad 4076 2ba7 9ed8 00a8 c269 8d81
00000310: e730 b0b2 e4f1 66aa c963 3920 9e0c e48c
00000320: 0929 4981 7894 4397 f8f1 d581 87a0 0309
00000330: 1e3b 900a 5c0c e10f 74c2 9e92 f4c7 bf8b
00000340: d1dc 3001 9c8e 8000 d9b2 7081 6484 0907
00000350: 40aa 8814 a698 3097 fb76 a481 fec3 ad81
00000360: 96a5 15b3 c259 ecb1 04ec ba13 c922 bb20
00000370: 07da 9d81 ac68 b00d 3280 5601 8f98 0981
00000380: 9ae7 f510 ecb7 18ab 93a1 f9ac a79c 1cb1
00000390: db4c 24a8 c0f3 e8a3 eaae 8ea7 b151 11a6
000003a0: dcea 8d1c 0df6 1997 29a3 8a02 a9d5 4297
000003b0: b7a0 e7af f958 0508 bdd5 55af 998b 6680
000003c0: bdab 6200 67cf 4219 832c 989c 408c 0aab
000003d0: 98de 09aa 1594 a5ae 91a1 0215 5545 ad81
000003e0: 4ffc 03ab d954 f9ae 1bde 27aa c735 91ab
000003f0: 6fa8 1e80 9b71 ff2c 35cc 648a ac3a 059e

bias f4 [128]
6.4389967e-38 0.0047096373 -0.022151336 0.031598706 0.017589606 0.05013445 -0.015863143 0.0041524
-0.042512733 0.030179223 -0.030253332 0.041837927 -0.049922 0.014981757 -0.007090893 -0.057684027
0.015093288 -0.00048830087 0.038926255 0.019345295 -0.04005268 0.017088361 0.019755166 0.056893203
0.0402046 -0.039393328 -2.0563157e-23 9.352743e-08 0.03258207 -0.0006251437 -0.04008776 -0.014052347
0.0046584476 -0.0070661064 -1.5183304e-08 0.05421488 0.06437715 0.026603004 -0.008253557 -1.1697503e-05
-0.045739368 0.06741197 -0.050678574 -0.02396816 -0.048000794 0.019806148 0.035283476 -0.0499232
0.005946254 -0.058748342 -0.0013963154 0.04552906 -0.027883181 0.03931206 -0.00010392693 0.01944937
0.06727511 0.0567426 0.04973709 0.026613193 0.041743428 -0.012738024 -0.030282244 -1.5855276e-05
0.03013836 0.028128784 -0.0020761942 0.02459849 -1.1307177e-05 0.01091679 -0.047271132 -1.7932238e-21
0.00094454724 -0.006870658 0.044180896 -0.060171247 0.05136651 -4.739498e-05 -0.011898777 -0.036654577
0.008635481 0.01007174 0.033001382 -0.04849103 -0.0076503847 -0.0012404165 0.020680102 0.0068673864
-0.031575035 -0.0002538595 -0.058054075 0.016408363 0.042045247 0.034768376 0.0052045593 0.05634468
-0.032998044 0.020232309 -0.028245319 0.028754687 -0.012685743 0.010238548 -0.050065868 -0.062517844
0.04021738 0.06066201 0.03626634 0.016699115 0.04839049 0.06348354 0.027967641 -0.0151099805
-0.0045074974 -0.042874083 -0.038622472 0.027584549 -5.0933257e-05 -0.018114876 -0.02709042 -0.046047576
-0.051824648 -0.048990183 0.05682508 0.0063132374 0.027156835 0.046506505 0.0281683 0.03239373
00000000: 4249 af01 4d53 9a3b b876 b5bc a56d 013d
00000010: 1418 903c c859 4d3d 6cf3 81bc db10 883b
00000020: d521 2ebd 6b3a f73c d6d5 f7bc 3f5e 2b3d
00000030: 037b 4cbd 0b76 753c b95a e8bb 1646 6cbd
00000040: d749 773c 5101 00ba 2371 1f3d 067a 9e3c
00000050: 470e 24bd e4fc 8b3c 96d5 a13c d908 693d
00000060: 94ad 243d e65a 21bd e9df c699 40d9 c833
00000070: c774 053d afe0 23ba 1033 24bd d13b 66bc
00000080: e4a5 983b cc8a e7bb 706c 82b2 6c10 5e3d
00000090: 2bd8 833d 8bee d93c ed39 07bc 6540 44b7
000000a0: 3459 3bbd 490f 8a3d 5694 4fbd e058 c4bc
000000b0: 7b9c 44bd 8140 a23c 6885 103d 457c 4cbd
000000c0: cbd8 c23b 1aa2 70bd 9204 b7ba ae7c 3a3d
000000d0: 456b e4bc af05 213d 58f3 d9b8 4954 9f3c
000000e0: 88c7 893d ee6a 683d 1eb9 4b3d e903 da3c
000000f0: 28fb 2a3d 25b3 50bc 7812 f8bc f200 85b7
00000100: b9e4 f63c 566e e63c c210 08bb c682 c93c
00000110: f5b3 3db7 56dc 323c 609f 41bd fe7d 079d
00000120: 7e9b 773a 4223 e1bb 07f7 343d 2076 76bd
00000130: b165 523d f9c9 46b8 17f3 42bc 1c23 16bd
00000140: d57b 0d3c f003 253c 752c 073d 889e 46bd
00000150: 14b0 fabb 7995 a2ba 5169 a93c d007 e13b
00000160: d354 01bd 7218 85b9 1cca 6dbd d56a 863c
00000170: a337 2c3d 4969 0e3d 028b aa3b aec9 663d
00000180: f528 07bd 3abe a53c ba62 e7bc f38e eb3c
00000190: ddd7 4fbc 95bf 273c de11 4dbd 5b09 80bd
000001a0: fbba 243d ba78 783d 048c 143d 95cc 883c
000001b0: 1b35 463d a903 823d 651c e53c da8f 77bc
000001c0: a1b3 93bb bc9c 2fbd 9932 1ebd fef8 e13c
000001d0: 2ba1 55b8 a665 94bc baec ddbc 629c 3cbd
000001e0: 1546 54bd eea9 48bd 6ac1 683d 46df ce3b
000001f0: 0378 de3c 9b7d 3e3d 35c1 e63c 4aaf 043d

weight f4 [10, 128]
-1.5717772e-33 -0.002494052 -0.0007941076 -0.0049625435 0.08264783 -0.10313484 0.0994448 -0.034754775
0.09518043 0.032494493 -0.09520867 0.091978595 -0.09734098 -0.02112354 -0.060203496 -0.06941725
0.11210722 -4.1693056e-05 -0.0818706 0.016771927 -0.0009509961 0.07317933 -0.08450703 0.0043025105
-0.037122395 0.08199706 0.00011603438 -0.0013445736 0.096595496 0.05224571 -0.050891567 0.03877706
-0.020141177 0.052460253 6.918123e-38 -0.033679023 -0.08455096 -0.06117052 0.08524125 0.00026241562
0.0075978194 0.044370662 0.04842417 -0.004430309 -0.08040167 -0.083220616 0.0092916135 -0.015675623
0.060793705 -0.02995885 -0.017869024 -0.1152961 0.022161372 0.010586428 0.000937907 0.05507398
-0.0028253284 -0.091497235 -0.099528566 0.07823571 -0.08469648 -0.016676113 0.06851842 -0.00016905495
0.09840614 0.007267766 0.0001286236 -0.061422434 -0.0015384118 0.013108858 0.0126946615 3.7475376e-38
0.022814037 0.042728934 0.053464197 0.03557578 -0.024128104 0.0008737066 -0.043618664 0.034793664
0.049803693 -0.08464265 -0.12646389 0.044441376 -0.013239811 -0.025965359 0.024645662 -0.14684124
-0.10599995 -6.256886e-11 0.02896189 0.07848114 -0.0056998585 -0.020203859 -0.0736176 -0.0054894392
-0.041108865 0.06028501 0.029413378 0.09554719 -0.00835299 0.031102506 0.06906855 -0.03555312
-0.090699695 -0.022531325 -0.057994753 0.026892537 0.037615135 -0.09918185 0.09984127 0.019175451
0.11745404 -0.04277773 0.08354802 0.001547711 -0.0032877997 0.1335736 0.001207856 -0.056648385
-0.021637479 0.029318918 0.014692703 -0.08602239 0.11674203 -0.057776254 -0.067884184 -0.064236976
-3.4919907e-11 -0.060153972 0.008946429 -0.07533169 0.11972701 0.0020963943 -0.008313414 -0.08587335
0.028241355 -0.16190147 0.027512651 0.07209372 -0.035276838 0.09853652 0.06941552 0.06425982
0.06901084 -0.0012696506 -0.00075413124 -0.043498844 -0.13431218 0.004735207 -0.06840231 -0.004215818
0.09800556 0.036145866 0.001656993 -0.001659318 0.036586158 0.007138849 0.06869592 -0.0809467
0.04290857 -0.04399903 3.4488808e-38 0.062101543 0.05406544 0.07177318 0.009621721 -0.00037805378
0.08054104 -0.07704386 0.09702482 0.03410621 -0.07015185 0.0017183326 0.054660812 0.028125603
-0.039234042 -0.1127042 0.0016433443 0.096277095 -0.11328524 0.118560456 0.0027878794 -0.05513776
-0.099568285 0.009134975 0.06246845 -0.019137073 -0.018669393 0.06724252 0.08036233 -0.00021933448
-0.11732661 -0.13304691 -0.0004736018 0.10675926 -0.00040359586 -0.0061350474 -0.03320789 -3.9853327e-34
0.007986583 -0.08559232 -0.08049897 -0.12194168 -0.0465063 -0.00025907354 -0.07314185 0.0477673
-0.0024301228 -0.010285585 0.036554653 -0.024665779 -0.09171758 -0.12069516 0.048573654 0.052652843
-0.11311141 -1.5449057e-05 -0.026218396 -0.08328465 0.03814073 0.11725975 -0.057481933 -0.020758552
0.009249474 0.06969778 -0.027416008 0.07314292 -0.01482081 0.022516804 -0.08271317 0.07489875
0.041728206 -0.098069124 -0.004186486 0.0045055505 0.12182278 -0.010643463 0.065418586 0.024615759
0.104169145 -0.105816334 -0.098600216 -0.10170489 0.056679495 -0.07377861 1.9552363e-14 0.060183104
0.08502312 -0.06878583 0.003774361 0.017221544 -0.15516981 -0.1018254 0.063752994 -0.06628806
00000000: 0194 0289 4073 23bb a92b 50ba d59c a2bb
00000010: 4443 a93d 5c38 d3bd b7a9 cb3d 065b 0ebd
00000020: f5ed c23d f218 053d c3fc c2bd 465f bc3d
00000030: b55a c7bd 460b adbc f197 76bd a22a 8ebd
00000040: 7898 e53d 94df 2eb8 c6ab a7bd 4865 893c
00000050: 454c 79ba 0bdf 953d 0612 adbd 13fc 8c3b
00000060: a70d 18bd 13ee a73d 7c57 f338 673c b0ba
00000070: dcd3 c53d 99ff 553d ad73 50bd b2d4 1e3d
00000080: 1cff a4bc 90e0 563d 4854 bc01 04f3 09bd
00000090: 0e29 adbd f08d 7abd f792 ae3d d494 8939
000000a0: 21f7 f83b 03be 353d 6c58 463d 202c 91bb
000000b0: a1a9 a4bd 926f aabd da3b 183c 2a6a 80bc
000000c0: d202 793d 436c f5bc 0f62 92bc 5d20 ecbd
000000d0: c48b b53c b372 2d3c e0dd 753a 4195 613d
000000e0: 2529 39bb e762 bbbd a2d5 cbbd 0b3a a03d
000000f0: 5975 adbd 589c 88bc 6353 8c3d 5844 31b9
00000100: 2989 c93d 7126 ee3b 22df 0639 1796 7bbd
00000110: 89a4 c9ba 89c6 563c 45fd 4f3c 0d09 4c01
00000120: 81e4 ba3c 8904 2f3d 46fd 5a3d e9b7 113d
00000130: 4da8 c5bc 7509 653a 7ca9 32bd cd83 0e3d
00000140: f5fe 4b3d 2059 adbd c07f 01be 2908 363d
00000150: cbeb 58bc 4eb5 d4bc b3e5 c93c 8d5d 16be
00000160: 8016 d9bd 2397 89ae 7c41 ed3c b8ba a03d
00000170: e1c5 babb 9082 a5bc d3c4 96bd c1e0 b3bb
00000180: c561 28bd 6aed 763d 53f4 f03c 3fae c33d
00000190: fbda 08bc afca fe3c d073 8d3d 26a0 11bd
000001a0: c3c0 b9bd 9d93 b8bc e88b 6dbd bd4d dc3c
000001b0: 5412 1a3d db1f cbbd 9479 cc3d d615 9d3c
000001c0: be8b f03d b337 2fbd 391b ab3d 90dc ca3a
000001d0: 2078 57bb 85c7 083e ec50 9e3a 2308 68bd
000001e0: 1541 b1bc 3a2e f03c aab9 703c 822c b0bd
000001f0: 7216 ef3d cba6 6cbd dd06 8bbd ad8e 83bd
00000200: 5294 19ae 0364 76bd 0b94 123c 8047 9abd
00000210: 6f33 f53d a963 093b fc34 08bc 5ede afbd
00000220: 6a5a e73c 80c9 25be 3662 e13c dfa5 933d
00000230: 727e 10bd 84cd c93d b929 8e3d a79a 833d
00000240: 8e55 8d3d 686a a6ba e4b0 45ba d82b 32bd
00000250: 2289 09be cc29 9b3b 8316 8cbd d824 8abb
00000260: 24b7 c83d b00d 143d 752f d93a 797d d9ba
00000270: 5edb 153d 01ed e93b 72b0 8c3d 62c7 a5bd
00000280: e6c0 2f3d 5438 34bd 62c6 3b01 305e 7e3d
00000290: b973 5d3d d1fd 923d 6ca4 1d3c 8535 c6b9
000002a0: b3f2 a43d 2cc9 9dbd f3b4 c63d f4b2 0b3d
000002b0: c6ab 8fbd ad39 e13a 04e4 5f3d aa67 e63c
000002c0: e0b3 20bd 76d1 e6bd 7c65 d73a ed2c c53d
000002d0: 1802 e8bd d3cf f23d dbb4 363b 22d8 61bd
000002e0: 75ea cbbd ddaa 153c ebde 7f3d 5ac5 9cbc
000002f0: 8ef0 98bc 72b6 893d 0195 a43d 27fd 65b9
00000300: ef48 f0bd 733d 08be c24d f8b9 99a4 da3d
00000310: b899 d3b9 8208 c9bb ff04 08bd 766f 0488
00000320: 28da 023c 074b afbd a5dc a4bd 8fbc f9bd
00000330: 647d 3ebd 43d4 87b9 65cb 95bd a5a7 433d
00000340: b242 1fbb df84 28bc 55ba 153d e30f cabc
00000350: 6dd6 bbbd 062f f7bd 2bf5 463d 82aa 573d
00000360: f4a6 e7bd 9998 81b7 f6c7 d6bc 2591 aabd
00000370: 7439 1c3d e125 f03d 2d72 6bbd d70d aabc
00000380: 1b8b 173c b6bd 8e3d 8997 e0bc f5cb 953d
00000390: fcd2 72bc 2975 b83c 8665 a9bd 8464 993d
000003a0: 32eb 2a3d 77d8 c8bd ca2e 89bb 4ca3 933b
000003b0: 397e f93d eb61 2ebc 2efa 853d fda6 c93c
000003c0: a256 d53d 3cb6 d8bd e9ee c9bd a74a d0bd
000003d0: c228 683d 3d19 97bd ae1c b028 8f82 763d
000003e0: 9a20 ae3d 96df 8cbd 455b 773b 3214 8d3c
000003f0: d6e4 1ebe d689 d0bd ee90 823d 09c2 87bd

bias f4 [10]
-0.025614409 -0.086948425 -0.007012797 -0.07230252 -0.06885229 -0.06489316 -0.03600821 0.09279821
0.001311472 -0.05131264
00000000: 4fd5 d1bc 0412 b2bd 9bcb e5bb 5813 94bd
00000010: 6e02 8dbd b4e6 84bd 587d 13bd fd0c be3d
00000020: b3e5 ab3a 342d 52bd
