Assignments/Assignment 4/results/classifier_mlp_M_256/classifier_mlp_M_256.model (torch, 97223 bytes, 10 tensors)

weight f4 [128, 64]
00000000: 3a96 8cb3 355b d0bd 3961 1d3d f41c 3b3d
00000010: 28f1 d6bb 5a8f c7bc 3944 f8bc 5cad be3d
00000020: 4798 4bbc dc76 133d 2659 d0bd c239 e8bd
00000030: 434f c7ba e225 733d b0ff 4d3d bd19 913d
00000040: b41d a11b c3c2 04be 3275 f8bc 1653 d23d
00000050: 6801 163e d104 6abc 0ee2 c5bd 35c6 ea3d
00000060: e12f 253b ba72 d93d 311c 193e ff62 bcbc
00000070: 92e2 783d ca8b b6bb f233 34bd de6b bcbc
00000080: ed6b 949b 3494 d73d 9727 993d ca4c 9fbd
00000090: 0efc 993c 6535 96bd 4d7f 4cba e0b0 7c9f
000000a0: 0e78 d13b 4b4c 1f3e 2415 e239 302a 363e
000000b0: 9910 8ebd 9dec 993d 5dc0 fd3d fcac 1abc
000000c0: d0cf c83d df65 a6bb 5100 943c 4f0a f03b
000000d0: 7976 0d3e c52e a3bc 1647 c6bd 6d90 0d3d
000000e0: 6d5d 003d c25c 46bd c184 c2bd ad12 ca3c
000000f0: b553 663d af74 4bbd 68e8 bbbd edf2 fabc
00000100: 02b7 4b1a d4d9 95bd 7878 373e 128b 83bd
00000110: 8dd9 c7bb 7b81 84bd ea19 ad3d 4a72 9dbd
00000120: 5a87 86bd 228f 853d daa5 30bd 1289 ad3d
00000130: bae2 293c 37ad 1ebd 083f 773d 3b93 9abd
00000140: df22 8e3d 20c3 823d c7d3 dd3d 9207 253e
00000150: 0644 f9bd d98e ddbc a3ae 18be 054f d43d
00000160: c0b5 86bd b38d 183e 151d db3d eb13 d4bb
00000170: c214 29bc 0270 7ebd adc1 babb 5d00 a03c
00000180: 2861 691e f314 e63d 03d2 adbd b2ae b7bc
00000190: f209 0a3d e91d 933d 5a83 b33d d177 80b2
000001a0: ef73 afbc b872 4d3d d523 6bbd e007 9a3d
000001b0: 3003 403c 7f13 8fbd eb1d 81bd ccb2 5d3d
000001c0: 7be4 8dbc 19fc b63c 0d81 3e3c cf79 b4bd
000001d0: 85e0 d93d 0e32 77bd 718c 68bd 9bdf 9e3d
000001e0: bc3e d4bd 79cb 4a3d 740a 50bd 3c0a 8fbd
000001f0: e978 953d 90b4 e6bb 2a90 c2bd 46c5 0abd
00000200: e1d4 f11b 7cea 2cbc b0fa 833d e6b1 10bd
00000210: fffa e0bc 5640 8dbd b74d 81bd 2835 de3d
00000220: fca1 3d1a 1fbc f6bb 8c69 083e 247f db3d
00000230: 721d 37ba 31a6 07bc 6e2d afbd 67fc 51bd
00000240: 72ee df3d 6cbc 40bd ad5f b1bd 1480 a1bd
00000250: 231d 1a3e d219 523d 38da 57bd 29a3 c23d
00000260: 366a abbd 5aaf e3bd 3d8f 0ebe 1bcb c1bd
00000270: c678 f73d efc6 b13d ce83 043e 226e d6bd
00000280: 2c24 06a9 adeb 323d 40f8 e5bd 0171 563d
00000290: c735 223e 8732 f23d 2189 afbc efb4 fa1b
000002a0: ea82 07bd a843 acbc 105d a23a 6731 2c3e
000002b0: 2aae 943c f9a3 01bd 6462 68bd cb6e 88bd
000002c0: 64df ac3c f6dd 513c 133d 983b 7599 d03d
000002d0: ec48 4f3d 5aef 9dbd 1380 7fbd c3d4 00bd
000002e0: d4eb c83c 9712 cdbd 59ac 463c 2774 aebd
000002f0: ac93 d73d 14ba 123d 7e80 8f3d f0c3 dc3d
00000300: 3951 e3b0 0d64 1ea6 eeba ca3c 40e9 933d
00000310: 5ede 16bc 36e1 00bd 413a 029d 57ee 8d1b
00000320: e7b7 859d 5295 949b 577b afbc b13a 95bb
00000330: 1efe 39bd 956f d3ba 4300 c2a9 f0b8 689b
00000340: 9a26 019a ec4c 57bd d0d2 133d 56ea 4ebc
00000350: f885 73ba 7701 32b2 118a c530 ca0c 10a5
00000360: be34 c11a 69e5 f23c bd04 47bb 1249 56bb
00000370: 8e66 1bbd 8f63 2cbd 8adf 2e9b 7126 a2a6
00000380: aeec 832f 85cb 6abd 84f4 c6bd 41c6 81bd
00000390: f2d5 8b3c 1bf9 a73d 11f6 b13c de17 e41a
000003a0: 4e51 4a29 92b5 8c3d db13 edbc c42f 8e3d
000003b0: 0f78 cabc 0441 f83c e14e 27bb 7a10 3321
000003c0: de81 3898 01cb 43bd ed1c 97ba 93a2 48bd
000003d0: 9795 2cbc 4ffd 6bbb 4735 b3bc 52ed 5bb1
000003e0: fffc a233 819c 73b4 5c69 c1bc 0143 32bd
000003f0: 96f1 13bb d2ef 21bd 080e 9cbb 34f9 3d98
-6.546584e-08 -0.10173646 0.038422797 0.04568191 -0.00655951 -0.024360348 -0.030305969 0.093104094
-0.0124264425 0.036002025 -0.10173254 -0.113391414 -0.0015206117 0.0593623 0.05029267 0.07084987
2.665441e-22 -0.1296492 -0.03032932 0.10269754 0.14648974 -0.014283375 -0.09662257 0.11463586
0.002520554 0.106175855 0.1495216 -0.022996424 0.06076295 -0.0055708634 -0.04399485 -0.023000654
-2.4554292e-22 0.105263144 0.07478254 -0.07778318 0.018796947 -0.07334403 -0.0007800952 -5.3509383e-20
0.0063924855 0.15556447 0.0004312183 0.17789531 -0.069367595 0.075158335 0.12390206 -0.009440657
0.09805262 -0.005078062 0.018066557 0.0073254476 0.13814725 -0.019919762 -0.09681527 0.034561563
0.031339098 -0.048428304 -0.09497977 0.024667108 0.056232173 -0.049671825 -0.09175187 -0.030633414
4.212725e-23 -0.07316938 0.17917049 -0.0642301 -0.006098932 -0.06470009 0.08452208 -0.076878145
-0.06568785 0.06521441 -0.04312692 0.0847341 0.010368997 -0.03873941 0.060362846 -0.07547613
0.06940245 0.063848734 0.10831409 0.16116169 -0.121711776 -0.027045654 -0.14910369 0.10366634
-0.06577635 0.14897804 0.10698906 -0.006472101 -0.01031989 -0.062118538 -0.0056993575 0.019531423
1.2355009e-20 0.112344645 -0.08487322 -0.022422168 0.03370089 0.07183439 0.08765288 -1.4955647e-08
-0.021417586 0.050158232 -0.05740722 0.07521033 0.01171951 -0.069861405 -0.063045345 0.054125592
-0.017320862 0.022337006 0.011627448 -0.08812296 0.10638527 -0.06035047 -0.05677456 0.07757493
-0.10363528 0.049510453 -0.05079122 -0.06984374 0.072984524 -0.0070405677 -0.09500153 -0.03387954
4.0007675e-22 -0.010553952 0.06444299 -0.035325907 -0.027463434 -0.06897037 -0.06313651 0.108499825
3.9215134e-23 -0.00752975 0.13321513 0.107176095 -0.00069852837 -0.008279369 -0.08553587 -0.0512661
0.10934152 -0.047054693 -0.08660827 -0.07885757 0.15050177 0.051294155 -0.052698344 0.095037766
-0.083698675 -0.1111743 -0.13921829 -0.094625674 0.120835826 0.08680522 0.12940904 -0.10470225
-2.978535e-14 0.04368179 -0.112289906 0.052353863 0.15840827 0.118260436 -0.021427693 4.1475956e-22
-0.033083834 -0.021028355 0.0012387354 0.1681572 0.018149454 -0.031650517 -0.056734458 -0.06661757
0.021102615 0.012809267 0.0046459525 0.101855196 0.050606653 -0.07711668 -0.062378 -0.031452905
0.024526514 -0.10013311 0.012126052 -0.08518248 0.10526213 0.03582199 0.0700693 0.107795596
-1.6539509e-09 -5.4952856e-16 0.024747338 0.07222223 -0.00920829 -0.031464778 -1.7235473e-21 2.3480517e-22
-3.5394957e-21 -2.4581042e-22 -0.021421118 -0.0045541157 -0.04540836 -0.0016131276 -8.615376e-14 -1.9250347e-22
-2.6707757e-23 -0.052563593 0.03608972 -0.012629112 -0.0009289677 -1.0361297e-08 1.4372877e-09 -1.2494342e-16
7.990814e-23 0.029650407 -0.0030367814 -0.0032697362 -0.0379396 -0.042087134 -1.4465172e-22 -1.1251428e-15
2.3996932e-10 -0.057322998 -0.097146064 -0.06336642 0.01706979 0.0820181 0.021723779 9.433715e-23
4.492353e-14 0.06870569 -0.028940132 0.06942704 -0.024715452 0.03030444 -0.0025529193 6.0669366e-19
-2.3847009e-24 -0.04780102 -0.0011529006 -0.048983168 -0.010533712 -0.0036009138 -0.02187599 -3.2003595e-09
7.5897326e-08 -2.2688074e-07 -0.02360981 -0.04352093 -0.0022574416 -0.03953535 -0.004762415 -2.4553493e-24

bias f4 [128]
00000000: c38c e93d b1c9 54bd 1c86 e43d d8f0 7bbd
00000010: ff79 d63d 5911 b0bd 151f d83d 782d 5dbc
00000020: 8250 fc3d db5c fb3c 13d5 183e 480d 393d
00000030: e294 023e 2a4a 30bd 5bfb c33d eaa0 d5bd
00000040: 5d42 01bd b19b c23c f3c0 a83d b987 193e
00000050: 6bc9 be3d 4e10 ba3c 2dc7 25bb bf80 09bc
00000060: 721c dd3d c8ac 00bd 575e 813d ccee c33d
00000070: b46b bbbd 20ad f13d ffa5 cabd 3534 10bd
00000080: f771 dfbd 84e9 cfbd be25 1b3d 4bc4 173b
00000090: 93f9 94bd a857 8e3d ada7 ea3d 96da d1bd
000000a0: 5265 153d c73e ad3d a9da 163e af8f ca3d
000000b0: aaf1 88bc 3c67 8dae 72f9 ba3c 4fca 713c
000000c0: 4286 a6bd 6302 86bd 076b 5e3d 036c ffbc
000000d0: 224c 023e 17c5 143e a346 c13d 2724 e63b
000000e0: dd3a e6bc ee24 30bd 63b2 1d3d ec9b 703d
000000f0: 83cd 1c3e a132 083e 84ce 003e 8639 9f3d
00000100: 6581 a6bd 6390 d8bd bc84 32bc aa01 f53b
00000110: b930 f33d 7bb0 fb3d 0c5b 833d cc68 13bd
00000120: 6e07 92bc 4b45 cb3d bfad 7f3d 6015 a13d
00000130: de3c fb3c 3ca9 4bbd cfdd ba3c dc8d eb3c
00000140: 0e2e 003e a100 f13d a1ca 7b3c e8f8 fb3b
00000150: 40b6 60bc f969 a63d e040 423b bcfd 7e3c
00000160: 28a3 043e 4493 f0bc 0430 c13d f52a 01bc
00000170: 995d b4bc 2605 b13c 48fc db3d bf59 b13b
00000180: 2d3d 043e 60ea 843d c387 6a3b 4fe9 bebd
00000190: 28f4 783d 8ff8 ee3d 7344 a73d d649 8cbd
000001a0: 32ab 00bd f035 ce3a 0c9d d13d 9bcc 883d
000001b0: 4c6a 803c 4554 533d 8fcd bcbd fa2f 2a3c
000001c0: f504 943d 5f07 843d cff7 18bc 25e7 963d
000001d0: 6f23 403e ebda 343b aa11 2d3d cd4c d73d
000001e0: 444d ac3d bb17 c2ba dfa3 963d 1c28 983c
000001f0: b205 a93d f4a4 d7bd eb36 f5bc 4d9a 98bd
0.11403801 -0.05195016 0.11158392 -0.061508983 0.10472488 -0.08597059 0.105528034 -0.01349961
0.12320043 0.030683925 0.14925031 0.04517868 0.12752107 -0.04303948 0.095694266 -0.104310825
-0.03155743 0.02375588 0.08239927 0.1499318 0.09315761 0.022712853 -0.002529572 -0.008392512
0.10796441 -0.031414777 0.06316822 0.09567031 -0.09151402 0.11800599 -0.098949425 -0.03520604
-0.10910409 -0.101519614 0.03787779 0.0023157771 -0.07274165 0.06950313 0.11457763 -0.1024677
0.03647358 0.084592395 0.1473185 0.09890687 -0.016716797 -6.430276e-11 0.022824023 0.014757707
-0.081310764 -0.06543424 0.054301288 -0.031179434 0.12724355 0.14528309 0.09437301 0.0070233527
-0.02810424 -0.04300397 0.0385002 0.05874245 0.15312771 0.13300563 0.1257878 0.077746436
-0.08130149 -0.105744146 -0.010895904 0.007477005 0.118745275 0.1228952 0.0641385 -0.035988614
-0.017825808 0.09925326 0.062421557 0.07865405 0.030668672 -0.04972194 0.022810845 0.028754167
0.12517568 0.11767698 0.015368135 0.007689584 -0.013715327 0.081256814 0.002964072 0.015563425
0.12952864 -0.029367097 0.094329864 -0.007883777 -0.022017287 0.0216089 0.10741478 0.00541231
0.12913962 0.06490016 0.0035786487 -0.09321844 0.06077972 0.116685025 0.081673525 -0.068500206
-0.031413265 0.0015732627 0.102350324 0.066796504 0.015675686 0.051594038 -0.09218895 0.010387415
0.07227508 0.064467184 -0.009336426 0.07368306 0.18763517 0.0027596306 0.042253174 0.105126955
0.08413175 -0.0014808098 0.07355475 0.018573813 0.082530394 -0.10529509 -0.029933413 -0.074513055

weight f4 [64, 128]
00000000: abf2 64bd 9537 783d e78f 37bd e19d 863a
00000010: 8143 b83d 4112 c63d 55bb ab3d cf59 64bd
00000020: 20ed 953d d9a9 8cbd 5065 43bd 3ba3 b1bc
00000030: 733f cb3d a4b6 cdbd c578 f33d 6901 a3bc
00000040: 9afa 5b3d e67b dcbd c6ee 14bd d87a 403d
00000050: aa99 5a3d e6a9 103b fa10 4abd 8d4f 8e3d
00000060: 21df 57bb 7cb1 a73d 35b4 b83d 554d 4fbd
00000070: 0568 a83c 6ab7 bf3d 7955 b2bd 2b14 bfbd
00000080: df7b 2a3d 3fdd 40bc 7136 abbd ca03 c43c
00000090: e025 8cbd ba94 ce3c 01d8 b1bd 7e6a 7ebd
000000a0: dc4e 583d f5f2 cdbd 848d 7e3d 18d6 ec3b
000000b0: 1850 013e b167 e71b 58ba 7b3d 16b6 b2bc
000000c0: 4ebc 4b3d 8395 ef3d 6576 ea3d 6530 7b3d
000000d0: 7301 c23c 5d12 9f3d 5954 cb3c cc46 9c3c
000000e0: ed2c 31bb a5bc 2dbd 2b94 6f3c 9738 073d
000000f0: 1e30 3d3c b6cd 713c 1a2b d2bc 36f9 b6bc
00000100: f53f ed3c 8322 073e 5d01 df3c 83ed dfba
00000110: 17b5 cfbd bc06 173e 367e 88bd bb9a d43d
00000120: c101 c3bc 8da7 81bc 6208 303d 3473 76bc
00000130: f652 6cbc 656f c9ba 3cb0 27bc 32df 183d
00000140: b803 ea3d e453 eb3d 0477 183d e2cc 80bd
00000150: d51e fc3d 9307 9fbd 3116 503c d1a6 5d3d
00000160: 997c 6a3d 26b4 15bd 5f5b 6cbc 07dd d9bc
00000170: f26f 703d 7b2a 063d ca67 8a3c 8811 773d
00000180: e65c 273c e9ed 9abd f0d6 c33c 3e2f 55bd
00000190: f92f d2bb 398f 59bd 7022 413d 27a0 b43d
000001a0: aa5a f83d c9f8 01bb a69a 9e3c 7011 5cbd
000001b0: b369 65bd afbf 183d 02d3 913d 6a56 fd3d
000001c0: e5df 9e3d 4fc3 dcbc 9d4e 923d ca9e 4539
000001d0: bbc8 c43d b7f9 d5bc b72d 1f3d 3875 223d
000001e0: e3e9 883d 40db 74bc 7ce5 89bd c5af 123d
000001f0: ad3b f03c 7ea6 5a3d 796a fa3d 01b1 503d
00000200: cd0a 8f3c e18a 0a3e e3ec 76bc 3236 ed38
00000210: ef5a f13d a25c fe3d 6ae8 603d 5e09 dbbd
00000220: c242 613d 1f16 74bd 0667 d03d d2e4 12bd
00000230: 8700 c13d cc01 90bb 2381 8a3d 3484 033e
00000240: c5a7 4b3d 4532 80bd 7bee f33d 3392 5fbb
00000250: f778 6a3b b34a 41bd 8c7b b1bc ac5c ac3d
00000260: 5ac8 ac3d 1e85 c43d e3a1 b63d dd73 673d
00000270: e90b b93c 86fb 1dbd db46 4a3c 1be4 8fbd
00000280: 7135 483d 61a7 7abd dd4e f2bd 4a73 983d
00000290: 4d1d 8e3d 3d83 913d 15fe 2b3d c076 053c
000002a0: 38cf b93d 6107 ce3c 678f a83d 427c 233d
000002b0: ad40 24bd b7f1 0b2d 9aa4 cebd 1538 bf3b
000002c0: a9d2 2b3d 93d9 c83d 0f94 7d3b d763 033e
000002d0: 9342 3dbd 6586 2dbd 9323 c53d f875 1abd
000002e0: 9c13 c83d 587f 4f3b 51ed 123d 5a11 f73d
000002f0: 0242 f93c 16fa 1dbd 2459 6a3c fd42 ac3d
00000300: 065a 413d b39d 34bd 8055 063d b6cd febb
00000310: 6043 ff3c d834 59bd eda0 9e3d 4eaa 803d
00000320: 8e32 003d e192 993c 7c58 463d d86e 31bb
00000330: 5a3c e33b df05 c53b 796b efbb 414c 9d3d
00000340: ca41 7f3d 3129 01bd 0be0 313d 2c18 b23d
00000350: d1cd 67bc 5375 4ebd 8975 72bd 5a35 873d
00000360: 096a 0bbe 7851 08bd b2e8 c43c 1446 8cbd
00000370: ac37 303d 93ea c2bc 808b 803c 36d8 aa3c
00000380: 4ff9 9c3d fee6 893d 0633 913d 3539 5f3d
00000390: c4f5 f1bc 2260 cc3d abf9 a3bc 2e74 ad3a
000003a0: 3582 8b3d b685 30bb 0934 41bd 0e86 f2bc
000003b0: 7136 a33d 677f 8fbd 05a5 65bd 462f 2c3d
000003c0: c002 40bd 69fb 8b3c 1880 d73d 3026 233d
000003d0: a3bb be3d a493 e03c c5c0 fd3d 9e41 773b
000003e0: 1351 1f3d 6202 593d b3ed 693d 15ad 813c
000003f0: ddae a43d 5db1 6b3c 2de2 4b3b e2d8 b9bd
-0.05589549 0.060599882 -0.04481497 0.001027044 0.0899725 0.096714504 0.0838534 -0.05574971
0.07320619 -0.06868333 -0.04770404 -0.02168428 0.09924211 -0.100446016 0.11888269 -0.019898133
0.05370579 -0.10765819 -0.036360525 0.046992153 0.0533692 0.0022073924 -0.049332596 0.06948767
-0.0032939392 0.08188149 0.09018747 -0.05061086 0.020557413 0.09361155 -0.08707709 -0.093300186
0.04162204 -0.011771499 -0.08359993 0.023927588 -0.068431616 0.025217403 -0.086837776 -0.062113278
0.05280958 -0.10056106 0.06214668 0.0072276704 0.1262821 3.8282753e-22 0.061457008 -0.021815341
0.04974013 0.11698439 0.11448363 0.06132545 0.023682332 0.077671744 0.024820494 0.019076727
-0.0027034834 -0.042416234 0.014622728 0.033012953 0.011547117 0.014758518 -0.025655318 -0.02233563
0.028961161 0.13196759 0.02722233 -0.0017084334 -0.10141962 0.14748663 -0.06664698 0.10381075
-0.023804547 -0.015826965 0.042976744 -0.015042115 -0.014424076 -0.0015368281 -0.010234889 0.03732223
0.114264905 0.1149061 0.037222877 -0.06289078 0.12310568 -0.077651165 0.012700603 0.054114167
0.05724773 -0.036548756 -0.014426081 -0.026594652 0.05870051 0.032755356 0.016895194 0.060319453
0.01021502 -0.07564909 0.023906201 -0.052047007 -0.00641441 -0.053115103 0.047151983 0.08819609
0.12126668 -0.0019832125 0.019360851 -0.053727567 -0.056009006 0.03729218 0.07120325 0.12369998
0.07757548 -0.0269486 0.071439005 0.00018846538 0.09608599 -0.02612005 0.038861956 0.03966257
0.06685235 -0.014944851 -0.06733224 0.03581216 0.02932533 0.053381436 0.12227339 0.050950054
0.017461205 0.1352954 -0.015071127 0.00011311135 0.11784922 0.12420012 0.054909147 -0.10695146
0.054995306 -0.05959141 0.101759 -0.03586275 0.09423929 -0.0043947455 0.06762912 0.128434
0.049720544 -0.06259588 0.11910721 -0.003411424 0.0035777667 -0.04719038 -0.021665357 0.08416113
0.084366515 0.095957026 0.08917596 0.05650698 0.022588687 -0.03856995 0.012345995 -0.070259295
0.04887909 -0.06119478 -0.11831448 0.07443865 0.069391824 0.0710511 0.04199036 0.008145988
0.09072727 0.025150003 0.08230477 0.039913423 -0.040100742 7.954907e-12 -0.10089989 0.005835543
0.041948948 0.09807124 0.0038692986 0.12831055 -0.04620607 -0.042364497 0.09625926 -0.03771016
0.09769365 0.0031661596 0.035870854 0.120638564 0.030426983 -0.03856858 0.014303479 0.084112145
0.047204994 -0.044095706 0.032796383 -0.0077759875 0.031160057 -0.05302891 0.07745538 0.06282483
0.031298213 0.018746795 0.04842423 -0.0027074125 0.0069346847 0.006012663 -0.007306513 0.0768056
0.0623186 -0.031533424 0.043426555 0.08696017 -0.014148192 -0.050404858 -0.05919412 0.06601973
-0.13614668 -0.03328082 0.024036739 -0.06849304 0.043021843 -0.023793494 0.015691519 0.02085505
0.07664739 0.067335114 0.0708981 0.054497916 -0.029536135 0.099792734 -0.020016512 0.0013233477
0.068119444 -0.0026935167 -0.047168765 -0.029604938 0.07969368 -0.07006722 -0.056065578 0.04203727
-0.046877623 0.017087655 0.10522479 0.03983134 0.093131326 0.02741415 0.123902835 0.003772832
0.038895678 0.052980788 0.057111453 0.015829602 0.08041165 0.014385548 0.0031110153 -0.0907457

bias f4 [64]
00000000: 266f b43c c093 c33d 2850 a8bc 2287 193d
00000010: 9507 cb3d f34f 783d ec6a 973d 9545 af3d
00000020: ad6d 943c 9c67 b53d efe8 273b 1821 01bd
00000030: 6590 46bc 0899 b33d 1f60 513c 5726 b73d
00000040: f604 8a3c fe0f 67bd efec 9b3d 124e fdbb
00000050: 7482 413d 1e9e 5fbc ffc9 a33d 38e0 a73b
00000060: c06d d53d 0ace 87af 65e5 98bc e756 1dbd
00000070: c268 eebc a28e 673d 0d5e a23d 383a a5bd
00000080: f395 4e3d d0c0 bf3c 2e45 cfbc 31a2 503d
00000090: 76cc 5dbd e4ca b1bd 8552 08bd 068c 9ebc
000000a0: 0d93 32bc 2817 8b3d 530b ea3c 5965 99bd
000000b0: 3d47 a63d 1539 f8bc 8c58 f33d 6c76 efbc
000000c0: 88a0 d43d b6ed 1abc 81c9 41bc e214 b93c
000000d0: e60b 133c 41ef 14bd 6dba a4bd 5cb8 8cbb
000000e0: 8066 213d b072 603d bc20 e59f 27a2 9f3d
000000f0: fd97 893d 2fb1 e23d 179a 4cbd 054e 4b3d
0.022025656 0.095496655 -0.020546034 0.03748239 0.099135555 0.06062312 0.073934406 0.085581936
0.018118704 0.088576525 0.0025621017 -0.0315257 -0.012119387 0.08769423 0.012779265 0.089428596
0.016848069 -0.056411736 0.07613551 -0.007730254 0.04724355 -0.013648538 0.07997512 0.0051231645
0.10421324 -2.4702757e-10 -0.018664071 -0.038412955 -0.029102687 0.05653251 0.07928095 -0.08067745
0.05043597 0.02340737 -0.025301542 0.050935928 -0.054150067 -0.086812764 -0.03328182 -0.019353878
-0.010899317 0.06791526 0.028569853 -0.07490034 0.081190564 -0.030300656 0.11882123 -0.029231273
0.103821814 -0.009456089 -0.011827827 0.022592966 0.008975005 -0.036360983 -0.080433704 -0.0042944383
0.039404392 0.054796875 -9.703943e-20 0.077946 0.067184426 0.11068951 -0.04995164 0.049634952

weight f4 [64, 64]
00000000: c2ca 9ebd e052 563d 5a10 a3bd b055 b7bc
00000010: b2e3 29bd 63bc 0abe 20c6 a93d 8f44 8ebd
00000020: c9bf 913d 43c5 dcbd fa91 d73c 8403 c13d
00000030: 2085 bd3d f60a 833d 7a10 343e ad40 58bd
00000040: ea27 48bd d7ee d9bd 86f3 9c3d 10bc 4439
00000050: dea2 d53c 0fda 1b3e 7e24 b6bd 8ece d8bd
00000060: d383 373d 62b4 a6b5 3b08 013e 7ae1 0ebb
00000070: 36bb c33d c9cf 913d fae9 933d 3823 dcbd
00000080: 99da 953d 5a56 86bd cca5 6abd d2b7 05be
00000090: 6cbf 1c3e 6a4e c63d c874 3f3e 5fd2 153e
000000a0: b5b6 8abd 4e65 e7bd 0861 bb3c 06d4 423d
000000b0: a52d 9cbd faa6 803c 2ece ecbd 4d1e 293e
000000c0: ed19 913c 34b4 2a3c 3e30 35bd f793 4a3d
000000d0: 35cf 67bd 28bc 723d b4bc 023e a88e 0c3d
000000e0: 2d2e a0bd 75ad 4e3d 2c19 8422 4f30 66bd
000000f0: fd4a 0c3d 9894 3f3d c930 e63d 2ed1 1b39
00000100: bffb 04be bf44 063e 150c b0bd 2571 0fbe
00000110: 8f76 f43d 23b0 45bd 75da 3abe 7335 943d
00000120: 6bc6 c2bd 9746 fbbc d562 c8bd 91f2 9d3d
00000130: 0cf0 913d b24e 673d 2427 0d3d ae30 253e
00000140: ca28 633d b222 a0bb 8453 73bd 3f3b 4db7
00000150: 8c54 b2bd 42f4 033e bb15 cbbd 5ea6 77bd
00000160: b6e1 b43d f375 b4b9 bfc7 dc3c dfd1 883d
00000170: 5241 5c3d 17c8 a53c f282 a03d 5d43 9dbd
00000180: 57d0 34be 2ddb 83bc f586 bfbd 737f cd3d
00000190: 35e0 013e ec0f e73d 3e4b 143d 5796 843d
000001a0: 845b b23c 07b5 eabc 003b 313e def8 61bc
000001b0: 4dfe b2bd 5457 033e 6927 8e3d da9a 1e3e
000001c0: 7ad2 bb3d 7da6 26be ae07 123d 4372 ce3d
000001d0: cf36 cd3d 3510 9f3d ad5d 22be f66e e63d
000001e0: 9660 bb3d a5e0 08be 2eb8 baa6 9895 a73d
000001f0: ae40 103e beb8 5a3d 1bf6 b1bb 8b2b e13d
00000200: 038e bb32 095e 2d9b e457 0ba2 5673 a798
00000210: 5fe0 3730 f9a0 aa1b acb0 2522 8baf 4eb4
00000220: a9fd 8b1c 9c8a 7c9a 4000 a19c 4d23 4226
00000230: 96ba c418 af2e 0a31 81f9 4f99 e694 549a
00000240: 471f 862b 2649 6432 98a1 b2b0 71f3 8fa9
00000250: 2611 7931 190f 07a6 b081 8830 eb52 d325
00000260: 6ea0 a09c 90fe 071a c4e8 189a 48cb c329
00000270: e0bf 3c9b 1ae2 8029 8a75 8828 57e7 f2a8
00000280: 08cf 881f 6c9c 2f30 d318 8833 0e09 58a5
00000290: 9cd6 a725 a6bd 1db4 587c ed9a 6020 de98
000002a0: 03a4 629d dce7 28ad 3a90 e7af e319 692b
000002b0: 181c aa2b e107 ee1b e1ce e39b 5609 3d32
000002c0: d2ac e819 304c 7a99 807b 95af 6a5f a131
000002d0: e04a a7b1 8ce5 a2b3 60fb c2b3 d670 a11b
000002e0: ae93 efb3 c8ec 3619 4fcc d320 7732 f531
000002f0: 6f33 86a3 dc82 ab30 00f2 0ca8 fc8d b020
00000300: 6974 8a3d 4cca a43d 418e 32bd 46b3 eebd
00000310: 9b73 a8bd 9584 193e 57bc 05bd 8023 833d
00000320: 8b81 033e bae6 a3bb 0a5a 603c 0335 d2bb
00000330: 231e ce3a dc74 efbc b0da a1bd d13c 8f3d
00000340: 847b 24bc 22c9 35bd 4ded f3bc 626d c238
00000350: 70f1 e2bd 6698 d6bc f6a8 f53d 19b5 f53a
00000360: a5e1 273e 70fb b12f 6d4c c43d f3b4 c433
00000370: 4be2 ebbd bcc3 0bbc 6002 50bd 014a 2ebd
00000380: d11f 8f3d 036d 2b3e 6af7 b63c 75dd 7d3d
00000390: b357 a3bd bad6 39be 150e 6b3d 9baa 26bd
000003a0: 76c5 d9bd 4847 49bd ffda f13c b683 23bd
000003b0: 8ae0 1d3c 91cc 77bd ff65 a93d ca35 c33c
000003c0: 53c5 3fbd 096a 35bd 04c1 103e c1ab 61bc
000003d0: 7e97 54bd 6117 df3d dcc5 7ebd 033e a03c
000003e0: 1d67 38bd 6d53 2abd 88b2 721d 09f5 a33d
000003f0: 5a9c 06be 1d6a 143c b2ac 533d e84d f6bd
-0.07753517 0.05232513 -0.07962103 -0.022379726 -0.041476913 -0.13548426 0.082897425 -0.0694667
0.07116658 -0.10779812 0.026314724 0.09424499 0.09253907 0.06398575 0.1758441 -0.052796055
-0.04886619 -0.10641258 0.07663636 0.00018762075 0.026078638 0.15219902 -0.08893679 -0.10586272
0.04480345 -1.2420462e-06 0.12600796 -0.0021801875 0.09557192 0.0711971 0.07222362 -0.10748905
0.07317085 -0.06559439 -0.057287022 -0.13058403 0.15307397 0.09682925 0.18696892 0.14631031
-0.0677313 -0.11298619 0.022873417 0.047565483 -0.076258935 0.01570462 -0.11562763 0.16515465
0.017712558 0.01041894 -0.04423546 0.049457517 -0.056594092 0.05926147 0.12767297 0.034315735
-0.07821307 0.05045839 3.5805323e-18 -0.056198414 0.034251202 0.04677257 0.11239774 0.00014859877
-0.12986659 0.13112162 -0.085960545 -0.14008005 0.11936676 -0.04826368 -0.18247397 0.07236757
-0.095105015 -0.030673308 -0.09784476 0.077122815 0.071258634 0.056471534 0.034461156 0.16131851
0.05545882 -0.0048869485 -0.05940582 -1.22327465e-05 -0.08707532 0.12886146 -0.09916254 -0.060461394
0.088321134 -0.00034420154 0.026950715 0.06680655 0.05377323 0.020237012 0.07837476 -0.07678864
-0.176576 -0.016095722 -0.09351913 0.10034075 0.12683184 0.11282334 0.03620457 0.064739875
0.021772154 -0.028650774 0.17307663 -0.013792245 -0.0873991 0.12826282 0.06941111 0.15488759
0.091710046 -0.16274448 0.035651855 0.100803874 0.100202195 0.07766763 -0.15856047 0.11251633
0.09149282 -0.13366945 -1.2956265e-15 0.081828296 0.14087173 0.05339884 -0.0054309494 0.10994633
2.1834245e-08 -1.4340609e-22 -1.8884542e-18 -4.3284948e-24 6.689386e-10 2.8228167e-22 2.24552e-18 -1.9249107e-07
9.263818e-22 -5.2224346e-23 -1.0654151e-21 6.735511e-16 5.0853216e-24 2.010818e-09 -1.0752036e-23 -4.3960852e-23
9.529954e-13 1.3287979e-08 -1.2997132e-09 -6.392706e-14 3.6244017e-09 -4.6857995e-16 9.932162e-10 3.6658853e-16
-1.0629382e-21 2.812298e-23 -3.162089e-23 8.695003e-14 -1.5612994e-22 5.723564e-14 1.5150008e-14 -2.6967725e-14
5.7940745e-20 6.388692e-10 6.337509e-08 -1.8738081e-16 2.9115307e-16 -1.4690758e-07 -9.822179e-23 -5.7418345e-24
-2.9995643e-21 -9.6011775e-12 -4.2121134e-10 8.2814154e-13 1.2087024e-12 3.937889e-22 -3.7687692e-22 1.1003371e-08
2.405804e-23 -1.2940083e-23 -2.7190694e-10 4.696564e-09 -4.868852e-09 -7.585467e-08 -9.079554e-08 2.6708134e-22
-1.11561675e-07 9.456997e-24 3.587999e-19 7.1361757e-09 -1.4550092e-17 1.247908e-09 -7.8240366e-15 2.9909517e-19
0.06760485 0.080463976 -0.043592695 -0.116552874 -0.08225175 0.14991982 -0.032650318 0.064032555
0.12842385 -0.00500187 0.013693342 -0.006415011 0.0015725534 -0.029230528 -0.079030395 0.06994022
-0.010039214 -0.04438127 -0.02977624 9.271015e-05 -0.11081207 -0.026195716 0.11995117 0.0018745988
0.1639467 3.237477e-10 0.095848896 9.159876e-08 -0.11517771 -0.008530553 -0.050783515 -0.042551044
0.069884904 0.16740803 0.022334773 0.061978776 -0.07975712 -0.18148318 0.057386477 -0.040690046
-0.10633366 -0.049140245 0.02952337 -0.03992053 0.009636054 -0.060497824 0.08271407 0.02382936
-0.046819042 -0.044290576 0.1413613 -0.0137738595 -0.051902287 0.10893131 -0.062200412 0.01956082
-0.04502021 -0.041583467 3.2120732e-21 0.08005721 -0.13145581 0.0090585025 0.051678367 -0.12026578

bias f4 [64]
00000000: 191e 6f3d 4400 c7bd ce40 4a1b ec9b d33d
00000010: 87c5 193d 6081 eb3d 1685 98bd 5931 973b
00000020: d7c3 f5bd 6e01 bbbd 817f 0f3d 81da 8cbd
00000030: b903 f2bc cf6a e93d 0db4 663d c8d0 713d
00000040: 5df1 adbc 887c 063d fe0e 1ebd 3e58 7c3c
00000050: a7bf 64ba e9ee 4e3d c23f 833d e2fb d13d
00000060: 9b86 c7bd a2cc 0abd 18f4 91bd 955f 253d
00000070: 3aac d0bd d882 0b3e fee3 ccbd 2f56 f33d
00000080: f17e cf3d 1d3f aeb8 e8a7 9fbd ed45 a13d
00000090: f9c8 68bd b692 7e3d f051 2c3c 6745 f3bd
000000a0: 0bda 033e 2005 23bd 4199 d73b 1c3a cd3d
000000b0: a0ac e53d d707 bebd 7a26 e23d d764 793d
000000c0: ec6b b23d 7cdf 1abc 80cd 32aa ee49 58bd
000000d0: a1ab 0e3d 793c 9b3c b53f f519 fd23 a73c
000000e0: f9e7 94bc 61d4 a0bd fb10 23bd a2c8 a93d
000000f0: 0b71 ccbd cf3e d53d 2e01 c7bd d666 1f3d
0.058378313 -0.097168475 1.6729988e-22 0.10332474 0.037541892 0.11499286 -0.07447259 0.004614037
-0.12000244 -0.09131132 0.035033707 -0.06877614 -0.02954279 0.11397325 0.056324054 0.059037
-0.021233255 0.032833606 -0.038588516 0.015401898 -0.0008726068 0.05052081 0.06408645 0.10253121
-0.09742471 -0.03388656 -0.07126635 0.040374357 -0.101890996 0.13624132 -0.100044236 0.118816726
0.10131634 -8.308722e-05 -0.077956975 0.078746654 -0.056832287 0.062151633 0.010517582 -0.11878472
0.12876146 -0.03979981 0.0065795486 0.10020849 0.11214566 -0.09278839 0.11042495 0.060887184
0.08711991 -0.009452697 -1.5880873e-13 -0.05280488 0.034831647 0.018949734 2.5358137e-23 0.020402903
-0.01817702 -0.07853008 -0.039811116 0.08290221 -0.09982499 0.104123704 -0.09717022 0.03891643

weight f4 [32, 64]
00000000: 49b6 683d 8fe6 2f3d efb7 1fb4 369f f2bd
00000010: ab27 07bd 4417 123e 9601 d43d bffc ea3d
00000020: 1768 893c dcd3 e9bd 3c3d b23d 0f17 ac3d
00000030: 4993 22bc 52a4 213e a1e0 973d 33f0 1a3e
00000040: 832c 7bbc c1fb 1bbe fe44 c33d a660 313c
00000050: 1ffe a3bd 9744 603c 63dc 8ebb 40bc 193c
00000060: 369b 5fbc f5ce 393d 2a11 023e aa69 1bbd
00000070: de9d aabd 9b19 cabd a55e 043e 9a3f 2a3e
00000080: 8036 e23d 19c1 913d 341b c5bc 26bc 033d
00000090: 891d bd3d 5117 003d e4e3 bebd a9a5 cf3d
000000a0: 1efe b53b ad07 023e 3dcc b53d 9586 873d
000000b0: 590e dcbd 8ccd 84bd 8b93 323e b325 f73d
000000c0: fbda 893d 08fd 893d 441d 741a 9ff7 c73d
000000d0: 1575 06be bfb5 ccbc 652c 1eaa 3ce7 0a3e
000000e0: cbcd d7bd 02e6 b1bd 8d88 37bc 42c6 14bd
000000f0: 64a0 fdbd 069f eabd 7f48 8ebd 03e4 233e
00000100: 7ab2 c7bc dbce a8bd f5a5 fdb0 2de7 e33c
00000110: bc88 7b3d 78cb 1fbe 4233 a73d e425 49bd
00000120: 420f 6e1a 061c 9cbd c4e4 3f3d 9d6a 7f26
00000130: 1d42 e3bd d1c2 8abc bcf8 d3bd 1d9a 1ebd
00000140: fbcb c23d c9a8 383d 9eed 873d aef0 d6bd
00000150: 1e7a 1a3e 3919 2ebd bf08 673d d047 c6ac
00000160: aaf0 1d3e 6cf6 4c24 9c01 3dbd 4209 e11a
00000170: b13b a0bd 0d7b d73d dbbf 2ebd 0d54 38bd
00000180: 0d3c 053e 44a2 4d3d 4981 bf3d 7a67 8cbd
00000190: be8b 1abd 12ac 7ebd 0228 3bbd 2a3a d8bd
000001a0: e367 043d aa12 4d1b d812 763d d681 0e3e
000001b0: 7716 e23c 964e 313c 334e fa3b c954 e93d
000001c0: c263 64bd 53eb dabd deb2 80a9 7cad 853d
000001d0: cb0f 4a3d fbc1 9d3d a5bb d81a a326 973d
000001e0: 2ef7 1abd 9daf 073e f71e b33d b862 363d
000001f0: a932 2e3e 2dbc 1f3e c6c0 45bd 9156 85bd
00000200: e0b0 fe3d d627 b83d 4549 92a6 768a 583d
00000210: 0ac6 5d3c fccc 153d 8372 8f3d 57bc 2732
00000220: 9f46 a43d 6014 b33d b0c4 ccbc f1a6 8b1b
00000230: 6842 c33c ef99 02bd 362d 75bd 9421 d13d
00000240: 2e78 543c 5496 cabd 5129 043a 56f2 9cbd
00000250: 74df c2bd e70f 653d 6add ef3d 51cc d43d
00000260: e77a 5c3c 0ec7 7fb0 b697 2cbd 5ab9 773d
00000270: ea84 933d 03ea 3fbd d909 ba3c d775 013e
00000280: 7469 bdbd 47df a83d c4b1 f7bd 6cc5 35bd
00000290: fa0b a03c bd08 d23b 2980 2e3d 89bb 8a3d
000002a0: 0e1e 28bd d483 c63d 8dfd d0bd d098 e1bd
000002b0: 8a1d e53c 2307 0fbe a7b3 8e3d 25d7 653d
000002c0: d726 863d c88f b4bd 45fa 259d a88c ef3d
000002d0: b59c acbd 56ef b8bd 796a 819f e3fb d2bd
000002e0: edcc 053c 7415 26bc 9140 843d 9339 15bd
000002f0: 932d 1c3d 5e6b f73d b1d8 ccbd 6e9b 463d
00000300: 2c27 f3bd f9e6 2a3e 4e9a 8e1b 6a69 873d
00000310: 21ae 2dbe 8ae8 64bc b7da 25bd 0fc0 98bd
00000320: 7fd8 973d 4fad 0d3d 1aa7 273e 7c2a d89a
00000330: 84fe c9bc f787 913d 1250 543d 84a5 7e3c
00000340: e25d 543d b208 a73d 4fd6 42bd b980 b23c
00000350: 0768 1f3e daa2 0bbe 6316 c63d 4640 153d
00000360: ebd5 a8bd cff0 c73d 0053 9a3d bbf6 f1bc
00000370: 1419 e5bd 2b50 5c3d 90d9 e5bd 144f 7e3c
00000380: 88e6 d83d 834f 1bbd 7eee 02bd ca3d a7ba
00000390: 4179 35be f815 563d a360 81bd 169c 693b
000003a0: ce1a 0b3e 7b02 dbbd bd88 163e a7ea dbbd
000003b0: bda4 2b3e 5ee1 86bb b581 11bd 613d 223e
000003c0: 1e57 e13d ff1f 503d 4a9f 8c9c 6215 9ebd
000003d0: b201 d43d 4904 59bd 95ca 9b2f 03d3 aabd
000003e0: c10a e23d 00c7 b0bd c0ef 70bd 3147 a7bc
000003f0: f84f ae3d 394d 0d3e 2b48 433e 6b8a 83bd
0.056814466 0.042944487 -1.4874944e-07 -0.11846773 -0.032996815 0.14266688 0.10351865 0.11473989
0.016773267 -0.11417362 0.08703086 0.084028356 -0.009922811 0.1578534 0.074158914 0.15130691
-0.015330437 -0.15232755 0.095346436 0.010826265 -0.08007454 0.013688228 -0.0043597682 0.009383261
-0.013647845 0.045363385 0.1270186 -0.037942566 -0.08330892 -0.09868165 0.12926729 0.16625825
0.11045551 0.071169086 -0.024060823 0.032161854 0.09234149 0.031272236 -0.093208104 0.10139019
0.005553975 0.1269824 0.08876846 0.06617466 -0.10744924 -0.064845175 0.17439096 0.120677374
0.0673122 0.06737715 5.0481658e-23 0.09764027 -0.13130601 -0.024989007 -1.4048621e-13 0.13564771
-0.10537299 -0.08686449 -0.01120199 -0.036321886 -0.12384108 -0.114561126 -0.06947421 0.16004948
-0.024377096 -0.082425795 -1.8455341e-09 0.027820194 0.061409697 -0.15604961 0.081640735 -0.0491084
4.9229572e-23 -0.076225325 0.046849027 8.8615385e-16 -0.110965945 -0.016938599 -0.10350177 -0.038721193
0.095115624 0.04508284 0.06637119 -0.10495125 0.15085647 -0.042504523 0.056404825 -5.6354713e-12
0.15423837 4.4444176e-17 -0.046144113 9.3072776e-23 -0.07823885 0.10521517 -0.042663436 -0.045002032
0.13011189 0.050203577 0.09350831 -0.06855674 -0.037730925 -0.062175818 -0.04569245 -0.10557969
0.032325637 1.6963233e-22 0.060076565 0.13916716 0.027598603 0.010821959 0.0076387166 0.113931246
-0.0557592 -0.10689416 -5.7153704e-14 0.0652723 0.049331468 0.077030145 8.963866e-23 0.07380416
-0.037833385 0.13250585 0.087461405 0.04452774 0.17011513 0.15599127 -0.048279546 -0.06510652
0.1243608 0.08991973 -1.0150645e-15 0.05286642 0.013535986 0.03657244 0.07004263 9.763503e-09
0.080212824 0.087441206 -0.024996132 2.3103504e-22 0.023835376 -0.031885084 -0.05985757 0.10211483
0.012968106 -0.09891954 0.0005041557 -0.076634094 -0.095152766 0.05592337 0.11712153 0.10390533
0.013457037 -9.3051333e-10 -0.04213687 0.0604795 0.07203086 -0.04685403 0.022709774 0.12642609
-0.09248629 0.08245712 -0.12094453 -0.04437773 0.01953696 0.006409733 0.04260269 0.06774051
-0.041044287 0.09693113 -0.10204611 -0.11015475 0.027968187 -0.13967566 0.0696786 0.05611338
0.06550377 -0.088164866 -2.1966954e-21 0.1169675 -0.08428327 -0.09030025 -5.480977e-20 -0.1030195
0.008166534 -0.010136951 0.064576276 -0.03643186 0.0381294 0.120810255 -0.10002268 0.048488073
-0.11872706 0.16689672 2.3591646e-22 0.06611903 -0.16960956 -0.013971457 -0.040491786 -0.07458507
0.0741434 0.034589108 0.16372338 -8.9404143e-23 -0.024657495 0.07106011 0.051834174 0.015542392
0.051847346 0.081559554 -0.04756766 0.021789895 0.15567027 -0.13636342 0.09672239 0.03643825
-0.082439266 0.097627275 0.07535362 -0.029536596 -0.11186424 0.05378739 -0.112231374 0.015521783
0.10590845 -0.037917625 -0.031965725 -0.0012759503 -0.17722036 0.052267045 -0.0631726 0.0035646013
0.13584444 -0.106938325 0.14700599 -0.10738116 0.16762061 -0.0041162213 -0.03552409 0.15843727
0.110029444 0.050811764 -9.305598e-22 -0.07718922 0.10351886 -0.052982602 2.833828e-10 -0.083410285
0.110372074 -0.08631706 -0.058822393 -0.020419689 0.085113466 0.1379899 0.19070499 -0.064228855

bias f4 [32]
00000000: 9b27 bdbd 4784 c6bd 109d e5ba e4b0 c13d
00000010: 515a 9f3c e1ef f6bc 44f3 073e 1a95 ac3d
00000020: 29fe 8fbc d62b 26bd 9497 33bd 249b e73d
00000030: 49a8 953d 7291 123d 04f0 83bd 79ef 0a3e
00000040: 1eec 853c af18 8abd 4269 053d 0a14 ccbd
00000050: 8479 f6bd 5d20 3cbd c4bb 42b3 ca30 ee3c
00000060: 0f36 dfbd d717 3ebd 10ae d73d 6792 043e
00000070: 79d9 83bd 45a3 783d ba66 78bd f87e ac3d
-0.0923607 -0.09693199 -0.0017518122 0.09457567 0.019452246 -0.03014368 0.13276392 0.08426876
-0.017577248 -0.04056915 -0.043845728 0.113088876 0.073074885 0.03578324 -0.06442264 0.13567914
0.016347941 -0.06742989 0.032571085 -0.0996476 -0.12034896 -0.0459293 -4.5339917e-08 0.029075999
-0.10898983 -0.046409454 0.10531247 0.12946473 -0.06437964 0.06070258 -0.060644843 0.08422655

weight f4 [10, 32]
00000000: b9e8 913b e08d 433d b4b8 c8bd 5a76 5ebe
00000010: 35a5 583e 34a5 f83d 6ea9 79be 7941 453e
00000020: bc1d 67be fb25 04be 3606 cabd ab6a 48be
00000030: fa4c a4bb d5c2 10be b80f dc3d 8a26 48be
00000040: 592d 8fbd e7b4 5ebc 4070 82bd c5ff ab3c
00000050: f8b0 313e e1cc 573e 5e17 9b36 e91c 8c3d
00000060: 9d3f fabd 97bf bd3d 2c5b 763c ef2a 14bd
00000070: cd69 3fbd 5795 10be cfd7 1f3e 66c3 bf3b
00000080: e5e9 343e 44c9 023d 6687 603e a8dd bebd
00000090: c14d 4dbc b2e7 27be 08be be3d ee82 0ebe
000000a0: f3b3 ed3d 8eb3 023e a638 fcbd 74af 5a3e
000000b0: 36ab 3bbd 829f 783d 5992 09be 7e40 493d
000000c0: be62 e9bd 0f81 2fbd 795c 6abd 4918 bbbc
000000d0: f49c f8bd 2def 77be 8985 411c 4cf0 2e3d
000000e0: d477 4bbe db04 09be 8d85 fbbd c661 963d
000000f0: e306 133d 03db 0dbe ed5e fdbd 54eb 2ebc
00000100: 04fb 9d3c fd4f 1a3e 674c e5bd 9f7a c83c
00000110: fabb e9bd 609b 27be b9f1 d63d 6d23 74be
00000120: ae9b 57bd 0983 b33d 90ec afbd 40eb 2c3d
00000130: d9a9 ee39 cbe1 a8bd 623c 42bd 9599 653c
00000140: 5fcb 01be d1ec 1b3c 1644 d0bc 5d7e 94bd
00000150: 7797 e93d 2b1d ba3d 20c6 2436 53ba 203d
00000160: 9d15 133c 9502 7cbd 6023 a2bd 7a4c 62bd
00000170: d626 7a3e fa20 a53a 2f81 503e b19c 62be
00000180: 2e1b 39be a3bb 4ebd fbd0 7fbe 1e0e 683e
00000190: 74b6 79bd 9072 573d 3e43 8d3d 25a4 f7bd
000001a0: 667b 103e 6c05 47bb a225 2dbe c7dd 68be
000001b0: 4220 adbb 6d80 e2bd 3eb8 67bc 1185 133e
000001c0: 80b7 5ebb 4f96 91bc c1eb c43c 9e3a f03c
000001d0: 8c6e 86be c7e7 e33d 3492 ad99 e85b b1bd
000001e0: fd5a 573d 6320 f8bc e004 823c 19eb 91bd
000001f0: 3665 6ebd 5c29 cf3d 84b5 c33c 46aa 733d
00000200: 19a9 bc3c 978b 12be 9b94 d4bd 00b6 d3bc
00000210: 167d 273d 8e8d ad3b 48d9 1dbe a831 51bd
00000220: f98f 34be 35ad f93d 54b8 3a3d caea 9fbd
00000230: 4300 e7bb 7d41 a73c a269 613e d13a 8fbe
00000240: 3b46 10be 0939 0c3e 308b 013e 45a0 213e
00000250: 0a76 f33d 0e86 25be eb71 432a 844b d53d
00000260: 318d f83d 895f 84bd 022d eabd f6bf aabd
00000270: 3925 7bbe e8cc 77be ef9b 2cbe f45c 853d
00000280: 9bc6 5dbe 1928 18be c398 b3bc 2120 13bb
00000290: 367a 2dbd b146 0e3e eca7 42be e8b8 1b3d
000002a0: f16c 523e 1e98 7bbd 4763 373e 6565 203e
000002b0: fe5e ca3c 6cef 6a3d 6ee5 443e d9bc b5bc
000002c0: 0c5f e13c e55f 0f3e 491d 193e cef4 b33c
000002d0: e9da 413e e187 fa3d 7063 3c98 8841 53be
000002e0: c2d2 b93d 82fb c93c 90ef 39be 9b59 12be
000002f0: 3444 893d c603 183e 96ae 14be ee44 09be
00000300: 907a 183e 9e5c efbd 3cc7 1dbe 8219 80be
00000310: c302 5b3e 9359 8abd a31c 59be e23b 33be
00000320: 3b05 953d 3227 e33d 1680 ef3d 167e 3f3d
00000330: d623 843b ea10 4cbd f4a0 36be c63d 37be
00000340: 5921 dbbd 0bd3 073e 587c da3b 3eea 693d
00000350: 4f37 12be c0c9 303e a403 8628 cf0a 2dbd
00000360: c914 54be b53c f63d 5b25 3e3d 1ff2 18bd
00000370: d506 38be 23d7 423e f546 0ebd 62ad 1dbe
00000380: bc2e be3d 834e 2bbe e843 123d 4aa1 3b3e
00000390: dd48 053e a5d8 be3d 2fda 143d c459 09be
000003a0: 5933 a23d 1d69 4dbe 0a74 8fbc f382 89bc
000003b0: a4bf 4fbc 592f dc3c f13e cebc 3182 ee3d
000003c0: 6c49 223e 2ad9 8cbb f062 0ebe 835d a73d
000003d0: 41b2 463d c68d 3abe 2e38 5ab2 4fc1 e7bd
000003e0: 2b69 5e3a 95e2 f03d 8eba 76be 29ce 12be
000003f0: 8b4e 6f3d 5375 9cbd 8956 4abe 3ea2 093e
0.0044527915 0.047742724 -0.09800854 -0.21724835 0.21156771 0.12140885 -0.24381039 0.19263257
-0.22569937 -0.12905113 -0.09864466 -0.1957194 -0.005014059 -0.14136823 0.107451856 -0.19545951
-0.06991071 -0.013592935 -0.06369066 0.020995984 0.17352664 0.21074249 4.6220803e-06 0.06841452
-0.122191645 0.092650585 0.0150363855 -0.036173757 -0.04673176 -0.14119469 0.15609668 0.0058521507
0.17667349 0.031930223 0.2192665 -0.09319621 -0.012530745 -0.16396978 0.09313589 -0.13917133
0.11606588 0.12763807 -0.12315492 0.21355993 -0.045817576 0.060698994 -0.13434733 0.04913377
-0.11395787 -0.04284769 -0.057217095 -0.022838729 -0.121393114 -0.24212332 6.4030933e-22 0.042709634
-0.1986993 -0.13380758 -0.12281332 0.073428676 0.03589524 -0.13853078 -0.12371621 -0.010676224
0.019284733 0.15069576 -0.11196213 0.024472533 -0.11412807 -0.16367865 0.10495324 -0.23841639
-0.052638702 0.08765227 -0.085900426 0.04221654 0.00045521444 -0.082461916 -0.047420867 0.014013668
-0.12675236 0.009516911 -0.02542309 -0.072506644 0.11405843 0.090875946 2.4553228e-06 0.039240193
0.008977321 -0.0615259 -0.079169035 -0.055248715 0.24428877 0.0012598329 0.2036178 -0.22130086
-0.18076774 -0.050471913 -0.24982063 0.22661635 -0.060965016 0.05259949 0.06897591 -0.12091855
0.14109573 -0.0030368222 -0.16908887 -0.22740851 -0.0052833864 -0.110596515 -0.014143048 0.1440623
-0.0033983886 -0.017771868 0.024038197 0.029324826 -0.26256216 0.111281924 -1.7946832e-23 -0.08660108
0.052577008 -0.03028888 0.015871465 -0.071249194 -0.05820199 0.101153105 0.023890264 0.059488557
0.02302985 -0.14311062 -0.10379907 -0.02584362 0.040890776 0.0052964156 -0.15414917 -0.051072747
-0.17633046 0.1219124 0.045585945 -0.07808454 -0.0070495917 0.02041697 0.22012952 -0.2797456
-0.14089291 0.13693632 0.12650752 0.15783794 0.118877485 -0.16164419 1.7359002e-13 0.10414794
0.12136305 -0.064635344 -0.11434366 -0.08337395 -0.24525918 -0.2419926 -0.16856359 0.0651187
-0.21657793 -0.14859046 -0.021923428 -0.002244957 -0.042352878 0.13894154 -0.1900937 0.038018137
0.2054937 -0.061424367 0.17908965 0.15663679 0.024703499 0.057357237 0.19228145 -0.022184776
0.027511142 0.14001425 0.14952578 0.021967318 0.18931164 0.12232948 -2.4348634e-24 -0.20630467
0.09073402 0.024656061 -0.18157792 -0.14291994 0.06702462 0.1484519 -0.14519724 -0.13405201
0.14890504 -0.11687587 -0.15408033 -0.2501946 0.21387772 -0.06755366 -0.2120233 -0.17503312
0.07276388 0.1109146 0.11694352 0.046751104 0.0040325923 -0.049820818 -0.17834836 -0.17894658
-0.1069972 0.132641 0.006667655 0.057108156 -0.14278911 0.17264462 1.4878567e-14 -0.042246636
-0.20711054 0.12023298 0.046422344 -0.03734028 -0.17971356 0.1902738 -0.03473564 -0.15398172
0.092862576 -0.16729169 0.03570929 0.18323246 0.13016076 0.093186654 0.03634089 -0.13413149
0.0791995 -0.20059629 -0.017511386 -0.016786074 -0.012679968 0.026878046 -0.025176497 0.11645926
0.1584832 -0.004298349 -0.13904929 0.08172133 0.04850984 -0.18218145 -1.2702044e-08 -0.113161676
0.0008484299 0.11761967 -0.24094602 -0.14336456 0.058424514 -0.07639565 -0.19759573 0.13440797

bias f4 [10]
00000000: 787b cbbd 5529 b83d b921 173e 9435 c3bc
00000010: 8d62 afbd 482c 813d 2fdf c53d 097f d43d
00000020: 1c5a 1e3e afd3 273e
-0.09935659 0.089922585 0.14758958 -0.023829259 -0.08563719 0.06307274 0.096617095 0.103757925
0.15464061 0.16389345
