Assignments/Assignment 4/results/classifier_mlp_M_256/classifier_mlp_M_256.model (torch, 97223 bytes, 10 tensors)

weight f4 [128, 64]
0	0x2e27cced	3.8153414e-11
1	0x3dced960	0.10100055
2	0x3e159fc1	0.14611723
3	0x3e15075c	0.14553589
4	0xbd0ddc85	-0.034634132
5	0x3def7569	0.11692316
6	0x3de404b2	0.11133708
7	0x3da32a96	0.07967107
8	0xbc18a610	-0.009316936
9	0x3d862233	0.06549492
10	0xbdbcf7b0	-0.0922693
11	0x3ddc37a4	0.107528
12	0x3d063962	0.03276957
13	0xbd8d89d1	-0.06911052
14	0x3ded7dfb	0.115962945
15	0xbe126797	-0.14297329
16	0xbc15a700	-0.009134054
17	0x3d382424	0.04495634
18	0x3d9a58bd	0.07536457
19	0x3cdbc73d	0.026828403
20	0xbe507eb6	-0.20360836
21	0xbddc1c4b	-0.10747584
22	0xbe356979	-0.17716016
23	0xbcaf045d	-0.021364385
24	0x3c8d8253	0.017274057
25	0x3db05223	0.08609416
26	0xbcfe5aa3	-0.031049078
27	0x3d6e6920	0.058205724
28	0xbd2bbec2	-0.041929968
29	0xbdd74844	-0.105118304
30	0x3cb56013	0.022140538
31	0x3d833f2a	0.06408532
32	0xa9d7b8e7	-9.5799935e-14
33	0x3d7ac762	0.061225303
34	0x3e0dfd4c	0.13866156
35	0x3cc502ec	0.024049245
36	0xbdb4f963	-0.08836629
37	0xbddd72fa	-0.10812946
38	0xbc414236	-0.011795571
39	0x8e96e475	-3.719785e-30
40	0xbc9dc4fc	-0.019258969
41	0xbdf83da7	-0.12121134
42	0xbd5972c5	-0.05308797
43	0xbd536273	-0.05160756
44	0xbd850b27	-0.06496268
45	0xbdc09aac	-0.09404501
46	0xbdaff28f	-0.08591186
47	0x3d20400b	0.039123576
48	0x3c415077	0.0117989695
49	0x3d90c920	0.070696115
50	0x3df4b6fe	0.119489655
51	0x3e04def8	0.12975681
52	0x3b7373fd	0.0037147992
53	0x3da25d61	0.07927967
54	0xbd8f7085	-0.07003883
55	0xbcc50fb0	-0.024055332
56	0x3bfa22d4	0.0076335464
57	0x3b95978d	0.0045651854
58	0xbb9cf212	-0.004789599
59	0xbc9f054e	-0.01941171
60	0x3d886d1f	0.06661438
61	0x3ca448dd	0.020054275
62	0xbd565653	-0.05232842
63	0xbe09c47e	-0.13453862
64	0xa36f9fd9	-1.2990065e-17
65	0xbd60c1e5	-0.054872412
66	0x3dd5d0f7	0.104402475
67	0x3d3a2894	0.045448855
68	0x3d688cce	0.056774907
69	0x3e11e8b1	0.14248921
70	0x3dd09ed0	0.10186541
71	0x3d4958b8	0.049156874
72	0x90c241a7	-7.662066e-29
73	0xbdd1d6e5	-0.10246066
74	0x3d90b1a9	0.07065136
75	0x3dbcffd2	0.09228481
76	0x3db3acb9	0.087731786
77	0xbd3782f7	-0.044802632
78	0x3dcb8414	0.09937301
79	0x3dca71ec	0.0988501
80	0x27674f04	3.2100524e-15
81	0xbdda5f6e	-0.10662733
82	0xbde7872d	-0.113050796
83	0xbc4eded2	-0.012626367
84	0x3d579580	0.05263281
85	0x3db5fe85	0.088864364
86	0xbd3c66c3	-0.04599644
87	0xbd5c278d	-0.053748656
88	0xa10406ac	-4.473217e-19
89	0xbda0d1f5	-0.07852546
90	0xbc276a9c	-0.010218289
91	0x3cd150fc	0.025551312
92	0xbd911888	-0.07084757
93	0xbc70c7f0	-0.014696106
94	0xbd1b9a72	-0.037989087
95	0xbc23ec7a	-0.010005111
96	0xa715ebd4	-2.0805747e-15
97	0x3c8f6bd4	0.017507471
98	0x3c7cc231	0.015427158
99	0x3d91b5c4	0.07114747
100	0xbd8637c7	-0.065536074
101	0x3dad5070	0.08462608
102	0x3d8c5b8d	0.068533994
103	0x2bf3eba6	1.7331594e-12
104	0xad18b5ec	-8.6805944e-12
105	0xbe3a0056	-0.1816419
106	0xbda16408	-0.078804076
107	0xbac815de	-0.0015265306
108	0x3bf214bc	0.0073877256
109	0xbc6dac67	-0.014506436
110	0xbda62250	-0.08112013
111	0x0feb1219	2.317976e-29
112	0x3d523769	0.051322374
113	0xbd69ebb3	-0.057109546
114	0xbc5cde52	-0.01348074
115	0x3da44a2c	0.0802196
116	0xbd800526	-0.06250982
117	0xbe47882f	-0.19485544
118	0xbdb2bea8	-0.08727771
119	0x3c032540	0.008004487
120	0xbd83da66	-0.064381406
121	0x3ce557dd	0.027995998
122	0x3d825cc2	0.063653484
123	0xbd8c900b	-0.068634115
124	0xbd0845be	-0.033269636
125	0xbdac400f	-0.08410656
126	0xbdf88c43	-0.12136128
127	0x3d8a43cf	0.06751215
128	0x19841537	1.3657049e-23
129	0xbc2a15f5	-0.0103812115
130	0xbe15ac0c	-0.14616412
131	0x3d6c4af0	0.057688653
132	0xbcb7b9d6	-0.02242748
133	0x3d6502cf	0.05591088
134	0xbdd19ad4	-0.10234609
135	0xbde0287b	-0.10945221
136	0x3c78173a	0.015142256
137	0x3dacd4bb	0.084390126
138	0xbc2adc98	-0.01042857
139	0x3d70f2f4	0.05882545
140	0xbad05c01	-0.001589656
141	0x3d7e30e9	0.062058363
142	0x3dd4d0cf	0.103913896
143	0x3d885c69	0.06658251
144	0x3d0e7316	0.034777723
145	0x3c41f838	0.011838965
146	0xbc6f14f2	-0.014592396
147	0x3b9af73f	0.004729181
148	0x3e2a61ee	0.1663892
149	0xbc7eff7d	-0.015563843
150	0x3d6c37ce	0.057670407
151	0xbda5f6fb	-0.081037484
152	0xbc545d6d	-0.012961728
153	0xbd7e11dc	-0.06202875
154	0x3be79a39	0.0070679453
155	0x3de6b0dd	0.11264203
156	0x3dffc3a8	0.1248849
157	0x3dc7d98f	0.09758293
158	0xbd2048f3	-0.03913207
159	0xbd107e76	-0.035276853
160	0x2200ead8	1.747156e-18
161	0xbdf76153	-0.1207911
162	0x3c802f4c	0.015647553
163	0x3d2e9677	0.042623963
164	0x3d938e94	0.07204929
165	0x3cc3cff4	0.02390287
166	0xbd9eb78b	-0.07749852
167	0xae36cce2	-4.156398e-11
168	0x3d11fa83	0.035639297
169	0xbd79d6c0	-0.060995817
170	0xbd61de11	-0.05514342
171	0xbd7809a1	-0.060556058
172	0xbddd5c0d	-0.10808573
173	0xbd8e01da	-0.06933947
174	0x3dbe480e	0.09291087
175	0x3cdcbed2	0.026946459
176	0xbda8227d	-0.08209703
177	0xbdda3ba7	-0.10655909
178	0xbb31425e	-0.0027047615
179	0xbd40e3e2	-0.047092326
180	0xbceb5d48	-0.028731003
181	0x3d8acd60	0.067774534
182	0xbd84e36e	-0.06488691
183	0x3e0d12cc	0.13776702
184	0xbd0a1ad8	-0.033717006
185	0xbc5c44dc	-0.013444152
186	0xbd90008d	-0.07031355
187	0xbd2613d1	-0.040546242
188	0x3d10d375	0.03535791
189	0xbdbe9634	-0.09305993
190	0xbde1e607	-0.11030202
191	0xbdd4cdda	-0.103908256
192	0x9ecad472	-2.1475447e-20
193	0xbc119948	-0.008886643
194	0xbdd59ed3	-0.10430684
195	0x3d8670ab	0.065644585
196	0xbd2a64b4	-0.041599944
197	0xbc036336	-0.008019259
198	0xbbefacac	-0.0073142853
199	0xbb9018f8	-0.0043975078
200	0x0e2cebec	2.131423e-30
201	0xbd053632	-0.032522388
202	0x3de2544f	0.11051237
203	0x392bf676	0.00016399645
204	0x3cef00fa	0.02917527
205	0x3a97332c	0.0011535636
206	0xbbe80b52	-0.0070814276
207	0xbb912dd1	-0.0044305106
208	0xa6e9496e	-1.6187526e-15
209	0x9adb4a2a	-9.0696096e-23
210	0xbdd9e923	-0.106401704
211	0x3d9af491	0.075661786
212	0xbd50c5ab	-0.05096976
213	0x3cfdfc24	0.03100402
214	0xbae2c798	-0.0017301915
215	0x2e3f2f00	4.3470116e-11
216	0x28f1e8a4	2.6857267e-14
217	0x90605315	-4.4240215e-29
218	0xbd1a04b1	-0.03760213
219	0x3dd7a04c	0.10528621
220	0xbdca3838	-0.09874004
221	0xbd6f4f7a	-0.058425404
222	0xbb8e645e	-0.004345461
223	0x118e9dd6	2.2500924e-28
224	0x10c74a7a	7.860641e-29
225	0x984bc652	-2.6337261e-24
226	0xbdc21ae8	-0.09477788
227	0xbd437abd	-0.047724474
228	0xbd88782e	-0.066635475
229	0x3d5ea04a	0.054352082
230	0xba8936bc	-0.0010468583
231	0xad11089e	-8.244209e-12
232	0xa34d2f35	-1.1123069e-17
233	0x105f83e1	4.408059e-29
234	0xbb8d965d	-0.004320903
235	0xbc281a7a	-0.010260219
236	0xbcf80e0c	-0.030280136
237	0x3c0f14b3	0.008732962
238	0xbac8b91c	-0.0015313956
239	0x90fe4a63	-1.00299946e-28
240	0x2368c99e	1.2619439e-17
241	0xbbc32703	-0.0059555783
242	0xbdca3182	-0.09872724
243	0x3d9c7d7d	0.076411225
244	0x3da14efd	0.07876394
245	0xbd781594	-0.060567454
246	0xbb720525	-0.0036929336
247	0xba7cf082	-0.00096488756
248	0x2a66c1e1	2.0495369e-13
249	0xbc113c3d	-0.00886446
250	0x3d8fde0e	0.070247754
251	0xbda76602	-0.08173753
252	0xbd0c0c36	-0.034191333
253	0xbb86bdf1	-0.0041119982
254	0xbb8f031d	-0.004364385
255	0x9965a3a2	-1.1872068e-23

bias f4 [128]
0	0xbd934617	-0.07191103
1	0xbcbee9be	-0.023304816
2	0x3d1d3489	0.03838018
3	0xbd02217b	-0.03177021
4	0xbd5c7fc7	-0.053832795
5	0x3e323c2e	0.17405769
6	0x3d8ceb26	0.068807885
7	0x3d66a5a0	0.056310296
8	0x3da6a723	0.081373475
9	0x3db377d3	0.08763089
10	0xaab9e9d0	-3.3024842e-13
11	0x3ba302da	0.004974705
12	0xbd90e391	-0.07074655
13	0x3b73ea2f	0.0037218442
14	0xbcc160f7	-0.023605807
15	0x3e28db1c	0.16489834
16	0x3e1c8f1b	0.15288965
17	0x3da397dd	0.0798795
18	0x3dce4906	0.10072522
19	0x3276f3bb	1.43745025e-08
20	0x3db6f2d4	0.089330345
21	0x3e10c211	0.1413653
22	0xbd422ee2	-0.047407992
23	0xb9b778fc	-0.0003499462
24	0x3dd29dcb	0.10284003
25	0x3dd656f0	0.10465801
26	0x3ac5f2bc	0.0015102248
27	0x3ddd8d71	0.108179934
28	0x3d650aad	0.055918384
29	0xbdc040a2	-0.09387328
30	0x3e0ee196	0.13953242
31	0x3b58067e	0.0032962854
32	0x3d76ab0f	0.060221728
33	0xbdc6995f	-0.09697222
34	0x3d9b9f99	0.075988
35	0x3debabd9	0.11507387
36	0x3d2c6b13	0.0420943
37	0x3dddb7f5	0.10826103
38	0xbdbee043	-0.09320118
39	0x3d2f4921	0.04279435
40	0x3d8cb6af	0.06870782
41	0x3d152467	0.03641167
42	0xbcba4f13	-0.022742784
43	0x3dbaad2b	0.091150604
44	0x3d63516a	0.055497564
45	0x3cb7ccd3	0.022436535
46	0x3cf95c96	0.030439656
47	0x3daf9abd	0.08574436
48	0x3cb3a153	0.021927511
49	0x3e532f6e	0.20623562
50	0xbc598df7	-0.013278476
51	0x3b7d5683	0.0038656301
52	0xbd6ab94e	-0.057305627
53	0x3c98dad8	0.01865904
54	0xbda6bcd3	-0.08141484
55	0xba266180	-0.0006346926
56	0x3c5e3826	0.0135631915
57	0x3d13588a	0.03597311
58	0x3db146c6	0.08656077
59	0xbab1f8ec	-0.0013578213
60	0xbd9070ef	-0.070527904
61	0x3d01818e	0.031617694
62	0x3d4aa19c	0.04947053
63	0x3dac358b	0.0840865
64	0xbd296490	-0.04135567
65	0xbd23abf5	-0.039958913
66	0xbaa492e4	-0.0012555984
67	0x3e0540b1	0.13012959
68	0x3d934269	0.07190401
69	0x3c61906e	0.013767345
70	0xb9d8dda6	-0.0004136387
71	0xbc2457e2	-0.0100307185
72	0xba95f536	-0.0011440876
73	0xbd70e0c4	-0.058808103
74	0x3d0ba170	0.034089506
75	0xbd8b98f1	-0.06816281
76	0x3e045d86	0.12926301
77	0xbda5de7c	-0.08099076
78	0xbdd171ff	-0.10226821
79	0xbda93776	-0.082625315
80	0x3df5beac	0.119992584
81	0x3db1675b	0.086622916
82	0x3dc31f07	0.09527402
83	0x3cc0145b	0.023447206
84	0x3dbbe2b1	0.09174097
85	0x3dcfea4a	0.10152109
86	0x3e4f0aba	0.20218936
87	0x3e05e9b2	0.13077429
88	0x3c9aafa1	0.018882575
89	0xbddb962e	-0.10722004
90	0x3d9f50b0	0.07779062
91	0xbcba905f	-0.02277392
92	0x3d42f28c	0.047594592
93	0xbd1b77c2	-0.037956007
94	0x3d9204a9	0.07129795
95	0x3d6f96c1	0.05849338
96	0xbd892663	-0.06696775
97	0xbd7f5d9e	-0.06234514
98	0x3da7b4c1	0.08188773
99	0x3bb21ddc	0.0054356884
100	0x3dd2dbb3	0.102958106
101	0x3c7a6398	0.015282534
102	0x3dc45569	0.09586603
103	0x3df60ff3	0.12014761
104	0x3e0d008f	0.13769744
105	0xbced4498	-0.028963372
106	0xbd7fd9eb	-0.062463682
107	0x3d54c7de	0.05194842
108	0xbdbb0d79	-0.09133429
109	0x3dc3b02a	0.09555085
110	0x3d09274f	0.033484753
111	0x3d562b45	0.05228736
112	0xbd9ca814	-0.07649246
113	0x3cda9975	0.026684502
114	0x3de2ad01	0.11068154
115	0x3dac943c	0.08426711
116	0xbda74c12	-0.08168806
117	0xbc964c20	-0.018346846
118	0x3dbeacfa	0.093103364
119	0x3d672cb3	0.056439113
120	0xbd03412a	-0.032044567
121	0x3d96edac	0.07369551
122	0x3d5fcd35	0.05463906
123	0x1ec0600e	2.0368518e-20
124	0xbd023f75	-0.0317988
125	0x3dd2564d	0.10270367
126	0x3c42a26a	0.011879543
127	0x3dfe7c2e	0.12426029

weight f4 [64, 128]
0	0xbe241308	-0.16022885
1	0x3d910a2e	0.0708202
2	0x3d320fa9	0.043471966
3	0xbc924cd0	-0.017858893
4	0xbd7a8882	-0.06116534
5	0x3c95f100	0.018303394
6	0x3da41ecd	0.08013687
7	0xbd0752bb	-0.033037882
8	0xbdf773b0	-0.120826125
9	0x3cf5569c	0.029948525
10	0x19628ce0	1.1712376e-23
11	0xbd2539c3	-0.04033829
12	0xbd0e2b69	-0.034709368
13	0xbd14167a	-0.036154248
14	0x3b326454	0.0027220445
15	0x3b7caab8	0.0038553905
16	0x3d89d4cb	0.0673004
17	0x3dd28d9a	0.102809146
18	0x3dd13601	0.102153786
19	0xb9190c2a	-0.00014595749
20	0x3da5b460	0.080910444
21	0x3dce832c	0.10083613
22	0x3d9fc237	0.078007154
23	0xb9b7667f	-0.00034980846
24	0x3d324e3a	0.043531634
25	0xbc9eb529	-0.019373493
26	0x3c98fdce	0.018675711
27	0x3d3afe09	0.045652423
28	0x3db22790	0.08698952
29	0xbdcf06a6	-0.1010869
30	0xbc5e2c75	-0.013560404
31	0x3dc7376d	0.097273685
32	0x3d3cbc32	0.046077915
33	0xbc85a26f	-0.016312806
34	0x3cb8dc9e	0.022566136
35	0x3d2aeff9	0.041732762
36	0x3d80dcd3	0.06292119
37	0x3dc975f5	0.09836952
38	0xbd89b561	-0.067240484
39	0x3d5b9822	0.053611882
40	0x3dee9581	0.11649609
41	0x3e116efa	0.1420249
42	0xbd092976	-0.033486806
43	0xbced4e1c	-0.02896791
44	0xbcdd1152	-0.026985798
45	0x3dd1d28e	0.10245238
46	0x3d3461f1	0.044038717
47	0x3c7d2d66	0.015452718
48	0xbd9f03b4	-0.07764378
49	0x3d708cc0	0.05872798
50	0xbd0b2fb6	-0.033981048
51	0xbd45107d	-0.048111428
52	0x3dd53890	0.10411179
53	0xbda2a7c3	-0.07942154
54	0x3ca9fb4d	0.020749712
55	0x39f60e6e	0.00046931527
56	0x3d04164c	0.032247826
57	0xbd66de7c	-0.05636452
58	0x3dcc63c3	0.099799655
59	0x3c899642	0.016795281
60	0xbd580993	-0.052743506
61	0x3dee6d09	0.116418906
62	0x3dcd48d1	0.10023654
63	0x3da4b6b9	0.08042664
64	0x3d9db6fb	0.077009164
65	0x3d31d09f	0.043411847
66	0x3bc9605d	0.0061455206
67	0x3d4fa1d9	0.05069146
68	0x3e00903c	0.12555021
69	0x3d1d6a79	0.03843162
70	0xb85e4deb	-5.300149e-05
71	0xbd013cb9	-0.03155205
72	0xbdec6ce6	-0.11544208
73	0xbc3c8599	-0.011506462
74	0x3bb1dfc9	0.0054282886
75	0x3d87f797	0.06639021
76	0x3df492be	0.11942051
77	0xbddab4ff	-0.106790535
78	0x3c2a47f5	0.010393132
79	0x3d6baab8	0.057535857
80	0xbd03f9de	-0.032220714
81	0xba57f44b	-0.00082380016
82	0xbd1d6871	-0.03842968
83	0xbca190d1	-0.019722374
84	0x3cfb9bd1	0.030713947
85	0x3dabf387	0.083960585
86	0x3ddb3e76	0.10705273
87	0xbd3d5be4	-0.04623021
88	0xbd9b1749	-0.07572801
89	0x3db82cec	0.08992943
90	0xbd68890e	-0.05677133
91	0x3d1036b6	0.035208426
92	0x3d093c59	0.033504818
93	0xbd5ec3af	-0.054385837
94	0x3d6da638	0.058019847
95	0xbd4beb8c	-0.049785182
96	0x3d4f0d85	0.050550003
97	0x3d107bf7	0.035274472
98	0x3c861b6d	0.0163705
99	0x3da05db0	0.078303695
100	0x3ce344c8	0.027742758
101	0x3d37ee14	0.044904783
102	0x3d8c35c9	0.06846196
103	0x3d1de29f	0.0385462
104	0x3ddd3da2	0.10802771
105	0xbda6067b	-0.08106705
106	0xbd2e213c	-0.042512164
107	0xbd971f30	-0.073789954
108	0x3b13f529	0.0022576547
109	0xbd87cfbd	-0.0663142
110	0xbccdf9dd	-0.025143558
111	0x3d1a6a7f	0.03769922
112	0xbd9120f1	-0.07086361
113	0x3deb7833	0.114975356
114	0xbda48376	-0.08032887
115	0x3dec6cf6	0.1154422
116	0xbdfb268a	-0.1226321
117	0x3dd59af4	0.104299456
118	0x3d694bb1	0.05695695
119	0xbd5fafb4	-0.054610923
120	0xbd544a19	-0.051828478
121	0x3dc7faa4	0.09764603
122	0x3dcf6cd5	0.1012818
123	0x16f673e4	3.981658e-25
124	0x3dd2c58b	0.102915846
125	0xbdae4c92	-0.085106984
126	0x3da10b0d	0.07863436
127	0x3e02d8a4	0.12777954
128	0x3dde50e9	0.10855276
129	0xbb503a33	-0.003177297
130	0x3dd00601	0.10157395
131	0xa13bf7b8	-6.368592e-19
132	0x3dddb647	0.10825782
133	0xbd954a61	-0.07289577
134	0xbca9826f	-0.020692078
135	0xbdcef68c	-0.10105619
136	0x3d79f78f	0.061027106
137	0x3d913461	0.070900686
138	0x9baf217f	-2.8972968e-22
139	0x3cd96bb5	0.026540617
140	0xbc47eb7f	-0.012202143
141	0x3d1f5dfe	0.038907997
142	0xbc174444	-0.009232584
143	0x3d903a37	0.070423536
144	0xbd6bc2ac	-0.0575587
145	0x3cc3147f	0.023813484
146	0x3d2064a5	0.039158482
147	0xba06935d	-0.0005133653
148	0xbd075e50	-0.033048928
149	0xbd2274c4	-0.039662138
150	0xbdafc088	-0.08581644
151	0x3982d50e	0.0002495427
152	0x3b01628d	0.0019742579
153	0xbd6a39de	-0.057184093
154	0x3d85bbde	0.065299734
155	0xbd815208	-0.06314474
156	0xbde9f235	-0.114231504
157	0x3c5f71c7	0.0136379665
158	0x3db24bfd	0.087059
159	0x3ca551f3	0.020180678
160	0x3d5753ab	0.052570026
161	0x3cb85cd7	0.022505207
162	0xbc6c9316	-0.014439365
163	0xbd6e3f41	-0.058165792
164	0x3d965bd2	0.07341732
165	0xbd574990	-0.05256039
166	0xbc6a4555	-0.014298757
167	0xb9424e92	-0.00018530551
168	0xbd2ed499	-0.042683218
169	0xbb5b4066	-0.0033455133
170	0x3da28fd3	0.079375885
171	0xbdf6d4bf	-0.12052297
172	0xbbfb80d9	-0.007675272
173	0x3d1b4972	0.03791184
174	0xbd90526a	-0.07046969
175	0xbd05f920	-0.032708287
176	0x3c6a89d7	0.01431509
177	0xbc34742b	-0.011014025
178	0x9fd23e8e	-8.904195e-20
179	0xbb7775fc	-0.0037759533
180	0x3c1ea077	0.0096818125
181	0x3d0521d0	0.03250295
182	0x3d7e7a4b	0.062128346
183	0x9187a430	-2.1400433e-28
184	0xbd355009	-0.04426578
185	0xbc397625	-0.011319672
186	0x3c9d8c08	0.019231811
187	0xbd4b924e	-0.049700074
188	0x3d88b7a1	0.066756494
189	0xbd44ce9f	-0.04804861
190	0x3b0a296b	0.0021081816
191	0xbdc7e1c8	-0.09759861
192	0xbd8b4e31	-0.06802023
193	0xbc9955bc	-0.01871764
194	0x3d56a4da	0.05240331
195	0x3cb57ee5	0.022155235
196	0xbd4758ee	-0.048668794
197	0xbdb547c2	-0.08851577
198	0xb98fafa6	-0.00027405954
199	0xbb87cbd5	-0.0041441717
200	0x3cad4002	0.021148685
201	0xbd20d94c	-0.03926973
202	0xbd02b196	-0.03190764
203	0xbce2a8e5	-0.027668426
204	0x3d094487	0.03351262
205	0xbd87e727	-0.06635886
206	0x3d9c1fab	0.07623228
207	0x3ca8c3cc	0.020601176
208	0xbda893f0	-0.08231342
209	0x3d69c20f	0.057069834
210	0x3d5bd196	0.053666674
211	0x3a09f8f0	0.000526323
212	0xbd9c691b	-0.07637235
213	0x3d19f071	0.03758282
214	0x3d456e22	0.048200734
215	0x3d403211	0.046922747
216	0x3c9e1248	0.019295827
217	0xbc320163	-0.010864588
218	0x20e21f0b	3.8306432e-19
219	0x3d9c2e61	0.076260336
220	0x3d28a1bb	0.041169863
221	0xbd797050	-0.060898125
222	0xbdb8f737	-0.090315275
223	0x3b882f05	0.004155996
224	0xbd81b945	-0.063341655
225	0x3c555dfa	0.013022894
226	0x3ccbeef9	0.024894224
227	0xbc4522fc	-0.012032267
228	0x3d16a05a	0.036774017
229	0xbc7423ab	-0.014901082
230	0xbdce1b79	-0.10063834
231	0xbb32690e	-0.0027223262
232	0x3cb3b949	0.021938937
233	0x3d14225f	0.03616559
234	0x3d3f4d5c	0.046704635
235	0xbdaa595c	-0.08317825
236	0x3d8c5871	0.06852806
237	0x3d99b4bd	0.07505176
238	0xbd12fcdd	-0.03588568
239	0xbd1b5e80	-0.03793192
240	0xbd71346e	-0.05888789
241	0x3cfadb28	0.03062208
242	0xbd87d284	-0.066319495
243	0x3c94ed19	0.018179463
244	0xbd162372	-0.036654897
245	0x3dae966c	0.085247844
246	0x3da5448b	0.08069714
247	0x3c69e96d	0.014276844
248	0xbc360e83	-0.011111858
249	0x3d81b258	0.063328445
250	0x3daaf52f	0.08347546
251	0x9a8630a0	-5.549966e-23
252	0xbd0bda8c	-0.03414397
253	0x3d87bd28	0.066278756
254	0xbd4fc656	-0.050726257
255	0xbd4422b0	-0.047884643

bias f4 [64]
0	0x3e112b06	0.14176568
1	0xbcf101a6	-0.029419731
2	0x3db7721a	0.0895731
3	0xbccd761b	-0.025080731
4	0x3d8b6345	0.068060435
5	0x3d7203cf	0.059085663
6	0xbd2b431c	-0.041812047
7	0xbda03827	-0.0782321
8	0x3d2e96af	0.04262417
9	0x3cbc8836	0.02301417
10	0x3d4ab04a	0.04948453
11	0xbb159684	-0.002282531
12	0xbd28285a	-0.041054107
13	0x3d17af6b	0.037032526
14	0x3cd3eb67	0.025869085
15	0x3ba97a4a	0.0051720487
16	0x3cc59a62	0.024121467
17	0x3cf46727	0.029834343
18	0xbaa31c74	-0.0012444393
19	0xbd61202c	-0.054962322
20	0xbac2ec3e	-0.0014871431
21	0xb344fb06	-4.586311e-08
22	0xbb164ce7	-0.002293402
23	0xbd998d30	-0.074976325
24	0xbdba4c8e	-0.09096633
25	0xbcd8d1a6	-0.026467156
26	0xbd2eca3a	-0.042673327
27	0x3cfc6dc9	0.030814068
28	0xbc6beaaf	-0.014399215
29	0x3d3372b4	0.04381056
30	0xbd72aee7	-0.05924883
31	0xbd03d1d2	-0.032182522
32	0xbbcde590	-0.0062834695
33	0x3c01fe1e	0.007934121
34	0x3dc9888c	0.098404974
35	0xbb02efeb	-0.0019979428
36	0xbc5f46cf	-0.013627722
37	0x3da316ec	0.079633564
38	0xbd5c5acc	-0.05379753
39	0xbcb57371	-0.022149773
40	0xbd5570df	-0.052109595
41	0x3c87c302	0.01657248
42	0x3cbe0801	0.023197176
43	0x3e1ce44a	0.1532146
44	0xbd24d477	-0.040241685
45	0x3d50b5ed	0.050954748
46	0xbd9bcb2e	-0.07607113
47	0x3da6ecb3	0.081506155
48	0x3d0e1cc4	0.0346954
49	0xbda288e3	-0.07936265
50	0xbd07b3f9	-0.03313062
51	0xbc8fc3d5	-0.017549435
52	0xbb97b197	-0.0046293247
53	0x3d01dcd2	0.03170473
54	0x3dec6ddd	0.11544392
55	0xbc7e36ed	-0.015516025
56	0xbcddf704	-0.027095325
57	0x3c3b9bee	0.011450751
58	0x3cb5d61e	0.022196826
59	0x3d706b5a	0.05869613
60	0xbd671ccb	-0.056423943
61	0xbd858885	-0.0652018
62	0x3db83eec	0.089963764
63	0x3d3bb249	0.045824323

weight f4 [64, 64]
0	0x3dc4a08c	0.096009344
1	0x3d920e00	0.071315765
2	0xbdf08011	-0.11743177
3	0xbdbac0c5	-0.09118799
4	0xbdd1fec1	-0.102536686
5	0xbce7dcb7	-0.028303487
6	0x3e4061ab	0.18787257
7	0x3ba2d14b	0.0049687973
8	0xbdd8c1cd	-0.105838396
9	0xbd783d99	-0.06060562
10	0xbdcdaf7c	-0.100432366
11	0x3a946863	0.0011322614
12	0xbdb238d7	-0.087022476
13	0x3df53b70	0.119742274
14	0xbe2398b0	-0.15976214
15	0x3cbf17c0	0.023326755
16	0x3e31936b	0.17341392
17	0xbe1798af	-0.14804338
18	0x3add27b5	0.0016872796
19	0x3dcc3225	0.09970502
20	0x3a3db443	0.0007236639
21	0xb9b98ba5	-0.00035389993
22	0x3dde841c	0.108650416
23	0x3d950435	0.07276193
24	0xbdca1307	-0.098669104
25	0x3cf87659	0.03032987
26	0x3d9786f2	0.07398786
27	0x3e13b169	0.14423145
28	0x3e3822c6	0.17982015
29	0x3e2ece72	0.1707094
30	0x3d8ca6fb	0.068677865
31	0x3d988425	0.074470796
32	0xbd5d46a6	-0.054022454
33	0xbdd3a60b	-0.103344046
34	0x3dafeedc	0.08590481
35	0xbda35eee	-0.07977091
36	0xbd392e56	-0.045210205
37	0xbe35a617	-0.1773914
38	0x3d0d5316	0.034503065
39	0x3c8c6130	0.017136186
40	0x3d85320c	0.06503686
41	0x3e17d9d2	0.14829186
42	0x3d93ab6f	0.07210433
43	0x3e053e8b	0.1301214
44	0xbdb76ecc	-0.0895668
45	0x3d4892d4	0.04896815
46	0xbe05a4af	-0.13051103
47	0x3d381ba9	0.044948254
48	0x3d9c2c9c	0.07625696
49	0x3ce9a6c8	0.02852191
50	0x3d218b20	0.03943932
51	0xbdc57bb7	-0.09642737
52	0x3def15b7	0.11674064
53	0xbdd50227	-0.10400801
54	0xbda9adf0	-0.08285129
55	0x3e24dda7	0.16100179
56	0xbc9408d9	-0.018070625
57	0x3cca4749	0.024692195
58	0xbd80b6d1	-0.062848695
59	0xbdf30ed8	-0.118680656
60	0x3e24248b	0.16029565
61	0xbd9d4b83	-0.07680418
62	0x3ba57074	0.005048806
63	0x3d89f8f3	0.067369364
64	0x3d9d505f	0.07681345
65	0x3d7e3379	0.062060807
66	0xbc0d3baa	-0.008620182
67	0xbdc89220	-0.09793496
68	0xbd7af61f	-0.061269876
69	0x3d56213f	0.0522778
70	0xbdf8fed7	-0.12157982
71	0xbd592d69	-0.053021822
72	0x3d04f424	0.032459393
73	0xbd1471a1	-0.036241177
74	0xbd3335d7	-0.043752518
75	0x3b015b81	0.0019738378
76	0xbc0fecf0	-0.008784518
77	0xbe048f24	-0.12945229
78	0x3c853c8a	0.016264219
79	0x3d9d0589	0.07667071
80	0xbdc0f7b0	-0.09422243
81	0xbdae2c92	-0.08504595
82	0x3afdb333	0.0019355774
83	0xbcbb033e	-0.022828694
84	0xba5aafbf	-0.0008342228
85	0x390342d3	0.00012518028
86	0xbd6f3faa	-0.058410324
87	0x3e10d932	0.14145353
88	0x3de3743f	0.111061566
89	0xbe090439	-0.13380517
90	0x3d28ea67	0.04123917
91	0x3d2ea9ba	0.042642333
92	0x3dd078c8	0.10179287
93	0xbdf7fecd	-0.12109146
94	0xbcd7f5db	-0.02636235
95	0xbe0436ee	-0.12911579
96	0x3ded676b	0.11591991
97	0x3deef1db	0.11667224
98	0x3dce5c4f	0.100762
99	0x3baf0bfb	0.0053420044
100	0xbe3581ba	-0.17725268
101	0x3cd2f518	0.025751635
102	0x3dea4e9f	0.11440777
103	0xbd141fdc	-0.036163196
104	0x3d709f61	0.058745746
105	0xbd02ee3a	-0.03196547
106	0xbdb0c587	-0.08631425
107	0x3c8e9c29	0.017408447
108	0x3dca6f01	0.098844536
109	0x3b7fc7cd	0.0039029003
110	0x3e1661e9	0.14685787
111	0x3c77d017	0.015125296
112	0xbd817b58	-0.06322354
113	0x3e120e53	0.14263277
114	0x3c6663fe	0.014061926
115	0xbdd9cda1	-0.10634924
116	0x3d1b4ffc	0.037918076
117	0xbc787f56	-0.015167078
118	0xbe0f8380	-0.14015007
119	0xbe06689f	-0.13125847
120	0x38b3f0b3	8.580219e-05
121	0xbd603734	-0.054740146
122	0xbd4ed961	-0.050500277
123	0x3d5530bf	0.05204844
124	0xbc476935	-0.012171079
125	0x3d7fc3c6	0.062442563
126	0x3dde8c93	0.10866656
127	0x3d1a4822	0.037666447
128	0x3ce43c39	0.027860748
129	0xbc9495d0	-0.018137842
130	0xbdb62957	-0.08894604
131	0xbd8a45c3	-0.06751587
132	0xbc92f9d4	-0.017941393
133	0x3ca8e92c	0.020618998
134	0x3c9edf86	0.019393694
135	0x3bb5e850	0.0055513754
136	0x3d9642b9	0.07336945
137	0x3c2383bb	0.009980137
138	0xbd84356e	-0.064555034
139	0x3b0230fa	0.0019865618
140	0xbbd6db8f	-0.006556935
141	0xbe01a270	-0.12659621
142	0x3b98a4e8	0.00465833
143	0xbd0d6939	-0.034524176
144	0xbdd46826	-0.10371427
145	0xbc34c331	-0.011032865
146	0xbaa4a0de	-0.0012560149
147	0xbd80645d	-0.06269143
148	0x3aaf940e	0.0013395564
149	0xba2e3018	-0.000664474
150	0x3d1e7701	0.03868771
151	0x3d999942	0.07499935
152	0x1f32561b	3.776419e-20
153	0xbd74f887	-0.059807327
154	0xbde04c95	-0.10952107
155	0x3da994b1	0.08280314
156	0x3dfd5f61	0.12371708
157	0x3dda3778	0.10655111
158	0x3c8282fe	0.015931603
159	0x3d3cfd49	0.04613999
160	0x3b6931c3	0.0035582639
161	0x3cb8959d	0.022532279
162	0x3dc38219	0.095462985
163	0x3d4e9add	0.050440658
164	0xbdfefae8	-0.124502
165	0xbd6ea2aa	-0.058260597
166	0xbdeeba64	-0.11656645
167	0xbc5dee28	-0.01354555
168	0x3df3c12f	0.11902081
169	0x3dbe36ba	0.09287782
170	0xbd6ccfc0	-0.057815313
171	0x3d1c92b6	0.038225852
172	0x3cb01f5a	0.021499325
173	0xbe0b4206	-0.13599405
174	0xbe02acba	-0.12761202
175	0x3e0d877c	0.13821214
176	0x3ccc1c21	0.024915757
177	0x3d5d9dba	0.054105498
178	0x3d704ce1	0.058667067
179	0xbcec0d2a	-0.02881487
180	0x3d7aedbf	0.06126189
181	0x3d87dcff	0.066339485
182	0x3dea13eb	0.1142958
183	0xbddce0ac	-0.1078504
184	0xbb22dcd1	-0.0024850855
185	0xbc96218d	-0.018326545
186	0x3db50db6	0.08840506
187	0xbd25f114	-0.040513113
188	0xbdf9bba0	-0.1219399
189	0xbda6937f	-0.081336014
190	0xbcd64573	-0.026156163
191	0x3d384da9	0.044995937
192	0xbde01977	-0.10942357
193	0x3ce96ecd	0.028495217
194	0x3c631e3e	0.013862191
195	0x3c4dcda8	0.012561239
196	0xbd1ce262	-0.038301833
197	0xbe1a9c2e	-0.1509864
198	0xbdac0757	-0.083998375
199	0x3c677609	0.014127263
200	0xbb171a53	-0.0023056462
201	0xbc91b261	-0.017785253
202	0x3dec67e0	0.1154325
203	0xbaa2c8f2	-0.0012419506
204	0xbd845044	-0.06460622
205	0x3d21b15c	0.039475784
206	0x3da4b4d5	0.080423035
207	0xbc84e42d	-0.016222084
208	0xbd206e93	-0.03916795
209	0x3d152d04	0.036419883
210	0x3a73666e	0.00092849776
211	0xbc202aef	-0.009775861
212	0x3a72d9c2	0.0009264016
213	0x3a0e0230	0.0005417196
214	0x3dcea874	0.10090724
215	0xbd9352ad	-0.071935035
216	0xbca54dd9	-0.020178722
217	0x3ca3dac5	0.020001778
218	0x3dc1259e	0.09431003
219	0x3bf8e09a	0.007595134
220	0x3dbf273d	0.09333656
221	0x3d2ccade	0.042185657
222	0xbb2638c7	-0.0025363432
223	0x3d3dfdc5	0.04638459
224	0x3dbf2773	0.09333696
225	0x3da5a1ea	0.08087523
226	0xbd80124b	-0.06253489
227	0xbd041343	-0.032244932
228	0x3e129933	0.14316253
229	0xbd0c9fac	-0.034331962
230	0xbda8b056	-0.082367584
231	0x3d0da1c4	0.0345781
232	0x3d675d2f	0.05648535
233	0x3c999482	0.018747572
234	0xbd84ddf7	-0.06487649
235	0xbd864c84	-0.06557563
236	0x3d6968d2	0.05698473
237	0xbd15359c	-0.03642808
238	0xbda8c024	-0.08239773
239	0x3e23031f	0.1591916
240	0xbd32cb44	-0.04365088
241	0x3e3764f9	0.17909612
242	0x3d3e00fb	0.046387654
243	0xbd69d9df	-0.057092544
244	0xbd21d0c5	-0.03950574
245	0xbe029822	-0.12753347
246	0x3d7b0755	0.06128629
247	0x3d6abc47	0.05730846
248	0x3b5d279e	0.0033745538
249	0xbdaa1dae	-0.08306442
250	0xbd703988	-0.058648616
251	0x3c859a9f	0.01630908
252	0xbdfdf332	-0.123999014
253	0xbd65725b	-0.05601726
254	0x3d5aac92	0.053387232
255	0x3e07e25a	0.1326994

bias f4 [64]
0	0x3cdbad10	0.026815921
1	0x3d908ec2	0.07058479
2	0xbd56a4bb	-0.052403193
3	0xbc8867f2	-0.016651127
4	0x3d4de1bf	0.050264116
5	0xbd6a64fb	-0.05722521
6	0xbdc9e87a	-0.098587945
7	0xbd4b8d58	-0.049695343
8	0xbddff783	-0.10935881
9	0x8f901f52	-1.421156e-29
10	0xbd933176	-0.07187168
11	0x3cfa40df	0.030548511
12	0x3de33d60	0.11095691
13	0x3e21871b	0.15774195
14	0x3d9da383	0.07697203
15	0xbd81d564	-0.06339529
16	0xbb185e34	-0.0023249509
17	0xbd4aee5e	-0.04954373
18	0x3de3a05d	0.11114571
19	0xbbe9813b	-0.007126001
20	0x3e30c459	0.172624
21	0xbc848577	-0.016176922
22	0x3e016b2d	0.1263854
23	0xbd5dce4d	-0.054151822
24	0x3d4fab9e	0.050700776
25	0xbdc18dbe	-0.09450863
26	0xbd4b951e	-0.049702756
27	0x1dfd620b	6.7069916e-21
28	0x3da18cbb	0.0788817
29	0xbd0028a7	-0.03128877
30	0xbd7a27ad	-0.061072994
31	0x3c36f157	0.011165938
32	0xbd0a73b3	-0.033801746
33	0x3ddc096e	0.10743986
34	0x3db147d8	0.08656281
35	0x3e25fa43	0.16208749
36	0x3c12aae4	0.008951876
37	0x3ccda8b4	0.025104858
38	0xbd6212a4	-0.05519356
39	0xbd7300dc	-0.05932699
40	0x27626b66	3.1422021e-15
41	0x3c86abc5	0.016439328
42	0x3e29f69a	0.16597977
43	0x3d98ce80	0.07461262
44	0xbdd253c3	-0.102698825
45	0x3cda0bc0	0.026616931
46	0x3e0ae235	0.13562854
47	0x3c895f4a	0.01676907
48	0xbc2f212e	-0.010689063
49	0x3c070d0e	0.008242859
50	0x3e202452	0.15638855
51	0xbdcc4ccb	-0.099755846
52	0x3acffbc2	0.0015867876
53	0x3e253880	0.16134834
54	0x3e0810f6	0.1328772
55	0x3e02f0e8	0.12787211
56	0xbdfbb9e6	-0.12291317
57	0xbc609080	-0.0137063265
58	0xbd2c3e99	-0.042051885
59	0x3e2139dd	0.1574473
60	0x3dc09dca	0.09405096
61	0x3dac46ec	0.08411965
62	0x3c1f3c24	0.0097189285
63	0x3d7532ce	0.059862904

weight f4 [32, 64]
0	0x3dc486b1	0.09596003
1	0x3dd476f3	0.1037425
2	0x3de6598c	0.112475485
3	0xbdf8b58e	-0.12144004
4	0xbcf57d24	-0.029966898
5	0xbb657e15	-0.0035017778
6	0xbdeda978	-0.11604589
7	0x3e2ff4e9	0.1718327
8	0x3d0c3877	0.034233537
9	0x16b3d83b	2.905547e-25
10	0x3dfb7b2e	0.12279354
11	0xba7e5921	-0.00097026123
12	0xbdd9822d	-0.10620532
13	0x3e088fa3	0.13336043
14	0x3db00c3b	0.08596083
15	0x3db3cf74	0.08779803
16	0xbdaa5e9a	-0.08318825
17	0x3ddfa6e0	0.10920501
18	0x3bf39010	0.007432945
19	0xbd523117	-0.051316347
20	0xbd8f7929	-0.07005531
21	0xbd2747f9	-0.040840123
22	0x3dd117d0	0.1020962
23	0x3c4dbd0e	0.012557281
24	0xbe04df6f	-0.12975858
25	0x3d0fbe66	0.035093687
26	0x3d84a667	0.06477051
27	0x0de160f4	1.3890036e-30
28	0x3d7cdc39	0.06173346
29	0xbdfeb192	-0.124362126
30	0xbaf300ed	-0.0018539705
31	0xbc1fb74d	-0.009748292
32	0xbddf7bf5	-0.10912315
33	0x3d2a9b12	0.041651793
34	0xbdde7b41	-0.108633526
35	0x3c06b070	0.008220777
36	0xbd91dfe6	-0.07122783
37	0xbe13a056	-0.14416632
38	0x3dc04e88	0.09389979
39	0x3c9b5f3e	0.018966313
40	0x2a9d87c0	2.7982998e-13
41	0x3b50e04c	0.0031871973
42	0xbe032ece	-0.12810823
43	0xbdb4a79a	-0.0882103
44	0x3d80ba5b	0.062855445
45	0xbdbdd707	-0.09269529
46	0xbe317ea9	-0.17333473
47	0x3dc23d27	0.0948432
48	0xbc8a5487	-0.016886009
49	0xbdd64d12	-0.10463919
50	0xbcfed96b	-0.031109532
51	0xbd94bcba	-0.07262559
52	0xbcdb1f53	-0.026748335
53	0xbd9b4b7d	-0.075827576
54	0x3d2e4623	0.042547356
55	0xbd0c6e75	-0.034285028
56	0xbd6bce91	-0.057570044
57	0xba10788d	-0.00055111275
58	0xbd89e634	-0.06733361
59	0x3d8db2ec	0.06918892
60	0xadc682a4	-2.256801e-11
61	0x3e098039	0.1342782
62	0x3de90033	0.11376991
63	0xbdc53d82	-0.09630872
64	0xbad24154	-0.0016041198
65	0x3dc7772b	0.09739526
66	0xbca4b8d3	-0.020107662
67	0x3d402914	0.046914175
68	0x3e24f3ed	0.16108675
69	0x3dc5e025	0.09661893
70	0x3d234c8d	0.039867926
71	0x3dfc4d7e	0.12319468
72	0xbbccc8f0	-0.0062495396
73	0x9211f4ac	-4.6055514e-28
74	0xbe42de36	-0.19030079
75	0x3d68d2d3	0.056841683
76	0x3d363a0f	0.044488963
77	0x3cf648b3	0.030063963
78	0x3e11ae16	0.14226565
79	0xbc8f3c52	-0.017484818
80	0xbe0265f7	-0.12734209
81	0x3e1de36e	0.15418789
82	0xbddf31e3	-0.10898187
83	0x3e1ed1fb	0.15509789
84	0x3a2f9e03	0.0006699266
85	0x3da7a0a0	0.08184934
86	0xbdce4ba9	-0.10073025
87	0x3d32fe0e	0.043699317
88	0xbe036324	-0.12830788
89	0x3db7f1cd	0.08981667
90	0x3e26e291	0.16297366
91	0x9f48385f	-4.2398276e-20
92	0xba662d27	-0.0008780532
93	0xbde53e8b	-0.1119357
94	0x3cafcd8d	0.021460319
95	0x3d536382	0.05160857
96	0xbca787c8	-0.020450488
97	0xbd62c116	-0.055359922
98	0xbcfd8b9e	-0.030950364
99	0xbbb3f465	-0.0054917806
100	0x3cea6412	0.02861217
101	0x3bb5e849	0.005551372
102	0xbcf34550	-0.029696137
103	0x3dfc7bfa	0.12328334
104	0x1278b7f5	7.8481746e-28
105	0x3d9d4b64	0.07680395
106	0xbe2e6790	-0.17031693
107	0xbd5ce0eb	-0.053925436
108	0x3d991689	0.07475001
109	0xbe09c3af	-0.13453554
110	0xbe0f9c1d	-0.14024396
111	0x3e083ef5	0.13305266
112	0x3ca6f5e0	0.020380914
113	0x3d8c32f5	0.06845657
114	0x3d8710c9	0.065949984
115	0xbce1a7df	-0.027545867
116	0x3de8e041	0.11370898
117	0xbd967585	-0.07346634
118	0x3e299963	0.16562419
119	0xbb97e0c1	-0.004634947
120	0x3e2d1666	0.16903076
121	0x3b4b9935	0.003106666
122	0x3d3f62fe	0.046725266
123	0xbe06f27e	-0.13178441
124	0xbdcf057c	-0.10108468
125	0xbc41b36b	-0.011822562
126	0xbe0c1d04	-0.13682944
127	0xbd1ed0ae	-0.03877323
128	0x3de34791	0.110976346
129	0xbca01ae3	-0.01954407
130	0x3d61d11d	0.055131067
131	0x3d3c14d8	0.045918316
132	0xbd40facd	-0.047114182
133	0x3d005211	0.031328265
134	0xbd48547a	-0.048908688
135	0xbd9c88b2	-0.0764326
136	0x3ddcc880	0.1078043
137	0xac66b179	-3.2783483e-12
138	0xbd9231dd	-0.07138417
139	0x3e34b8c5	0.17648609
140	0xbda0f355	-0.07858912
141	0xbded03c5	-0.115729846
142	0xbe105c0e	-0.14097616
143	0xbcfb5561	-0.03068036
144	0x3e1b7683	0.15181927
145	0x3db38174	0.087649256
146	0x3c302ed4	0.010753352
147	0xbc82d280	-0.015969515
148	0x3d4413cf	0.047870453
149	0x3ce36484	0.02775789
150	0x3b1b19b2	0.0023666439
151	0x3de757d0	0.11296046
152	0xbd7a95d4	-0.061178043
153	0xbd508600	-0.050909042
154	0xbe23397c	-0.15939897
155	0x102b370b	3.3766207e-29
156	0x3c75a61e	0.014993219
157	0x3df6c217	0.120487384
158	0x3da342be	0.079717144
159	0xbdd027ae	-0.10163818
160	0x3c4f2980	0.012644172
161	0xbd6923a7	-0.056918766
162	0xbe1b6c62	-0.15178064
163	0xbdbdd995	-0.09270016
164	0xbe05705a	-0.1303114
165	0x3e1e978c	0.15487498
166	0x3b721168	0.0036936644
167	0xbe2e5fee	-0.17028782
168	0x13a28c5a	4.1032947e-27
169	0xbe25d26e	-0.16193554
170	0x3db7901e	0.08963035
171	0x3d8d44f1	0.06897915
172	0x3dee38d3	0.11631932
173	0x3e07d161	0.13263465
174	0x3d9c8796	0.076430485
175	0xbdb1dbce	-0.086845025
176	0xbdf2f7a1	-0.11863638
177	0x3d63d068	0.055618674
178	0x3d13067c	0.035894856
179	0x3cdcc0d6	0.02694742
180	0xbe52920f	-0.2056353
181	0x3df6a553	0.12043252
182	0x3a2df7b5	0.00066363375
183	0x3de596ff	0.11210441
184	0xbd843929	-0.06456215
185	0x13e82218	5.8598653e-27
186	0x3bb84d90	0.0056244805
187	0x3dc5fadb	0.096669875
188	0x3d1a8504	0.03772451
189	0x3d2b26c6	0.041785024
190	0x3cb7d2d3	0.022439396
191	0x3cbd960d	0.023142839
192	0x3ddde05d	0.108338095
193	0xbd07689e	-0.033058755
194	0x3db67b66	0.08910255
195	0x3dd63f8b	0.104613386
196	0xbe273569	-0.16328968
197	0xbc6641d0	-0.014053777
198	0x3e13c098	0.14428937
199	0x3de10a6f	0.10988318
200	0xbd84e378	-0.06488699
201	0x8eb16248	-4.372851e-30
202	0x3e3a35fe	0.18184659
203	0x3d404650	0.046942055
204	0x3e21cb5a	0.15800229
205	0xbce17f48	-0.027526513
206	0xbe329802	-0.17440799
207	0xba9fb8f0	-0.0012185853
208	0x3cf9a924	0.03047616
209	0x3d81794a	0.06321962
210	0x3d46445b	0.048405033
211	0x3e2a1f09	0.16613401
212	0x3ae9866a	0.0017816548
213	0x3e190fcb	0.14947431
214	0xbd20e730	-0.039282978
215	0x3cd60496	0.026125234
216	0x3d83e863	0.064408086
217	0xbd1c090f	-0.038094576
218	0xbcad395f	-0.02114552
219	0x1e3b4e15	9.9158446e-21
220	0x3a813a22	0.0009859244
221	0x3e3d3c8d	0.1848013
222	0xbd81a81c	-0.063308924
223	0x3e3783b3	0.17921333
224	0x3ced45f5	0.028964022
225	0xbd5b274a	-0.053504266
226	0xbc5e57f3	-0.013570773
227	0x3d4118d9	0.047142837
228	0x3e61e132	0.22058561
229	0xbd90d48b	-0.07071789
230	0xbda064af	-0.07831704
231	0xbd151b64	-0.036403075
232	0x103ddb5e	3.7442672e-29
233	0x3e27064b	0.16310994
234	0xbcdc8931	-0.026920887
235	0x3dbf5d94	0.093440205
236	0xbc8902f7	-0.016725047
237	0x3dc41f1a	0.09576245
238	0xbd94e9aa	-0.072711304
239	0xbdd48307	-0.10376554
240	0xbe22a0bb	-0.15881626
241	0xbdfd63cc	-0.1237255
242	0x3dafbc0f	0.08580791
243	0x3d6bc9bd	0.05756544
244	0xbde402b1	-0.11133326
245	0xbd2fca22	-0.04291738
246	0xbd2fdd7a	-0.042935826
247	0xbe27bc8c	-0.16380519
248	0xbe0e0401	-0.13868715
249	0x2106c1dc	4.5657537e-19
250	0x3dc72975	0.09724704
251	0x3dc2b0db	0.09506389
252	0x33ac5fde	8.026812e-08
253	0xbe002168	-0.12512743
254	0x3ddbc4e3	0.107309125
255	0x3c5107d1	0.012758211

bias f4 [32]
0	0x3de48b25	0.11159352
1	0x3d04f973	0.032464456
2	0x3dcc394f	0.09971868
3	0x3ddf9c1d	0.10918448
4	0x3e00c7c8	0.1257621
5	0xbdc91c55	-0.09819857
6	0x3d99f9ec	0.07518372
7	0xbdb1fde7	-0.08691006
8	0x3d775aed	0.060389448
9	0xa79b8ac3	-4.317159e-15
10	0xb9ca1586	-0.0003854448
11	0x3d7ada34	0.06124325
12	0x3d121aa5	0.03566994
13	0x3ca150f1	0.019691916
14	0xbd16b4e4	-0.036793604
15	0xbdd393a3	-0.10330894
16	0xbbe7bee1	-0.007072315
17	0xbdd1f414	-0.10251632
18	0xbd6411ab	-0.055680912
19	0xbd7a6465	-0.0611309
20	0x3d071862	0.032982238
21	0x3e01c5c4	0.12673098
22	0xbc28ca0c	-0.010302078
23	0x3d9c796f	0.07640349
24	0x3d8a8dbd	0.06765316
25	0xa49d96ee	-6.834358e-17
26	0x3d027036	0.031845294
27	0x3d5fa821	0.0546037
28	0xbd832f59	-0.06405515
29	0xbde112b4	-0.109898955
30	0xa233fd28	-2.4393043e-18
31	0xbdcc04ff	-0.099618904

weight f4 [10, 32]
0	0xbd0193bb	-0.031635027
1	0xbe407fb8	-0.18798721
2	0x3df8b4a3	0.12143829
3	0x3e013e3c	0.12621397
4	0xbe0a137d	-0.13483997
5	0xbe3d251f	-0.18471192
6	0x3d3f71f7	0.046739545
7	0x3e0b4532	0.13600615
8	0xbe6f1a18	-0.23349798
9	0x31022f87	1.8944506e-09
10	0x39152f62	0.00014227399
11	0x3dd7fd8b	0.10546406
12	0xbe553e97	-0.20824657
13	0xbdc9a475	-0.09845821
14	0x3e188e71	0.14898087
15	0x3d982f20	0.074308634
16	0xbde6df17	-0.1127302
17	0x3ca7a4d4	0.020464338
18	0xbe433d56	-0.19066367
19	0xbe1dc180	-0.15405846
20	0xbd1c8fda	-0.038223125
21	0x3e1427ac	0.14468259
22	0x3cbb0815	0.022831002
23	0xbe2391fb	-0.15973656
24	0x3dc1084e	0.09425412
25	0xb314b5cd	-3.4624282e-08
26	0xbcca96b3	-0.024730062
27	0x3e513a13	0.2043231
28	0xbdde2b33	-0.10848083
29	0xb9b4f209	-0.00034512606
30	0x19b8976d	1.9086314e-23
31	0x3d9b4973	0.07582369
32	0xbe5513dd	-0.20808358
33	0xbe24af55	-0.16082509
34	0x3cf94940	0.030430436
35	0x3e77aa87	0.24186145
36	0x3d7e4d7c	0.062085614
37	0x3b86256f	0.004093818
38	0x3df99106	0.12185864
39	0xbe3fa5d7	-0.18715607
40	0x3e7434b2	0.23848227
41	0xa76b1f70	-3.2629844e-15
42	0xba119084	-0.00055528455
43	0xbd487978	-0.048943967
44	0x3ddf3589	0.10898883
45	0x3d607ccc	0.054806516
46	0xbc4c27d4	-0.012460668
47	0x3d646911	0.05576426
48	0x3d21f352	0.03953869
49	0xbe6b98c2	-0.23007491
50	0xbe0bee87	-0.1366521
51	0xbd879645	-0.066204585
52	0xbe0185dc	-0.1264872
53	0xbde980d2	-0.11401524
54	0xbe4b2fe1	-0.19842483
55	0x3ddea628	0.108715355
56	0xbdcc2bb9	-0.09969277
57	0x2d9878b5	1.7334004e-11
58	0xbe180447	-0.14845382
59	0x3c27fbbd	0.01025289
60	0x3c735334	0.01485138
61	0xbe5fe727	-0.21865521
62	0x1047150e	3.926205e-29
63	0x3d563d59	0.0523046
64	0xbd96df94	-0.07366863
65	0xbe161626	-0.14656886
66	0x3e53cb30	0.20682979
67	0x3e0483d8	0.1294092
68	0x3d3e53ca	0.046466626
69	0xbc4714b9	-0.012150937
70	0x3cd65c6c	0.026167117
71	0xbe1f974d	-0.1558506
72	0xbdd0fe84	-0.10204795
73	0x210e0d7c	4.812932e-19
74	0x39992b0d	0.0002921451
75	0x3dd7624e	0.10516797
76	0xbcc98dbf	-0.024603723
77	0xbe60f0d2	-0.21966866
78	0xbe19763a	-0.14986506
79	0x3d4add44	0.04952742
80	0xbd1a8d74	-0.037732556
81	0xbe5d07f0	-0.21585059
82	0xbe1df580	-0.15425682
83	0xbd1cd060	-0.03828466
84	0xbcc7e171	-0.024399491
85	0xbda5e8f5	-0.08101074
86	0x3e01deb0	0.12682605
87	0x3e525f66	0.20544204
88	0xbe622a4d	-0.22086449
89	0x208670b7	2.2775071e-19
90	0x3dd19515	0.10233513
91	0x3e1a44dd	0.15065332
92	0x3ba3fffe	0.005004882
93	0xbdc5a46e	-0.09650503
94	0x145b7e3a	1.1081568e-26
95	0xbe5047ca	-0.20339885
96	0x3d2616a4	0.040548936
97	0x3dcebce1	0.100946195
98	0xbe16118c	-0.14655131
99	0x3df55e8f	0.11980926
100	0x3e3c6841	0.18399145
101	0x3dc3158f	0.09525596
102	0x3db3b1f1	0.08774174
103	0x3cd68334	0.02618561
104	0xbd053187	-0.032517936
105	0x21b001c0	1.1926687e-18
106	0x3832c9b8	4.2626372e-05
107	0xbde878df	-0.11351179
108	0xbe9159cb	-0.2838882
109	0xbe4b5dc3	-0.19859986
110	0xbd207e01	-0.039182667
111	0xbe04e9fc	-0.12979883
112	0xbe6c2079	-0.23059262
113	0xbe000518	-0.12501943
114	0xbd23cf19	-0.039992426
115	0x3e1be66e	0.1522462
116	0x3de23965	0.110461034
117	0x3cec5461	0.028848829
118	0x3d17f8df	0.037102576
119	0x3dd7d7b9	0.10539193
120	0xbe767016	-0.24066195
121	0x26936603	1.0227824e-15
122	0xbca529f5	-0.020161608
123	0xbe505f93	-0.20348959
124	0x3dc9aa32	0.09846915
125	0x3ce8ec3d	0.02843296
126	0x2df6cc2f	2.8057638e-11
127	0x3e0351dd	0.12824197
128	0xbd4b1282	-0.049578197
129	0x3dcd0cab	0.10012182
130	0xbdb28f87	-0.08718782
131	0x3da1a699	0.07893104
132	0xbe04f444	-0.12983805
133	0x3d9d9f5e	0.076964125
134	0xbe02a443	-0.12757973
135	0xbd846409	-0.06464393
136	0xbcd637a5	-0.02614958
137	0x1c549f10	7.03505e-22
138	0x3ab0f259	0.001349996
139	0xbd9c1a54	-0.07622209
140	0xbd14d9fa	-0.03634069
141	0xbe09ba37	-0.13449942
142	0x3e1b4ef6	0.1516684
143	0xbe8ae8a2	-0.2713061
144	0xbd005c03	-0.03133775
145	0xbd820b86	-0.06349854
146	0xbd9888e9	-0.074479885
147	0xbe0063b2	-0.1253803
148	0xbe9f2aab	-0.3108724
149	0xbe3b38bd	-0.18283363
150	0xbe89c7e9	-0.26910332
151	0x3e2b2089	0.1671163
152	0x3e5aa612	0.21352413
153	0xae538c1a	-4.810028e-11
154	0xbe08ca1d	-0.1335835
155	0xbdc46289	-0.095891066
156	0x3dc28ca9	0.09499485
157	0xbe2a11ac	-0.16608304
158	0xb22854b5	-9.798147e-09
159	0xbdc678bd	-0.09690998
160	0x3e4e6986	0.20157441
161	0x3e3200b1	0.17383076
162	0xbd527abc	-0.05138658
163	0x3ccd20d3	0.025040066
164	0xbe26b007	-0.16278087
165	0xbe10bbb3	-0.14134102
166	0xbe446d75	-0.1918238
167	0xbdf6e1de	-0.120547995
168	0x3e10f935	0.14157565
169	0xa220e94d	-2.1807552e-18
170	0xba5d8605	-0.00084504514
171	0xbdd767fa	-0.10517879
172	0x3d1dfa7b	0.038568955
173	0x3e5fc6ee	0.2185323
174	0xbe2d6a69	-0.16935124
175	0xbdff4d28	-0.12465888
176	0xbe2eafc8	-0.17059243
177	0xbdea7c2c	-0.11449465
178	0x3d9a4e08	0.075344145
179	0x3cbc0813	0.022953069
180	0x3d525463	0.05135001
181	0xbdecfec4	-0.1157203
182	0xbb919089	-0.0044422788
183	0xbe8c0671	-0.27348664
184	0xbe5962e3	-0.21229129
185	0x2cd909c7	6.1685964e-12
186	0xbde4dd78	-0.11175054
187	0xbd739734	-0.05947037
188	0x3dd5558a	0.10416706
189	0xbe423992	-0.18967274
190	0x33fbf4f9	1.17326586e-07
191	0xbe85d0ea	-0.2613595
192	0xbc45ccfb	-0.012072797
193	0x3e522a31	0.20523907
194	0xbe01dc88	-0.12681782
195	0x3acf587a	0.0015819215
196	0xbe6f63a0	-0.23377848
197	0xbe6691c8	-0.22516549
198	0xbe4bce5a	-0.19902936
199	0x3c45f97b	0.012083407
200	0x3b43c25c	0.0029870486
201	0xb215b815	-8.714797e-09
202	0xbac5c82a	-0.0015089561
203	0xbe625d54	-0.22105914
204	0x3d64a08d	0.055817176
205	0xbe54b44c	-0.20771903
206	0xbcb7b62f	-0.02242574
207	0xbd3e695a	-0.04648719
208	0x3cf6679f	0.030078707
209	0xbe48c88c	-0.19607753
210	0xbe36f141	-0.17865469
211	0xbd93cd51	-0.07216895
212	0xbd898c24	-0.06716183
213	0xba6f89d4	-0.00091376645
214	0x3de7bbac	0.113150924
215	0x3d86b74d	0.065779306
216	0xbd826da3	-0.06368568
217	0x33a3ae35	7.621967e-08
218	0xbbf7ec6e	-0.0075660264
219	0x3c0916fb	0.008367295
220	0xbcbcb583	-0.02303577
221	0xbe246a48	-0.16056168
222	0x0f862ef2	1.3231503e-29
223	0x3d98b01c	0.07455465
224	0x3e4243cc	0.18971175
225	0xbe1af44e	-0.15132257
226	0xbe10bf97	-0.14135586
227	0xbdeac0b9	-0.1146254
228	0x3d020101	0.03173924
229	0x3e4b89a4	0.19876724
230	0xbda98ac2	-0.08278419
231	0xbe89cec6	-0.26915568
232	0x3cf2b7ed	0.029628718
233	0x282878cd	9.352068e-15
234	0x3b5e37a2	0.0033907671
235	0x3cff0b67	0.031133367
236	0xbe86589d	-0.26239482
237	0x3e0ccea3	0.137507
238	0x3e3cca10	0.18436456
239	0xbe3e7a64	-0.18601376
240	0xbe578be0	-0.21049452
241	0xbe9bba9d	-0.30415812
242	0x3d7c4b10	0.061595023
243	0xbcadd0b3	-0.02121768
244	0x3d6ce58d	0.057836104
245	0xba211277	-0.0006144414
246	0xbd84b182	-0.064791694
247	0x3e47acb4	0.19499475
248	0x3d3822d1	0.04495508
249	0xa41ba43c	-3.374938e-17
250	0xbe1172cf	-0.14203952
251	0xbe7aa4f1	-0.24476983
252	0xbe0e880b	-0.13919084
253	0x3d15333d	0.036425818
254	0x91d18a16	-3.3059488e-28
255	0x3d2867c5	0.041114587

bias f4 [10]
0	0x38119394	3.4708137e-05
1	0xb9414666	-0.0001843214
2	0xb6808f74	-3.8313974e-06
3	0x37510067	1.2457464e-05
4	0xb7c74bce	-2.3757948e-05
5	0xb7efc206	-2.858137e-05
6	0x37a60651	1.9791683e-05
7	0x383f1e59	4.5566212e-05
8	0xb8dbe939	-0.00010486175
9	0x3808a106	3.257489e-05
