Assignments/Assignment 4/results/classifier_mlp_M_256/classifier_mlp_M_256.model (torch, 97799 bytes, 10 tensors)

weight f4 [128, 64]
0	0x341044aa	1.3436025e-07
1	0x3d08bf91	0.033385817
2	0x3c444fe1	0.011981935
3	0xbd127d54	-0.035764053
4	0xbdc8400d	-0.09777842
5	0xbd78babd	-0.060724963
6	0xbe051504	-0.12996298
7	0x3bda5724	0.00666322
8	0xbd82fdbd	-0.06396053
9	0xbd7f9dae	-0.062406234
10	0x3e034c1d	0.12822004
11	0x3dd606da	0.104505256
12	0x3b753f2c	0.0037421687
13	0x3d6547d2	0.055976696
14	0xbcaf5b8c	-0.021405958
15	0xbd6357d5	-0.055503685
16	0x3dacf18f	0.08444511
17	0x3d349da8	0.044095665
18	0xbda4637a	-0.08026786
19	0xbcefb580	-0.02926135
20	0x3dfff30f	0.124975316
21	0xbdcce495	-0.10004536
22	0x3df3fc9a	0.11913414
23	0x3dba0b2a	0.090841606
24	0xbcc7ddd0	-0.02439776
25	0xbe027138	-0.12738502
26	0xbe31eca6	-0.1737543
27	0x3c802012	0.015640292
28	0xbc3b6079	-0.011436575
29	0x3dfebe0d	0.12438593
30	0xbd3be81c	-0.045875654
31	0xbc4b9d45	-0.012427633
32	0x22829acc	3.540047e-18
33	0xbe1e5b98	-0.15464628
34	0x3c187ac5	0.009306614
35	0xbded833e	-0.11597298
36	0x3d962b56	0.073324844
37	0xbdb2ff05	-0.08740047
38	0xbe61ff52	-0.22070053
39	0x3692dce5	4.3768546e-06
40	0xbc076a51	-0.008265094
41	0xbd3cbc21	-0.04607785
42	0x3d2d6c1f	0.04233944
43	0x3da43d94	0.080195576
44	0x3c63a821	0.0138950655
45	0xbdd5bb37	-0.10436099
46	0x3dcd0952	0.10011543
47	0xbc615097	-0.013752124
48	0x3bb9f6bc	0.005675165
49	0xbdd8a6cc	-0.10578689
50	0x3c041320	0.0080612
51	0x3e1c4195	0.15259393
52	0x3d71f157	0.05906805
53	0x3dd867a9	0.105666466
54	0x3dfa34c5	0.12217096
55	0xbda0ee50	-0.078579545
56	0x3d4eab59	0.05045638
57	0xbd05b3d9	-0.03264222
58	0x3db13bfe	0.08654021
59	0xbbcb3324	-0.006201165
60	0x3dcb600e	0.0993043
61	0xbdb33252	-0.08749832
62	0xbaa6a6c7	-0.0012714498
63	0xbda50ff4	-0.080596834
64	0x27e4b360	6.347719e-15
65	0xbc3c2d4e	-0.011485411
66	0x3c85799d	0.016293341
67	0x3bc73c08	0.0060801543
68	0xbc57785c	-0.0131512545
69	0xbba3c4ae	-0.0049978113
70	0xbce51348	-0.027963296
71	0xb9e41ccd	-0.00043509007
72	0x20e74a85	3.9182235e-19
73	0xb9833b50	-0.00025030458
74	0x3c864f78	0.016395316
75	0x3a0a9686	0.0005286712
76	0x3bc83a87	0.0061104926
77	0xbc92f539	-0.017939197
78	0x3c3db8d4	0.011579711
79	0xbbeebd3b	-0.0072857416
80	0xb6776882	-3.68667e-06
81	0xb95c2afe	-0.00020996851
82	0xbb3e11e8	-0.0029002372
83	0xbcfea44e	-0.031084206
84	0x3a362673	0.00069484784
85	0xbd1c7360	-0.038195968
86	0x3d236553	0.039891552
87	0x3a84c09a	0.00101282
88	0x1f99ec70	6.5189173e-20
89	0xbcecddd8	-0.028914377
90	0xbd2164cd	-0.03940277
91	0x3c0fbc44	0.008772913
92	0x3c7dbeae	0.015487356
93	0xbc6e00a3	-0.014526519
94	0xbc24e532	-0.01006441
95	0xbc6e8e55	-0.014560302
96	0xb60907b0	-2.0419066e-06
97	0x3d0411b6	0.032243453
98	0x3cfdc9f2	0.030980084
99	0x3aee3700	0.001817435
100	0xbb888d17	-0.00416721
101	0x3cc138f0	0.02358672
102	0x3cb5779a	0.022151757
103	0xb5efaa7e	-1.7856507e-06
104	0xbccd935e	-0.025094684
105	0x3d12c6b9	0.035834048
106	0x3d3059fe	0.043054573
107	0xbcf01611	-0.029307397
108	0xbd2c4339	-0.042056296
109	0x3a99b336	0.0011726383
110	0x3ce19b4c	0.027539872
111	0x23a02fcd	1.736748e-17
112	0xbc89a029	-0.016800003
113	0x3cc7ab4b	0.024373671
114	0x3cbd55f6	0.023112278
115	0xbcdea02e	-0.027175989
116	0x3ba57e9c	0.0050504934
117	0x3c925b24	0.017865725
118	0xbca3c83d	-0.019992942
119	0xbc6700d0	-0.014099315
120	0xa0489544	-1.6990047e-19
121	0x3d013cf9	0.03155229
122	0x3c7d2f90	0.015453234
123	0x3d0169f4	0.031595185
124	0xbca25d11	-0.019819768
125	0xbc9187f7	-0.017765028
126	0xbcfe9919	-0.031078862
127	0xbc6dee5b	-0.01452216
128	0xa105b7ff	-4.530567e-19
129	0xbb649124	-0.003487655
130	0xbdfafded	-0.12255464
131	0xbd0efbce	-0.03490811
132	0x3ccfae59	0.02535169
133	0x3d57cca3	0.05268539
134	0x3da50d7f	0.08059215
135	0x3d2a353a	0.041554667
136	0xae52a50e	-4.789507e-11
137	0xbc4bf20c	-0.012447845
138	0x3d3dd240	0.04634309
139	0x3dbbd2c8	0.09171063
140	0xbca4fbdc	-0.020139627
141	0x3dfc3a1b	0.1231577
142	0x3d91365d	0.07090447
143	0x3d593a67	0.053034212
144	0x265092f9	7.236368e-16
145	0xbcce4838	-0.025180921
146	0x3dfa4d98	0.12221831
147	0x3da038b4	0.07823315
148	0xbdb56f13	-0.08859076
149	0xbd848339	-0.06470341
150	0x3d6359a4	0.05550541
151	0xbdd5bf60	-0.104368925
152	0x2134a31f	6.120226e-19
153	0x3c08ba65	0.008345221
154	0xbcf7714f	-0.030205397
155	0xbdde0a17	-0.10841768
156	0xbdf62c64	-0.120201856
157	0x3dde2340	0.10846567
158	0x3d71a85a	0.058998443
159	0xbd738155	-0.059449513
160	0x2ab3d043	3.1941298e-13
161	0xbdc8031d	-0.09766219
162	0x3c6ac31a	0.014328742
163	0xbd72c804	-0.05927278
164	0xbc195a89	-0.009359964
165	0xbd2db92a	-0.042412914
166	0xbd39f6d9	-0.045401428
167	0xac98e6e8	-4.3457356e-12
168	0xa88a238a	-1.533649e-14
169	0xbcad12c5	-0.021127114
170	0xbdfd945b	-0.12381812
171	0xbd9b8835	-0.07594339
172	0x3ce79f50	0.028274208
173	0xbda8c0c5	-0.08239893
174	0xbe03ad4f	-0.1285908
175	0x2d335e8b	1.0195965e-11
176	0xae38b87a	-4.2000604e-11
177	0xbda8f0fd	-0.0824909
178	0xbdc54354	-0.096319824
179	0xbdc7f778	-0.09763998
180	0xbcd60038	-0.026123151
181	0xba931d0a	-0.0011223864
182	0xbd20d319	-0.03926382
183	0xb604d07b	-1.9790884e-06
184	0x2f2f379a	1.5935911e-10
185	0xbd808ef8	-0.06277269
186	0xbda1cc6d	-0.07900319
187	0xbcf4e0eb	-0.029892405
188	0x3ded4f62	0.11587407
189	0xbe02163f	-0.12703799
190	0xbc2d7264	-0.010586355
191	0x343492ef	1.681726e-07
192	0xa0a6ce47	-2.8257997e-19
193	0x3d5ffc86	0.054684184
194	0x3daedc6b	0.08538135
195	0x3da1d8fa	0.07902713
196	0x3c14d509	0.009083995
197	0xbd1b65d6	-0.037938915
198	0xbd101af5	-0.03518196
199	0x3cb5d6da	0.022197176
200	0xbca05cc0	-0.019575477
201	0xbd926cab	-0.07149633
202	0x3de1131c	0.10989973
203	0x3e07afe6	0.13250694
204	0xbd4b49da	-0.049630977
205	0xbd4c7e87	-0.049925353
206	0x3dd4b7f8	0.10386652
207	0xbd92170c	-0.07133302
208	0x3cfb6be2	0.030691091
209	0xbca38041	-0.019958617
210	0x3e07b2df	0.13251828
211	0xbde59796	-0.11210553
212	0xbe327b3f	-0.17429827
213	0x3d23a2ac	0.039950058
214	0x3db610f1	0.0888995
215	0xbd3c0ce7	-0.045910742
216	0x3e001ac0	0.12510204
217	0x3dfd9673	0.123822115
218	0x3dcf790a	0.10130508
219	0xbd6ae40b	-0.057346385
220	0x3c6acba2	0.014330776
221	0xbd3cdb90	-0.04610783
222	0x3d2f39b9	0.042779658
223	0xbdddd4ec	-0.10831627
224	0x3622fe91	2.4288058e-06
225	0x3ca951b7	0.020668847
226	0x3e1ef1e5	0.15521963
227	0x3d8e9375	0.06961719
228	0x3d166655	0.036718685
229	0x3d014615	0.031560976
230	0xbc6b453c	-0.0143597685
231	0xb380f3e2	-6.0048265e-08
232	0x3cf9ca36	0.03049193
233	0x3d39700f	0.045272883
234	0x3de65d42	0.11248256
235	0x3b092d5d	0.002093158
236	0xbbec466e	-0.0072105443
237	0x3dc667bf	0.09687757
238	0x3d8e298e	0.0694152
239	0x3dc27335	0.0949463
240	0xbdf634f9	-0.120218225
241	0x3bc392de	0.0059684357
242	0x3c23a579	0.009988182
243	0x3db74588	0.08948809
244	0x3d79c8ba	0.060982443
245	0x3d85a924	0.06526402
246	0x3d807204	0.06271747
247	0x3c8f5451	0.01749626
248	0xbd5e4cbe	-0.054272406
249	0x3e0fa780	0.1402874
250	0x3e02a66f	0.12758802
251	0x3cce968b	0.025218269
252	0xbcfed522	-0.031107489
253	0xbdec41d7	-0.115359955
254	0xbd8c9e77	-0.06866162
255	0x3d037082	0.032089718

bias f4 [128]
0	0x3ce0f321	0.027459683
1	0x3b09d3ec	0.0021030856
2	0xbcfbae52	-0.03072277
3	0xbdd4786b	-0.103745304
4	0xbd9cc89d	-0.076554514
5	0x3bf64594	0.0075156186
6	0xbd2ceed5	-0.042219955
7	0xbd604aba	-0.054758765
8	0x3e1b7748	0.15182221
9	0xbd0e6190	-0.03476101
10	0xbd405706	-0.046957992
11	0x3de3bb90	0.11119759
12	0x3b8a669e	0.0042236587
13	0x3c8a81c6	0.016907584
14	0xbd2475ce	-0.04015141
15	0x3daa9fbd	0.08331249
16	0x3e1b81ee	0.15186283
17	0x3bcd836e	0.006271771
18	0x311d121e	2.2856805e-09
19	0x3ca0665c	0.019580059
20	0xbab45bbe	-0.0013760251
21	0xbd465187	-0.048417594
22	0xbd6a7dcc	-0.057248875
23	0x3dbd36f6	0.092389986
24	0x3d6a3631	0.057180587
25	0xbd32e625	-0.043676514
26	0xbd5e0507	-0.054204013
27	0x3ddcc5a2	0.10779883
28	0x3c86a090	0.016433984
29	0x3e0a963c	0.13533872
30	0xbcb4c95c	-0.022068672
31	0xbd61cbcc	-0.055125996
32	0x3c851328	0.016244486
33	0xbdce6952	-0.10078682
34	0x3e3401b2	0.17578772
35	0x3cb6f4b0	0.022333473
36	0x3d70f073	0.05882306
37	0xbda7e3f4	-0.081977755
38	0x3b2f12a5	0.0026713994
39	0x3e37496d	0.17899103
40	0x3d81c2e3	0.06336
41	0x3e19ee0f	0.15032218
42	0x3da13ff9	0.0787353
43	0xbd753195	-0.05986174
44	0x3dcbe994	0.09956661
45	0x3d749e8e	0.059721522
46	0xbcf0dd38	-0.02940236
47	0xbd502d9b	-0.050824743
48	0x3da282ba	0.0793509
49	0x3cc6dd54	0.02427546
50	0x3de02301	0.109441765
51	0xbd34e701	-0.044165615
52	0x3dda66d0	0.10664141
53	0xbc855528	-0.016275957
54	0xbd9c6559	-0.07636518
55	0xbda7a8b3	-0.08186474
56	0x3e0343ea	0.12818876
57	0x3df9d372	0.12198533
58	0xbd9ae9f7	-0.075641565
59	0x3d84c041	0.06481982
60	0xbdca8496	-0.0988857
61	0xbd39562e	-0.045248203
62	0xbdaccc25	-0.08437375
63	0x3c57e110	0.013176218
64	0x3e04eadf	0.12980221
65	0x3de38021	0.11108423
66	0xbd99f37d	-0.07517145
67	0x3cc8d694	0.024516381
68	0x3da75de3	0.08172204
69	0x3d1f0f49	0.038832936
70	0x3e04c0a4	0.12964112
71	0x3c30bbc8	0.010786958
72	0x3d7043d7	0.058658447
73	0xbd86f716	-0.06590097
74	0xbcd5cf0a	-0.0260997
75	0x3dd1255c	0.10212204
76	0x3d08374a	0.033255853
77	0xbcaa9e41	-0.020827414
78	0xbbede29b	-0.0072596795
79	0x3c365c53	0.01113041
80	0x3ca16629	0.019702034
81	0x3de14abb	0.11000582
82	0xbd424bf5	-0.04743572
83	0x3d70ab96	0.058757387
84	0x3dea6c25	0.11446408
85	0xbdc7b050	-0.09750426
86	0x3d45fc17	0.048336115
87	0xbda66fe6	-0.08126812
88	0x3d82f483	0.06394293
89	0x3de8e5c7	0.113719516
90	0x3d938be3	0.07204416
91	0xbdfdb675	-0.123883165
92	0x3d35afed	0.04435723
93	0xbbd8be4b	-0.0066144816
94	0x3ca38be2	0.019964162
95	0x3e08b919	0.13351859
96	0x3dc8a449	0.0979696
97	0x3d652381	0.055942062
98	0x3cec1bc7	0.028821839
99	0xbd29eab4	-0.041483596
100	0xbd8a09dd	-0.067401625
101	0x3c917bfa	0.017759312
102	0xbc0265cd	-0.0079588415
103	0xbd665cb9	-0.05624077
104	0xbdcb2dd4	-0.099208504
105	0x3da525da	0.0806386
106	0x3dbf0e30	0.09328878
107	0x3d84510f	0.06460773
108	0x2f360041	1.6552894e-10
109	0x3de20a6b	0.11037143
110	0xbd320e5f	-0.043470737
111	0xbde16eec	-0.11007485
112	0xbd2c48a3	-0.04206146
113	0x3cf7cf1a	0.03025012
114	0xbd85d5e3	-0.06534936
115	0xbd855118	-0.06509608
116	0x3d5f9ea0	0.054594636
117	0x3d8b2708	0.06794554
118	0xbd84e61d	-0.06489203
119	0xbd9745fe	-0.07386397
120	0x3d192428	0.037387997
121	0xbcdaffea	-0.026733357
122	0x3e0d44e8	0.13795817
123	0x3baeb0f8	0.005331155
124	0x3ce1abb6	0.027547698
125	0x3dd25ffd	0.102722146
126	0xbd8f4566	-0.069956586
127	0x3df88cf2	0.12136258

weight f4 [64, 128]
0	0x3e2fe177	0.17175852
1	0x3dba1f0e	0.090879545
2	0x399d3f96	0.0002999275
3	0x3c8b3c0c	0.016996406
4	0xbc446977	-0.011988035
5	0x3d4b45d5	0.049627144
6	0xba6efbf2	-0.0009116522
7	0x3d4dd75c	0.05025421
8	0xbda74acd	-0.08168564
9	0x3ddafde4	0.10692957
10	0xbd8b978f	-0.06816017
11	0x3d1aba96	0.0377756
12	0x3dfa1c6f	0.122124545
13	0xbd3dde91	-0.046354834
14	0x3d2ff3ff	0.042957302
15	0xbccbdd80	-0.024885893
16	0x3be3ca27	0.0069515887
17	0xbdd36875	-0.10322658
18	0xb1f3c7f5	-7.0949633e-09
19	0x3d0e4559	0.034734104
20	0x3c947fa2	0.018127266
21	0xbd149462	-0.03627432
22	0x3d9aaf8e	0.07553016
23	0xbd3b96c3	-0.045798074
24	0x3db97a41	0.09056521
25	0xbc89378a	-0.016750116
26	0xbcb079e7	-0.021542503
27	0xbdb7b625	-0.08970288
28	0xbdb19ae8	-0.08672124
29	0x3cfea60e	0.03108504
30	0xbd496fe3	-0.04917897
31	0x3d2cb026	0.042160176
32	0x3c3a27f4	0.011362065
33	0xbcd91eac	-0.026503883
34	0x3daa586d	0.08317647
35	0x3d1d1eab	0.038359325
36	0x3cd96651	0.026538046
37	0xbe07ad1b	-0.13249628
38	0x3d5d3e85	0.0540147
39	0xbca4a4b7	-0.020098073
40	0xbd97c00f	-0.07409679
41	0x3d98cdca	0.07461126
42	0xbd1b1456	-0.03786119
43	0x3c7ed81f	0.015554457
44	0x3d808aa4	0.062764436
45	0x3d7e331e	0.062060468
46	0x3d60cd69	0.054883394
47	0xbd06e417	-0.032932367
48	0x3aff4258	0.0019474728
49	0x3d878a55	0.066181816
50	0xbd1082cd	-0.03528099
51	0xbab06df0	-0.0013460498
52	0xbd796bdd	-0.060893882
53	0xbd25a4e4	-0.040440455
54	0xbdc5a875	-0.09651271
55	0x3da4df1e	0.08050369
56	0xbdb093a8	-0.08621913
57	0x3d925d55	0.07146708
58	0x3d8152e3	0.063146375
59	0x3d8c08d6	0.06837623
60	0xbe08819f	-0.13330697
61	0x3c713170	0.0147212595
62	0x3d733df0	0.05938524
63	0x3d9e8632	0.077404395
64	0x3d3474ed	0.04405682
65	0xbd89c5b7	-0.06727164
66	0x3e095443	0.1341105
67	0x3d80c974	0.06288424
68	0xbdb54ebc	-0.08852908
69	0x3d0141c7	0.03155687
70	0x3ba91e8d	0.0051611126
71	0xbd5a8525	-0.053349633
72	0x3d8861bf	0.066592686
73	0x3e01c11c	0.12671322
74	0x3dd472a1	0.10373426
75	0x3e0c253e	0.13686082
76	0xbd1be539	-0.0380604
77	0xbd583de6	-0.052793406
78	0xbdcd472e	-0.10023342
79	0xbd2248bc	-0.039620146
80	0xbc065c25	-0.00820068
81	0x3c92a288	0.017899767
82	0xbdfbfb29	-0.123037644
83	0xbd342159	-0.043977115
84	0xbd458ccd	-0.04822998
85	0x3d10c4f1	0.035344068
86	0x3d41a778	0.04727885
87	0xbd8b0ad5	-0.067891754
88	0xbd886369	-0.06659586
89	0x3dc6a860	0.09700084
90	0x3d28a0fd	0.041169155
91	0x3db32477	0.087471895
92	0x3d0b402b	0.033996742
93	0xbd15275a	-0.03641448
94	0x3d2f223a	0.04275725
95	0xbd8bbcc2	-0.06823112
96	0xbd0cac81	-0.0343442
97	0x3de36668	0.11103517
98	0x3cb87ef0	0.022521466
99	0x3d21f316	0.039538465
100	0xbc627afa	-0.013823265
101	0xb8c33fe2	-9.310224e-05
102	0x3da6b82b	0.08140596
103	0xbd72b36a	-0.059253134
104	0x3dcc564c	0.09977397
105	0xbcc4b74c	-0.024013184
106	0xbde7a59d	-0.11310885
107	0xbd1797f7	-0.03701016
108	0xa8966738	-1.669811e-14
109	0x3d42eab8	0.047587126
110	0xbd02f0ae	-0.03196781
111	0xbdacef4e	-0.08444081
112	0x3d92abb9	0.0716166
113	0xbe039f44	-0.12853724
114	0x3d65204c	0.055939004
115	0xbdaf9ee9	-0.085752316
116	0x3cc29a80	0.023755312
117	0xbb13da33	-0.0022560477
118	0xbda0ef4a	-0.07858141
119	0x3b4eedc9	0.0031574836
120	0xbd530077	-0.051514115
121	0x3d77690c	0.060402915
122	0x3d4bf3d1	0.04979307
123	0xbcea42bc	-0.028596275
124	0x3d24ece9	0.040264998
125	0x3dd61a17	0.10454195
126	0xbe16ca2b	-0.14725558
127	0xbd629bdd	-0.055324424
128	0x3d74d49a	0.059773065
129	0x3c9d82eb	0.019227466
130	0xbc512b23	-0.012766632
131	0x3cec99a7	0.02888186
132	0x3d10baf7	0.035334554
133	0x3c9b1de7	0.018935157
134	0x3d142a04	0.03617288
135	0x3d1dcd06	0.038525604
136	0xbd98cb3f	-0.07460641
137	0xbd5c6f5e	-0.053817146
138	0xbde88b3a	-0.1135468
139	0xbdaadfa4	-0.08343437
140	0x3de2244d	0.1104208
141	0x3c56c2e4	0.013107989
142	0x3d18cd44	0.03730513
143	0x3dee4e05	0.11635975
144	0x3e05921c	0.13044018
145	0x3ba5f9b8	0.005065169
146	0xb1a9b5f0	-4.9392312e-09
147	0xb91564cf	-0.00014247301
148	0x3e16e0d8	0.14734209
149	0x3dd06038	0.10174602
150	0xbbb22559	-0.005436581
151	0x3d51cbd1	0.051219765
152	0x3da98915	0.082780994
153	0xbdb6d0e6	-0.08926563
154	0xbd999c76	-0.07500546
155	0xbd84460f	-0.06458675
156	0x3d89d2ec	0.06729683
157	0x3a294b15	0.00064580265
158	0x3d2ad14b	0.041703504
159	0x3c5da04b	0.013526986
160	0xbc081c55	-0.008307536
161	0x3bb2dcae	0.005458436
162	0x3d1b54ce	0.037922673
163	0xbcef05e3	-0.029177612
164	0x3d909222	0.070591226
165	0xbcbe410f	-0.023224382
166	0xbc56e32d	-0.013115686
167	0xbd4eab9d	-0.050456632
168	0x3d90a190	0.070620656
169	0xbd847b84	-0.06468871
170	0x3ad412e0	0.0016179942
171	0x3d1c4466	0.038151167
172	0x3d7c53e1	0.06160343
173	0xb939936a	-0.00017697891
174	0x3cf14c14	0.029455222
175	0x3dc0e53e	0.094187245
176	0x3da2fc64	0.07958296
177	0xbc6678a3	-0.014066848
178	0xbc00c00b	-0.007858287
179	0x3d85b66b	0.06528934
180	0x3d21f168	0.039536864
181	0x3d89a647	0.06721168
182	0x3d996916	0.07490747
183	0x3df0ba4d	0.11754284
184	0x3b3bde84	0.0028666565
185	0x3ddb0956	0.1069514
186	0xbd0fb3da	-0.03508363
187	0xbd7526c1	-0.05985141
188	0x3dcb0d5b	0.09914657
189	0xbd2d0523	-0.042241227
190	0x3d6146e3	0.054999243
191	0x3d2de107	0.04245093
192	0x3d9af5c7	0.075664096
193	0x3dd6dd82	0.10491468
194	0xbd65fd74	-0.056149915
195	0xbd3bdb7e	-0.04586362
196	0x3d370804	0.04468538
197	0x3d528ab8	0.051401824
198	0x3af4b20f	0.0018668788
199	0x3c67c0e0	0.014145106
200	0xbb89cb52	-0.004205146
201	0x3d0cb196	0.034349047
202	0x3da4ccc8	0.080468714
203	0x3d4b85ac	0.049688026
204	0xbc665491	-0.014058248
205	0x3d5e670b	0.05429749
206	0x3bdd7a9e	0.006759002
207	0x3d7ac43f	0.06122231
208	0xbc89b216	-0.01680855
209	0x3b8749ee	0.004128686
210	0x3da4b63d	0.08042572
211	0x3d78040b	0.06055073
212	0xbd691fd8	-0.056915134
213	0x39d1c2ec	0.00040008815
214	0x3d41b071	0.04728741
215	0x3ce27f37	0.027648551
216	0xba4d8afb	-0.0007840839
217	0xbd00b051	-0.03141815
218	0xbcc7b70a	-0.024379272
219	0x3e0cab0d	0.13737126
220	0xbd11ecc9	-0.035626207
221	0xbd1da14f	-0.038483914
222	0xbc8cc68a	-0.017184515
223	0x3d5ce883	0.053932678
224	0xbd6599ce	-0.056054883
225	0x3d28897b	0.041146737
226	0x3c83c66e	0.01608583
227	0x3d2e673a	0.042578913
228	0xbdd790d6	-0.10525672
229	0x3d6b0d9f	0.057386037
230	0xbdaa019b	-0.083010875
231	0x3d2e82ef	0.042605337
232	0x3d7f9bf6	0.062404595
233	0x3db0bdc5	0.08629946
234	0xbe09e184	-0.13464934
235	0x3ce3f80b	0.027828237
236	0x32991659	1.7821707e-08
237	0x3cbf94af	0.023386328
238	0x3c257278	0.010098092
239	0x3d645ce2	0.055752642
240	0x3c9d5e4e	0.019210007
241	0xb920fca9	-0.00015352912
242	0xbcc6cfb8	-0.02426897
243	0x3ddbbe5f	0.1072967
244	0x3d1e8921	0.038704995
245	0x3dbeb15e	0.09311174
246	0x3bce16de	0.006289347
247	0xbda20897	-0.07911795
248	0xbded65aa	-0.115916565
249	0x3cecaca1	0.02889091
250	0x3cb1ccc8	0.021704093
251	0xbd993521	-0.07480837
252	0x3cd71c8f	0.026258735
253	0x3da72d1f	0.08162903
254	0xbd566b8f	-0.05234867
255	0x3c8315c7	0.016001595

bias f4 [64]
0	0x3ad6ea06	0.0016396649
1	0x3dec46d0	0.11536944
2	0x3bc65b03	0.00605333
3	0x3dcca7af	0.099929206
4	0x9ec1f42d	-2.0535659e-20
5	0x3d980be4	0.07424143
6	0xbd0fda21	-0.035120133
7	0x3d09ba4a	0.033624925
8	0xbd3e6d3e	-0.0464909
9	0x3df9317d	0.12167642
10	0xbd36339a	-0.044482805
11	0x3cafaf85	0.021445999
12	0xbd31feaf	-0.043455776
13	0x3d257c0c	0.040401503
14	0xbd3c0c7a	-0.045910336
15	0x3d8181cb	0.06323584
16	0x3dd3755c	0.10325119
17	0xbd55bb49	-0.052180562
18	0x3c43742f	0.011929556
19	0x3d3aada2	0.045575745
20	0xbaaaecd1	-0.0013040547
21	0xbd83a9ce	-0.06428872
22	0x3d65ef6f	0.056136545
23	0x3de13fbd	0.10998485
24	0x3d407bad	0.046992946
25	0x3d5d8fce	0.05409222
26	0xbbddb4d3	-0.0067659407
27	0x3c0fa37e	0.008767007
28	0xbda9859c	-0.08277437
29	0x3da01572	0.0781659
30	0xbd987532	-0.07444228
31	0x3d128dc0	0.035779715
32	0xbce6fe0a	-0.028197307
33	0x3d4570d3	0.0482033
34	0x3d02773b	0.03185199
35	0x3c95ed6e	0.018301692
36	0xbd6364f5	-0.055516202
37	0xbd89abf7	-0.06722253
38	0x3c018584	0.007905368
39	0xbda4a96a	-0.08040126
40	0xbd5dfa89	-0.054194007
41	0xbd776ea2	-0.060408242
42	0x3cf35afb	0.029706469
43	0xbd8b04be	-0.06788014
44	0x3c8af692	0.016963277
45	0x3d689034	0.056778148
46	0xbcbed0e5	-0.023292968
47	0xbcf3a7e1	-0.029743137
48	0x3d83cc2a	0.064354256
49	0x3ca7888f	0.020450858
50	0x3dfed464	0.12442854
51	0xbd194902	-0.03742314
52	0x3cd649fb	0.026158324
53	0x3d8011b8	0.062533796
54	0x3c34de37	0.011039308
55	0x3d631977	0.055444207
56	0x3d48535c	0.048907623
57	0x3dca58e9	0.098802395
58	0x3da085c2	0.07838012
59	0xbcbac8da	-0.022800852
60	0xbb162e4e	-0.0022915783
61	0xbc90e1f0	-0.01768586
62	0xbd0c4d9a	-0.034253694
63	0x3ca0aca5	0.019613573

weight f4 [64, 64]
0	0x3d5b3081	0.053513054
1	0x3bf6079f	0.0075082327
2	0x3d853c94	0.06505695
3	0xbdc32c07	-0.09529882
4	0xa0a375f1	-2.769132e-19
5	0x3d1f56c7	0.038901117
6	0x3ca76617	0.020434422
7	0xbe384f95	-0.17999108
8	0x3d89d59c	0.06730196
9	0xbdc8d315	-0.09805886
10	0xbd188b8d	-0.03724246
11	0x3da5feb0	0.081052184
12	0x3dbce887	0.092240386
13	0xbdb5e14a	-0.08880861
14	0x3dbd4433	0.092415236
15	0x3dd11a09	0.10210044
16	0x3c8bbd74	0.017058112
17	0xbd9d8f1c	-0.076933116
18	0x3e02e3ee	0.12782261
19	0xbe0e9182	-0.13922694
20	0xbe1b2cb3	-0.1515377
21	0xbd075177	-0.033036675
22	0x3dd7e91c	0.10542509
23	0x3d63fa89	0.05565885
24	0x3da0fcda	0.078607276
25	0x3d5c7556	0.053822838
26	0xbdf17d21	-0.117914446
27	0xbd95e8a7	-0.073197655
28	0xbe232da8	-0.15935385
29	0xbdc2c135	-0.095095076
30	0xbdfa362f	-0.12217366
31	0x3e3c36a5	0.1838022
32	0xbc429f60	-0.011878818
33	0x3d4eb271	0.050463144
34	0x3e26d576	0.16292366
35	0xbd96e313	-0.0736753
36	0x3e170f10	0.1475184
37	0x3d8be055	0.06829897
38	0x3dadd799	0.084883876
39	0xb90655b0	-0.00012811157
40	0xbd3ec284	-0.046572223
41	0x3e05cbf9	0.1306609
42	0x3e00e781	0.12588312
43	0xbca10d8b	-0.019659778
44	0x3d812a74	0.063069254
45	0xbe222635	-0.15834887
46	0x3d07e076	0.033173047
47	0xbdb2e255	-0.08734576
48	0x3dd10731	0.1020645
49	0x3d82895c	0.063738555
50	0x3d34f0ba	0.044174887
51	0xb9c03216	-0.0003665841
52	0xbd99eefc	-0.07516286
53	0x3d40f355	0.04710706
54	0x3e439167	0.19098435
55	0xbb0b1c7a	-0.002122669
56	0x3db0efd6	0.08639495
57	0x3d388d39	0.045056555
58	0xbcdfd39d	-0.027322585
59	0x3c81c50f	0.015841035
60	0x3b2f4f9f	0.0026750339
61	0x3e48baa6	0.1960245
62	0x3b475ff6	0.0030422187
63	0x3daa2b86	0.08309083
64	0x3e0d410b	0.13794343
65	0x3c05b62d	0.00816111
66	0xbd15d8c8	-0.03658369
67	0xbe3eab1e	-0.18619964
68	0x1ff2595e	1.0263883e-19
69	0x398ed884	0.00027245667
70	0xbc23006a	-0.009948829
71	0x3d634ec5	0.055495042
72	0x3d852505	0.065012015
73	0xbd7ef118	-0.062241644
74	0x3d33066a	0.04370729
75	0x3d9e4222	0.077274576
76	0x3e1e0f74	0.15435582
77	0xbd897ed1	-0.067136414
78	0xbc61d05a	-0.013782585
79	0x3dd67d77	0.10473149
80	0xbdac6851	-0.08418334
81	0xbd9dd395	-0.07706372
82	0xbba710ac	-0.005098423
83	0x3de50789	0.11183078
84	0xbdfcb08a	-0.1233836
85	0xbe089428	-0.13337767
86	0x3e16b15b	0.14716093
87	0x3dc7eb2f	0.097616546
88	0xbda3340f	-0.07968914
89	0x3e138288	0.14405262
90	0x3d520205	0.051271457
91	0x3d6b1ab2	0.057398506
92	0x3b1b2cec	0.0023677899
93	0xbdd9e3a4	-0.10639122
94	0xbd8ce273	-0.06879129
95	0xbd892843	-0.066971324
96	0xbcfa7853	-0.030574953
97	0x3dc6fdae	0.09716354
98	0x3e3d9ca5	0.18516786
99	0x3e135b52	0.14390305
100	0xbdf7f492	-0.12107195
101	0x3c9789ed	0.018498385
102	0x3d9f5891	0.077805646
103	0xbcab02f9	-0.02087544
104	0xbdc6589c	-0.0968487
105	0x3d1d25f8	0.038366288
106	0xbc8fece1	-0.017569007
107	0xbd2d3de7	-0.042295363
108	0x3dcf1b4b	0.101126276
109	0xbdb73efd	-0.08947561
110	0xbd92f9b6	-0.07176535
111	0x3c120d6e	0.008914335
112	0x3e0900d2	0.13379219
113	0x3d76466b	0.06012575
114	0x3dfd4e70	0.123684764
115	0xa16a08bf	-7.929386e-19
116	0x3dc36a28	0.09541732
117	0xbc22d61e	-0.009938745
118	0xbda50bea	-0.08058913
119	0xbc944cca	-0.018103022
120	0xbe1b964a	-0.1519405
121	0x3df261f2	0.11835088
122	0x3d87e9df	0.06636404
123	0xbc7ef14e	-0.015560461
124	0xbadcb06b	-0.0016837245
125	0x3dba1b1f	0.09087204
126	0x3c92f6d9	0.017939972
127	0xbe083f3f	-0.13305376
128	0xbd887074	-0.06662074
129	0xbdc1c326	-0.0946105
130	0x3dbaa4a5	0.09113435
131	0xbd05356f	-0.03252166
132	0x28866571	1.4920982e-14
133	0x3c88c3bc	0.016694896
134	0x9f494c29	-4.2626404e-20
135	0xbc5b33e5	-0.013379072
136	0x3ddd02ef	0.10791575
137	0xbd317a55	-0.043329556
138	0x3e557694	0.20846015
139	0x3dad66a0	0.0846684
140	0xbdb2df29	-0.08733971
141	0x3dc3c9a4	0.09559944
142	0x3cd43c32	0.02590761
143	0xbd3eeaab	-0.046610516
144	0x3cff0694	0.031131066
145	0x3d7eb613	0.06218536
146	0xbbda9f1a	-0.0066717984
147	0x3dbfba8c	0.09361753
148	0x3d0e9e26	0.03481879
149	0x3e027d36	0.12743077
150	0xbd8558bf	-0.065110676
151	0x3e120bee	0.14262363
152	0xbc2fd93d	-0.010732946
153	0x3e23e6dd	0.16006036
154	0x3d780046	0.060547136
155	0xbe0a669b	-0.13515703
156	0x3b708b7a	0.0036704228
157	0xbd97db04	-0.07414821
158	0xbd46cd70	-0.048535764
159	0x3d3a3eaf	0.045469936
160	0xbbb979c9	-0.00566027
161	0x3e1162b0	0.14197803
162	0xbd284c46	-0.041088365
163	0xbd79a550	-0.06094867
164	0xbd69e343	-0.0571015
165	0x3bd3355e	0.006445571
166	0x3da774d8	0.08176583
167	0xb1ec17d7	-6.8712143e-09
168	0xbd2fc45b	-0.04291187
169	0x3d3e90af	0.0465247
170	0xbd9d6ded	-0.07686982
171	0xbd7ede10	-0.062223494
172	0x3d88f0a9	0.06686527
173	0x3dbcffff	0.09228515
174	0x3d19d531	0.03755683
175	0xbd4f3508	-0.050587684
176	0x3c9a4d14	0.018835582
177	0xbce2cad9	-0.027684616
178	0x3b3082ce	0.0026933434
179	0xbcab5cf1	-0.020918341
180	0xbdbcc83e	-0.09217881
181	0xbcdfd975	-0.027325371
182	0x3e17421c	0.14771312
183	0x3dcd1ed0	0.10015643
184	0xbd8beb92	-0.06832041
185	0x3db26677	0.0871095
186	0xbd8870ab	-0.06662115
187	0xbdacb8a3	-0.08433654
188	0x39c9eac3	0.0003851262
189	0xbcc00918	-0.023441836
190	0x3e1a1bf8	0.15049732
191	0xbd8e16a4	-0.06937912
192	0x3cb60b1a	0.02222209
193	0xbd1169b5	-0.0355012
194	0x20095222	1.1631527e-19
195	0x3d8eddca	0.06975897
196	0xa809254b	-7.613114e-15
197	0xbd36858a	-0.044560947
198	0x3dc57974	0.09642306
199	0xbd51d5fa	-0.051229455
200	0xb3f59796	-1.1436275e-07
201	0x3d700dec	0.058607027
202	0xbe24aa67	-0.16080628
203	0xbdebc69b	-0.1151249
204	0xbdaefa65	-0.08543853
205	0x3e22041a	0.15821877
206	0x3cfb30c4	0.030662902
207	0x3d2e3eab	0.042540234
208	0x3bdaf3f2	0.0066819126
209	0xb089f6c3	-1.0038196e-09
210	0xbbdeae5e	-0.0067956885
211	0x3d5fab96	0.054606996
212	0x3dba05d1	0.09083141
213	0xbd7ed47d	-0.062214363
214	0x3bbe435f	0.005806371
215	0xbbaf255b	-0.0053450293
216	0xbdc69c7b	-0.09697815
217	0xbdda3ed0	-0.10656512
218	0xbd0a9fef	-0.03384393
219	0xbcd9a79b	-0.026569178
220	0x3df25685	0.118329085
221	0x3dc553c3	0.09635117
222	0x3cf2e4e5	0.029650161
223	0x3d9bbe99	0.07604713
224	0xbdd1d7d0	-0.10246241
225	0x3ddeb08e	0.10873519
226	0x3dba28d5	0.09089819
227	0x3d8eb680	0.06968403
228	0xbd778e02	-0.060438164
229	0x3d879984	0.06621078
230	0x3d299d3b	0.041409712
231	0xb888e5c7	-6.527785e-05
232	0x3d9ddabf	0.07707738
233	0x3c8468ea	0.016163308
234	0xbe07ef48	-0.13274872
235	0x3e579096	0.21051249
236	0xbd3802d7	-0.044924583
237	0x3cd576a2	0.026057545
238	0x3d17261a	0.03690157
239	0x3e2a1236	0.1660851
240	0xbd9541ab	-0.07287916
241	0x3dd7644d	0.10517178
242	0xbdb57d8f	-0.08861839
243	0x2560a878	1.9485982e-16
244	0x3e1ca08e	0.15295622
245	0x3d758c8d	0.059948493
246	0xbe112ea9	-0.14177956
247	0x3d86b02f	0.06576573
248	0xbd60f875	-0.054924447
249	0xbd3ab518	-0.04558286
250	0x3de78479	0.11304564
251	0x3e20f41f	0.15718125
252	0xbaccea8e	-0.0015633868
253	0xbda3fe4b	-0.08007487
254	0xbc6e3117	-0.014538071
255	0x3d94aed2	0.07259907

bias f4 [64]
0	0x3da51846	0.080612704
1	0x3d7cb6f9	0.061697934
2	0xbdd11aac	-0.102101654
3	0x3cacd31b	0.021096757
4	0x3bb9b9af	0.005667887
5	0xbde8a7d5	-0.113601364
6	0x3d63c0dd	0.05560385
7	0xbcb2cf7a	-0.021827448
8	0x9f5e17a5	-4.7029887e-20
9	0xbd8733c3	-0.0660167
10	0x3de94cc6	0.113915965
11	0xbd70ccdd	-0.058789123
12	0x3dcd203c	0.10015914
13	0x3c6df99e	0.014524845
14	0x3bf0e4a7	0.0073514762
15	0x3cd9b2a6	0.026574444
16	0x3dbe5847	0.09294181
17	0x3e010c14	0.12602264
18	0xbdefe0be	-0.11712788
19	0xbdacc352	-0.08435692
20	0x3c86f450	0.01647392
21	0xbde38714	-0.111097485
22	0x3cf797a3	0.030223673
23	0x3a82dc67	0.0009983898
24	0xbd07711d	-0.033066858
25	0x3d4f45f1	0.05060381
26	0xbdcba0c7	-0.09942775
27	0x3da3cc63	0.07997968
28	0xbcaf8dc2	-0.0214299
29	0xbd40a831	-0.0470354
30	0x3d98a8bc	0.074540585
31	0xbc05f603	-0.00817633
32	0x3e3cc3ec	0.18434113
33	0x3d7d5e4c	0.061857507
34	0xbdfb7f3f	-0.1228013
35	0xbd956066	-0.07293777
36	0x3df08562	0.11744191
37	0xbcbda687	-0.023150695
38	0xbd6b1851	-0.057396237
39	0xbc235f67	-0.009971476
40	0xbdc0b1fc	-0.09408948
41	0x3d26a866	0.04068794
42	0x3ce2197a	0.027600039
43	0xbc6f828e	-0.014618529
44	0x3db872d4	0.09006277
45	0xbd76d095	-0.060257513
46	0xbd6ed540	-0.05830884
47	0xbb8e391a	-0.004340303
48	0xbca30ab3	-0.019902563
49	0x3dd9e023	0.10638454
50	0x3df0fc01	0.11766816
51	0x3d8bc435	0.06824533
52	0xbbe73142	-0.0070554325
53	0xbd8cac8a	-0.06868847
54	0xbd2fcff3	-0.042922925
55	0xbba8435e	-0.005134984
56	0x3da43e0c	0.08019647
57	0x3e0f99a3	0.14023452
58	0xbc934707	-0.017978204
59	0xbd129525	-0.035786767
60	0x3dfd8544	0.12378934
61	0xbd2e2b6c	-0.04252188
62	0xbdcc8d7b	-0.09987923
63	0xbcf62d31	-0.030050846

weight f4 [32, 64]
0	0x3e152d1f	0.14567994
1	0x3d19e391	0.03757054
2	0xbc0fc378	-0.008774631
3	0xbc1c5ec2	-0.009544076
4	0x3e11cddc	0.14238685
5	0xbdcaaac8	-0.09895855
6	0xbbcc6693	-0.0062378137
7	0xbdce7656	-0.100811645
8	0x333133fb	4.12583e-08
9	0x3e275102	0.16339496
10	0x3c3876a0	0.011258751
11	0x3df18e75	0.1179475
12	0x3d624a86	0.055246852
13	0xbd86d92d	-0.06584392
14	0xbd0537cf	-0.032523926
15	0xbd701eea	-0.058623232
16	0xbda8f515	-0.08249871
17	0x3d147257	0.036241855
18	0xbe09c108	-0.13452542
19	0x3cfdff82	0.031005625
20	0xbd890252	-0.06689896
21	0x3c0f73ed	0.008755666
22	0x3c6cad1a	0.0144455675
23	0x3e07fd0e	0.13280126
24	0x3cabe924	0.020985194
25	0xbe22a259	-0.15882243
26	0x3dd95284	0.10611442
27	0xbcb7ab25	-0.022420475
28	0x3dff5dcc	0.12469062
29	0x3d89d5e0	0.067302465
30	0x3d1fda7c	0.039026722
31	0x3dbb2844	0.091385394
32	0x3c86bb45	0.016446719
33	0xbcfcd5aa	-0.030863602
34	0xbbe02992	-0.006840893
35	0xbd96270a	-0.07331665
36	0x3e2fc4e9	0.17164959
37	0xbda38bf2	-0.07985677
38	0xbe205804	-0.15658575
39	0xbd5b94ff	-0.05360889
40	0xbc8e5c06	-0.017377865
41	0x3df72b0b	0.12068757
42	0xbd1a6b04	-0.037699714
43	0xbdbda188	-0.09259325
44	0xbd150a00	-0.03638649
45	0x3daa4218	0.08313388
46	0xbdb934cd	-0.09043274
47	0xbcdb5828	-0.026775435
48	0xbc8b9ddd	-0.017043049
49	0x3d8ede99	0.06976051
50	0x3cad9049	0.021186965
51	0x3dc17dc7	0.09447818
52	0xbc465d73	-0.012107241
53	0xbda6a1d1	-0.08136333
54	0xbcf16987	-0.029469265
55	0xbac96197	-0.0015364167
56	0xbd8d7d0f	-0.06908619
57	0x3e038f95	0.12847741
58	0xbd3b2cd0	-0.045697033
59	0xbdd83e78	-0.1055879
60	0xbdc5ab06	-0.09651761
61	0x3e0bfe66	0.13671264
62	0x3ddaf598	0.106913745
63	0xbdbb6f4d	-0.09152088
64	0xbc45d166	-0.01207385
65	0x3da998bb	0.08281084
66	0x3df1f5db	0.11814471
67	0xbcf02e94	-0.029319085
68	0x3d3ef3e2	0.046619304
69	0x3c076f8d	0.008266342
70	0xbd9e2c23	-0.07723262
71	0xbd8323ab	-0.064032875
72	0xa89812af	-1.6883493e-14
73	0xbd95398d	-0.072863676
74	0xbda15264	-0.07877043
75	0x3d48973d	0.048972357
76	0x3dcda22d	0.10040698
77	0x3d8e9ae4	0.06963137
78	0x3de32dd4	0.110927254
79	0xbca88781	-0.020572426
80	0xbca62011	-0.020278962
81	0xbc98719b	-0.018608859
82	0x3d7ffa16	0.06249436
83	0x3d1a6d77	0.03770205
84	0x3d781ee8	0.06057635
85	0x3dbb33ff	0.09140777
86	0xbdc6addd	-0.097011305
87	0x3de70288	0.1127978
88	0x3dc3a00e	0.095520124
89	0x3ae63618	0.0017563729
90	0x3dc55f86	0.0963736
91	0x3d2a262b	0.041540306
92	0xbca07c90	-0.019590646
93	0x3dfdfa89	0.124013014
94	0x3d2e2c97	0.042522993
95	0xbd63413f	-0.055482145
96	0xbcefcc44	-0.029272206
97	0xbd83f0c6	-0.06442408
98	0x3d98fcec	0.07470116
99	0xbd3572ec	-0.04429905
100	0xbd0db9b7	-0.03460094
101	0xbdb4f1b6	-0.08835165
102	0x3d9ebca6	0.077508256
103	0x3e19612d	0.14978476
104	0xbd621ad1	-0.055201355
105	0x3c3933e8	0.011303879
106	0xbdefbaae	-0.11705528
107	0x3d61f20b	0.05516247
108	0xbdca77b3	-0.09886112
109	0x3b99375f	0.00467579
110	0x3e27e60c	0.1639635
111	0xb6036abe	-1.9582653e-06
112	0xbd2ff81e	-0.042961232
113	0x3d7e2e54	0.0620559
114	0x3cc50917	0.024052186
115	0x3da40d10	0.08010304
116	0xbbac165c	-0.005251689
117	0xbd3164f5	-0.04330917
118	0xbc4e0493	-0.012574333
119	0x3e01a0fe	0.1265907
120	0xbc3a28f8	-0.011362307
121	0x3cc2ad17	0.023764176
122	0x3d5d2752	0.053992577
123	0x3ce1008c	0.027466081
124	0x3d831e60	0.06402278
125	0x3d472899	0.0486227
126	0xbd3f0f70	-0.04664558
127	0xba1dfa2d	-0.0006026354
128	0xbbf48338	-0.0074619316
129	0xbcc4d2d3	-0.02402631
130	0x3dd88c5a	0.10573645
131	0xbd9d53db	-0.0768201
132	0x3de0c47e	0.10974978
133	0x3e39b1a1	0.18134166
134	0x3e11c22c	0.14234227
135	0xbe09bb2d	-0.13450308
136	0x36ac98fe	5.14381e-06
137	0x3ddf40e1	0.109010465
138	0x3d3e818c	0.046510264
139	0x3e2bc216	0.16773257
140	0x3e215ee4	0.15758854
141	0x3dce79c7	0.10081821
142	0xbdfffd07	-0.12499433
143	0x3bef25fd	0.0072982297
144	0xbc33beb9	-0.010970765
145	0xbc8ddd1f	-0.017317353
146	0x3ccffa48	0.025387898
147	0x3d3ee6ab	0.0466067
148	0xbcc786ac	-0.024356209
149	0x3dc58c4b	0.096458994
150	0x3d0dd8a5	0.034630436
151	0x3d5e33a0	0.054248452
152	0xbcdc8115	-0.02691702
153	0xbc9efeb2	-0.019408558
154	0xbd053dea	-0.03252975
155	0x3e38b533	0.18037872
156	0xbda9a181	-0.082827576
157	0xbdf0e7af	-0.1176294
158	0xbda7963a	-0.0818295
159	0x3caab212	0.020836864
160	0x3dfba752	0.12287773
161	0x3dd9662d	0.106151916
162	0xbd38596e	-0.04500716
163	0x3d7f3808	0.062309295
164	0x3d89a192	0.0672027
165	0xbd0ca8c4	-0.034340635
166	0x3cde581f	0.027141629
167	0x3dbec7b1	0.09315432
168	0x3d3778ae	0.044792823
169	0x3b0f46fc	0.0021862378
170	0xbd6dd808	-0.05806735
171	0xbe0c4785	-0.13699158
172	0x3e218fef	0.15777563
173	0x3ccac67b	0.024752846
174	0xbd92e658	-0.07172841
175	0x3da574ed	0.080789424
176	0x3d8e5770	0.06950271
177	0x3cc9af23	0.024619645
178	0xbcffa648	-0.031207219
179	0x3ccdcf55	0.025123278
180	0x3e14e83d	0.14541717
181	0xbdc849a3	-0.0977967
182	0xbc6869ee	-0.014185412
183	0xbd8e6f90	-0.069548726
184	0xbd8d77a3	-0.069075845
185	0xbd3e9e87	-0.046537902
186	0xbbe9267a	-0.0071151825
187	0xbc6c8c4e	-0.014437748
188	0xbe0371d0	-0.12836385
189	0xbc5acd93	-0.013354677
190	0x3db7e93c	0.08980033
191	0xbd8f6094	-0.07000843
192	0xbd75ab89	-0.05997804
193	0x3e322154	0.17395526
194	0x3dfe69ad	0.124225
195	0x3c0aa52a	0.00846223
196	0xbd9b7350	-0.075903535
197	0xbd91257e	-0.07087229
198	0x3e00eead	0.12591048
199	0xbca2bc1c	-0.019865088
200	0xa120fa89	-5.454169e-19
201	0x3db0ba6e	0.08629309
202	0x3dc4ca81	0.09608937
203	0xbd151dbd	-0.036405314
204	0x3c8fbb8e	0.017545488
205	0xbe0e9f5c	-0.13927978
206	0x3d8ebf29	0.06970055
207	0xbd986622	-0.07441355
208	0x3da22f53	0.07919183
209	0xbd7e38ee	-0.06206601
210	0xbd54c336	-0.05194398
211	0xbdf0dd45	-0.11760954
212	0xbd645191	-0.05574185
213	0xbc1ec1b2	-0.009689735
214	0x3d822cd1	0.06356204
215	0xbbb434b9	-0.005499449
216	0xbcf5cbd5	-0.030004421
217	0x3cafe61c	0.02147203
218	0xbddc2456	-0.10749118
219	0x3e06f038	0.13177574
220	0xbdd34e92	-0.103177205
221	0xbda31edd	-0.07964871
222	0xbdcf6a4c	-0.101276964
223	0xbddfeacf	-0.10933458
224	0x3c5688d8	0.0130941495
225	0x3e28647d	0.16444583
226	0xbdd26139	-0.1027245
227	0x3da7d56f	0.08195006
228	0xba96d8f9	-0.0011508755
229	0xbd57a049	-0.052643094
230	0xbc374d3f	-0.0111878505
231	0xbd469dad	-0.048490215
232	0x3d86a3a9	0.065741844
233	0xbc747995	-0.014921566
234	0x3d74d95c	0.059777603
235	0xbd42fcf5	-0.04760452
236	0xbd849a59	-0.06474752
237	0x3ba34f3c	0.0049838107
238	0xbcf233c6	-0.029565703
239	0x3d27e84b	0.040993016
240	0x3e15a081	0.14612009
241	0xbc7837f5	-0.01515006
242	0xbd5d3e12	-0.054014273
243	0x3e1481b6	0.14502606
244	0xbe06a5d5	-0.13149197
245	0x3cd3271a	0.025775481
246	0xbd25ffb7	-0.04052707
247	0xbd2981d4	-0.04138358
248	0xbdf05786	-0.11735444
249	0xbcbefb70	-0.023313254
250	0x3dca1db8	0.0986895
251	0x3dc73738	0.09727329
252	0xbdd123f9	-0.10211939
253	0x3e0845c1	0.13307859
254	0x3d568f1a	0.052382566
255	0x3e1f033c	0.15528578

bias f4 [32]
0	0x3ce9fd73	0.028563237
1	0x3db84cf0	0.0899905
2	0x3d01f05e	0.031723373
3	0x3db33e2d	0.087520935
4	0x3dabce23	0.08388927
5	0xbd6b112a	-0.057389416
6	0x3ccc31b6	0.024926048
7	0xb9ccd65d	-0.00039069625
8	0x3d82cc91	0.06386674
9	0xbdb55baa	-0.08855374
10	0x3cdb5b9a	0.026777077
11	0xba3ad510	-0.00071270857
12	0xbdc35772	-0.09538163
13	0xbd63b8c8	-0.055596143
14	0xba7fdb2a	-0.0009760136
15	0xbc0d8845	-0.008638446
16	0x3de58ba0	0.11208272
17	0x3dc5cbb9	0.09657998
18	0xbde11c55	-0.10991732
19	0xbd9759c0	-0.07390165
20	0x3d667823	0.056266915
21	0xbd9d2492	-0.07672991
22	0xbd41718c	-0.047227427
23	0x3d8020fc	0.06256291
24	0x3dd719c4	0.10502961
25	0x3d2cb65e	0.042166106
26	0x3bd2df3d	0.0064353035
27	0x9f89bb4a	-5.83316e-20
28	0xbd7b5d4c	-0.06136827
29	0x3dbc7087	0.092011504
30	0x3dff2549	0.124582835
31	0xbdf0253c	-0.11725852

weight f4 [10, 32]
0	0xbe35ad45	-0.17741878
1	0xbe3d90a8	-0.18512213
2	0x3dd0c65e	0.101940855
3	0xbbd879a1	-0.006606296
4	0xbe4a2be4	-0.19743305
5	0xbe1d59ec	-0.15366334
6	0x3e3980a2	0.18115476
7	0xb934f768	-0.00017258304
8	0xbd5e7b52	-0.054316826
9	0x3d407253	0.046984028
10	0xbcf9b1d9	-0.030480312
11	0xbde40375	-0.11133472
12	0xbded7047	-0.11593681
13	0xbe244d93	-0.16045217
14	0x3c2d1d20	0.010566026
15	0x3d8fb9ff	0.07017898
16	0xbe6997e4	-0.22811848
17	0xbc8e4769	-0.017368035
18	0xbe518fd2	-0.2046502
19	0xbd192a9b	-0.037394147
20	0xbe29414b	-0.16528814
21	0xbe3a5eff	-0.182003
22	0xbe65004d	-0.22363396
23	0xbd7af606	-0.061269782
24	0xbdeb10b5	-0.11477796
25	0xbc083aed	-0.00831483
26	0xbcf0ce7d	-0.029395336
27	0x24e85adb	1.0076788e-16
28	0xbe12b9c7	-0.14328681
29	0x3dd7ba0e	0.10533534
30	0x3e13c8a5	0.14432009
31	0xbd0a25b1	-0.03372735
32	0xbe157b72	-0.14597872
33	0xbe8c0441	-0.27346995
34	0xbe008403	-0.12550358
35	0x3dd6afca	0.10482748
36	0xbe4b64c7	-0.19862662
37	0x3b615fea	0.0034389445
38	0x3df34f08	0.118803084
39	0xb7109ded	-8.619839e-06
40	0xbc7bfc1b	-0.015379931
41	0x3d6d42a6	0.05792489
42	0xbe71c054	-0.23608524
43	0x3dec7f98	0.11547774
44	0xbe0a3eaa	-0.13500467
45	0x3d216838	0.03940603
46	0xbe1159d6	-0.14194426
47	0x3e27a52f	0.16371606
48	0xbca7f4fd	-0.020502562
49	0xbdfdb6ba	-0.12388368
50	0x3d9cc713	0.07655158
51	0x3df96687	0.12177759
52	0xbc560295	-0.013062139
53	0xbdb8272a	-0.08991845
54	0x3e56eb76	0.20988259
55	0x3d3c9f3d	0.0460503
56	0xbca35c7f	-0.019941567
57	0xbcebf1c3	-0.028801804
58	0xbd0f69e4	-0.035013095
59	0x314255b8	2.827944e-09
60	0xbdc1263a	-0.09431119
61	0xbe82d537	-0.25553295
62	0x3df91b29	0.121633835
63	0x3e282724	0.16421181
64	0xbd9477be	-0.072494015
65	0xbe348c84	-0.17631727
66	0x3e1c7cb8	0.15281951
67	0xbd40e011	-0.047088686
68	0x3e00305d	0.12518449
69	0x3ddc7035	0.10763589
70	0xbdcbf965	-0.099596776
71	0x28618372	1.2518512e-14
72	0xbe6556f1	-0.22396447
73	0xbeb21680	-0.3478279
74	0x3d3a3bf1	0.04546732
75	0x3e49c9ec	0.19705933
76	0xbe2e04b5	-0.16993983
77	0x3d57891b	0.05262099
78	0xbe473509	-0.19453825
79	0xbd6df3b0	-0.058093727
80	0x3d34d9d3	0.044153046
81	0x3d80e00b	0.06292733
82	0x3c801ce8	0.015638784
83	0xbdbba199	-0.09161682
84	0x3e4f8eb8	0.20269287
85	0xbbaa13f6	-0.005190368
86	0xbcf3d1ff	-0.02976322
87	0x3d1ea440	0.03873086
88	0xbe0a0fc2	-0.13482574
89	0xbe084874	-0.13308889
90	0xbdbdf986	-0.092761084
91	0x9f71c668	-5.1197853e-20
92	0xbddfdea8	-0.1093114
93	0xbd1ddc5c	-0.03854023
94	0xbddfae6c	-0.1092194
95	0x3dc62d65	0.09676627
96	0x3d1e62d4	0.03866847
97	0xbe327a85	-0.1742955
98	0xbdfa8662	-0.12232663
99	0xbd4e6269	-0.05038682
100	0xbbc06eae	-0.005872569
101	0xbe41084f	-0.18850826
102	0x3d17b504	0.037037864
103	0x2f44d4b7	1.7901668e-10
104	0x3c9526e9	0.01820703
105	0xbe76a1da	-0.24085179
106	0x3dc5caf4	0.09657851
107	0x3d65d195	0.056108076
108	0x3d163140	0.036668062
109	0xbd51ed58	-0.05125174
110	0xbe5d3788	-0.21603215
111	0x3e6ce816	0.23135409
112	0xbe870cd5	-0.26376978
113	0xbe3ae1a9	-0.18250145
114	0x3d786675	0.060644586
115	0xbda83569	-0.08213312
116	0x3dff5af6	0.12468521
117	0xbe1d838a	-0.1538221
118	0x3c91c762	0.017795268
119	0xbe023016	-0.12713656
120	0xbe5d9fde	-0.21643016
121	0xbd299226	-0.041399144
122	0xbd9dee59	-0.07711477
123	0x2814f11e	8.267934e-15
124	0x3d4c11d0	0.049821675
125	0x3da0252e	0.078195915
126	0x3e335112	0.17511395
127	0xbe38f227	-0.18061124
128	0xbdbcfd71	-0.092280276
129	0x3d9cb0fe	0.07650946
130	0xbe290e2e	-0.16509315
131	0xbcb0a8fe	-0.021564957
132	0x3e1d5cf6	0.15367493
133	0x3e291ecc	0.16515654
134	0xbdc08f55	-0.094023384
135	0xa849a9ae	-1.1194535e-14
136	0xbe363f71	-0.17797638
137	0x3d3a1140	0.045426607
138	0xbe4ca39b	-0.19984286
139	0xbe4233bf	-0.18965052
140	0xbe8724c2	-0.2639523
141	0xbe01c963	-0.12674479
142	0xbe5c8270	-0.21534133
143	0xbcdd47fc	-0.027011864
144	0x3c3b0796	0.011415383
145	0x3cf03c5d	0.029325658
146	0xbdbddde7	-0.0927084
147	0x3e03c87b	0.12869446
148	0x3c8e87bc	0.017398708
149	0xbd5e74ef	-0.054310735
150	0xbe18bf11	-0.14916636
151	0x3df15dad	0.11785445
152	0x3ca737b0	0.020412296
153	0xbd4a8ac7	-0.049448755
154	0xbbd54140	-0.0065080225
155	0x37bb8682	2.2354772e-05
156	0x3d5c53e3	0.053790938
157	0xbe12b979	-0.14328565
158	0x3d15341f	0.03642666
159	0xbe2ebe8a	-0.17064872
160	0x3b924c2b	0.0044646463
161	0x3dea2c17	0.11434191
162	0x3e275d7f	0.1634426
163	0x3e10315a	0.14081326
164	0x3d1260c1	0.035736803
165	0x3c9a492d	0.018833721
166	0xbe27a413	-0.16371183
167	0xb02caf54	-6.282239e-10
168	0x3cbf71a5	0.02336962
169	0xbcd90ecc	-0.026496314
170	0x3e3494b1	0.17634846
171	0xbe02c94d	-0.12772103
172	0xbe3f8a1c	-0.18705028
173	0x3e50a6d2	0.20376137
174	0xbe068ad6	-0.13138899
175	0x3e2e12e8	0.169994
176	0xbdbb2a49	-0.09138925
177	0xbe06d94c	-0.1316883
178	0xbd97fd87	-0.074214034
179	0xbd8adafb	-0.067800485
180	0x3e147ecb	0.14501493
181	0xbe9ef1e0	-0.3104391
182	0xbe80fef4	-0.25194514
183	0xbe4c634b	-0.19959752
184	0x3e01f48d	0.12690945
185	0xbdfa85fe	-0.12232588
186	0xbdbdc4c3	-0.09266045
187	0x380a92f7	3.3038636e-05
188	0x3ca8d067	0.020607186
189	0xbdeb539b	-0.11490556
190	0xbd6dc4d1	-0.058049027
191	0x3d6e6e91	0.058210913
192	0x3e1b5b13	0.15171461
193	0xbc93afc7	-0.018028153
194	0xbe446559	-0.19179286
195	0xbd498c25	-0.049205918
196	0xbd6ebee9	-0.058287535
197	0x3df73a07	0.12071615
198	0x3d84f9a5	0.064929284
199	0x3801e161	3.0965897e-05
200	0xbe7fdc13	-0.24986295
201	0x3da32e1f	0.07967781
202	0x3e07e20e	0.13269827
203	0xbe75913b	-0.23981182
204	0xbd64122c	-0.055681393
205	0xbd52ee78	-0.051496953
206	0x3cc5f96e	0.024166789
207	0xbd346de7	-0.044050124
208	0xbe00309a	-0.1251854
209	0xbd38b905	-0.045098323
210	0xbec9ae0f	-0.3939061
211	0x3d695941	0.056969885
212	0xbe28c8eb	-0.16482894
213	0xbcce9f72	-0.025222514
214	0x3b64a5f8	0.0034888964
215	0xbd93e1b8	-0.07220787
216	0xbdc48d49	-0.095972605
217	0xbe2ff28e	-0.17182371
218	0xbdc45e44	-0.09588292
219	0xb3808dfa	-5.98629e-08
220	0x3d40bd93	0.047055792
221	0x3e0ca42c	0.13734502
222	0xbe3ff36a	-0.18745199
223	0x3d951923	0.07280185
224	0xbdb8fce6	-0.090326115
225	0xbe8b3981	-0.2719231
226	0xbe73d978	-0.23813426
227	0xbe821bd7	-0.25411865
228	0xbe397268	-0.18110049
229	0x3e0d986a	0.13827673
230	0xbe1cbcad	-0.15306349
231	0xb8f1e935	-0.00011535214
232	0x3e0ce6d3	0.13759927
233	0x3d861177	0.065463
234	0xbe167041	-0.14691259
235	0x3d0be992	0.034158297
236	0x3dcbeeb2	0.09957637
237	0x3d0bb42a	0.034107365
238	0xbcb790de	-0.022407945
239	0xbdfb2c29	-0.12264282
240	0x3cc29cc9	0.023756402
241	0x3e18dcd9	0.14927997
242	0xbdd68ae6	-0.104757115
243	0xbd8ff91b	-0.07029935
244	0xbe6c2231	-0.23059918
245	0xbe3952f2	-0.18098047
246	0x3daa8e14	0.083278805
247	0xbe20e1f3	-0.15711193
248	0xbd84a065	-0.06475905
249	0xbdb79918	-0.08964747
250	0xbdc33a1f	-0.0953257
251	0x2b07b7c2	4.821665e-13
252	0x3d5a1ef0	0.05325216
253	0x3dca1180	0.09866619
254	0xbe432f4f	-0.19061016
255	0xbe7cf0af	-0.24701189

bias f4 [10]
0	0xb82e3c61	-4.1541065e-05
1	0xb7db6cb2	-2.615745e-05
2	0xb8c31c14	-9.3035545e-05
3	0x368c49fc	4.180938e-06
4	0x37142b41	8.831558e-06
5	0xb897ce8d	-7.238714e-05
6	0xb788f505	-1.632656e-05
7	0x3888f681	6.5309e-05
8	0xb87b23ab	-5.987628e-05
9	0x36a4fbc3	4.91689e-06
