Assignments/Assignment 4/results/classifier_mlp/classifier_mlp.model (torch, 97223 bytes, 10 tensors)

weight f4 [128, 64]
-5.323645e-18 -0.18567513 -0.013303148 -0.08078166 0.058536235 -0.00010887112 0.14247097 0.016295953
0.013577071 -0.123860605 0.12049653 -0.08014249 0.08128516 0.085757166 -0.0937818 0.022695325
-0.040968724 -0.059606735 -0.06965154 -0.03162935 -0.017338103 0.10833026 -0.055575255 -0.054670904
-0.035137486 0.09648072 -0.10010759 -0.09804244 -0.079420954 -0.026037741 0.17204487 0.05289847
2.8868052e-07 0.14179276 0.11236387 -0.002785581 0.12473544 0.018984338 0.023711465 1.28209575e-14
0.0063524684 0.10831131 -0.046881292 0.11553199 0.11856311 0.14467686 0.06863071 -0.08460284
0.06411638 -0.07669575 -0.10704729 0.12403246 0.025526552 -0.192964 -0.14356554 -0.10299654
-0.08717799 -0.0398608 0.028995374 0.0075823907 -0.010520585 -0.09760649 -0.18268433 0.070345104
6.590154e-11 -0.02618974 0.03665729 -0.06580981 -0.100172564 -0.041686885 -0.0012275334 0.010128643
0.013779966 -0.052286852 -0.11478312 -0.04509586 -0.044161286 -0.034615256 -0.0005286341 0.013261457
0.043408662 -0.11199781 0.0595773 0.05916677 -0.023620885 -0.029362705 -0.0025014435 0.08557127
0.0010794275 0.11586312 0.18073702 0.03216286 -0.058171578 -0.1077652 -0.017077193 0.01503925
2.7504574e-15 0.033460986 0.000350526 0.059797812 0.15201949 0.017083947 -0.05328522 -7.46551e-06
-0.019120352 0.15992406 0.09290925 0.056312125 0.056504566 -0.07834041 -0.036274314 -0.0006412251
-0.0413532 0.06512498 -0.05331023 -0.009580747 0.027197093 0.015282406 0.027131084 0.11154849
-0.0071750176 -0.051368307 -0.08134989 0.15419175 -0.04061284 0.10541335 0.13510714 0.11373801
1.3972699e-18 0.033304464 -0.09148713 -0.09154023 -0.013864801 -0.06988028 0.07818277 -0.12304468
-0.0012641452 -0.043658316 -0.15322623 0.02129713 -0.090107396 0.040332418 0.02022943 -0.031239027
3.4289095e-16 -0.100534596 0.05701484 0.0344635 0.056956105 0.07779378 -0.0021063942 0.038692724
-0.03669068 -0.056001212 0.09341028 0.027931297 -0.017045368 -0.010797191 0.08414789 -0.050434627
1.2384158e-18 0.056247983 0.09549628 0.029633446 0.10524674 -0.057658207 -0.044577107 -1.6704975e-18
-0.052780945 0.053563386 -0.032691248 0.018802881 0.01300052 0.08355698 0.01902346 -0.042311594
0.013907658 0.045129374 -0.08142054 -0.084917635 0.12558417 -0.07117823 -0.14835395 0.058198728
0.015914235 0.056713898 -0.015387528 -0.08013515 0.059663527 0.009175766 -0.0353414 0.016876908
6.7608366e-15 -0.008042844 0.16607058 -0.029302625 -0.07357812 -0.0026877164 0.073494025 -0.111399494
0.024940073 0.018945968 0.035920653 0.0950195 0.095379435 0.04008017 0.028977636 -0.13191359
-0.032492943 0.11366075 -0.026040457 0.1683811 -0.05993245 -0.124853134 -0.04273859 -0.12722105
-0.018830203 -0.0179996 -0.061154842 0.07456659 0.116857864 -0.11309838 -0.02587855 -0.0009628634
1.7532232e-18 0.09920188 -0.02174845 -0.04810777 -0.04462881 -0.11188713 -0.041214615 2.6951499e-19
-0.090453334 0.040035296 -0.16804615 0.008312826 0.092834085 0.050037708 -0.07950526 0.013433438
0.024273306 0.055102266 -0.097686715 0.07549013 0.067616075 0.02310728 0.04253172 -0.031701136
0.022896208 -0.029532114 0.14365697 0.084238455 -0.019941194 -0.084091716 0.12247148 0.15097055
00000000: 6868 c4a2 9f21 3ebe 72f5 59bc db70 a5bd
00000010: b1c3 6f3d bd51 e4b8 e9e3 113e 177f 853c
00000020: 5d72 5e3c a1aa fdbd e2c6 f63d bf21 a4bd
00000030: d578 a63d 74a1 af3d ac10 c0bd 8ceb b93c
00000040: d2ce 27bd 3126 74bd 77a5 8ebd c78d 01bd
00000050: a308 8ebc 41dc dd3d e1a2 63bd 99ee 5fbd
00000060: 53ec 0fbd af97 c53d 3505 cdbd 7aca c8bd
00000070: 74a7 a2bd 1a4d d5bc 882c 303e 11ac 583d
00000080: f3fb 9a34 1f32 113e 071f e63d 4b8e 36bb
00000090: 4b75 ff3d 0b85 9b3c 8c3e c23c 3bf6 6628
000000a0: 5e28 d03b 52d2 dd3d 9906 40bd 099c ec3d
000000b0: 37d1 f23d 2c26 143e 428e 8c3d 4144 adbd
000000c0: 734f 833d a912 9dbd 9c3b dbbd bb04 fe3d
000000d0: 0f1d d13c 5b98 45be d802 13be daef d2bd
000000e0: 608a b2bd 1445 23bd b587 ed3c b475 f83b
000000f0: 885e 2cbc e9e5 c7bd 9a11 3bbe 1811 903d
00000100: 45eb 902e de8b d6bc f425 163d 4bc7 86bd
00000110: 4627 cdbd debf 2abd 30e5 a0ba 9cf2 253c
00000120: 5ec5 613c bd2a 56bd 6a13 ebbd 70b6 38bd
00000130: 77e2 34bd bac8 0dbd 0994 0aba 9546 593c
00000140: 48cd 313d 1c5f e5bd 5407 743d db58 723d
00000150: 9680 c1bc 0e8a f0bc 42ef 23bb fd3f af3d
00000160: 947b 8d3a a549 ed3d 2013 393e 34bd 033d
00000170: 5245 6ebd 00b4 dcbd 78e5 8bbc 3067 763c
00000180: fc30 4627 630e 093d cec6 b739 8dee 743d
00000190: ffaa 1b3e a2f3 8b3c 9a41 5abd 3e80 fab6
000001a0: 49a2 9cbc 22c3 233e 3447 be3d 8ba7 663d
000001b0: 5571 673d f070 a0bd 6094 14bd e317 28ba
000001c0: f961 29bd 3f60 853d d45b 5abd 91f8 1cbc
000001d0: 70cc de3c 0e63 7a3c 0242 de3c 8973 e43d
000001e0: 691c ebbb 9367 52bd c59a a6bd 71e4 1d3e
000001f0: a659 26bd f4e2 d73d 8759 0a3e 79ef e83d
00000200: 5d33 ce21 436a 083d 9b5d bbbd 7279 bbbd
00000210: 3129 63bc 641d 8fbd 4a1e a03d d9fe fbbd
00000220: adb1 a5ba 10d3 32bd 56e7 1cbe 5277 ae3c
00000230: 3a8a b8bd 9b33 253d 31b8 a53c fde8 ffbc
00000240: c6a9 c525 15e5 cdbd 6588 693d 9929 0d3d
00000250: ce4a 693d 5852 9f3d 6e0b 0abb 437c 1e3d
00000260: f748 16bd 8761 65bd e44d bf3d 2dd0 e43c
00000270: baa2 8bbc b4e6 30bc bb55 ac3d 8a94 4ebd
00000280: 07c2 b621 4964 663d 8e93 c33d d7c1 f23c
00000290: 9a8b d73d 032b 6cbd 7c96 36bd 9c85 f6a1
000002a0: d530 58bd 4865 5b3d 42e7 05bd 8008 9a3c
000002b0: 2200 553c ec1f ab3d 16d7 9b3c ec4e 2dbd
000002c0: f2dc 633c 94d9 383d d0bf a6bd 4ce9 adbd
000002d0: 2399 003e e4c5 91bd 19ea 17be ca61 6e3d
000002e0: 925e 823c d54c 683d f81b 7cbc e61d a4bd
000002f0: be61 743d f455 163c 25c2 10bd 7141 8a3c
00000300: b695 f327 22c6 03bc 680e 2a3e 0f0c f0bc
00000310: 20b0 96bd 6624 30bb 0984 963d 6b25 e4bd
00000320: 204f cc3c 9334 9b3c 8921 133d 9599 c23d
00000330: 4b56 c33d 1b2b 243d 8262 ed3c 5b14 07be
00000340: 5217 05bd f8c6 e83d cc52 d5bc 186c 2c3e
00000350: bb7b 75bd 00b3 ffbd a90e 2fbd 3c46 02be
00000360: cc41 9abc e673 93bc 807d 7abd 5eb6 983d
00000370: 2d53 ef3d 20a0 e7bd 41ff d3bc ab68 7cba
00000380: 735d 0122 5b2a cb3d ce29 b2bc a70c 45bd
00000390: b3cc 36bd 1425 e5bd a8d0 28bd f417 9f20
000003a0: 993f b9bd 0dfc 233d 4a14 2cbe 8532 083c
000003b0: cc1f be3d 57f4 4c3d a7d3 a2bd ec17 5c3c
000003c0: d0d8 c63c eab2 613d f90f c8bd 929a 9a3d
000003d0: 4c7a 8a3d 7a4b bd3c be35 2e3d 0dd9 01bd
000003e0: d490 bb3c 55ed f1bc d01a 133e 3685 ac3d
000003f0: b75b a3bc 4738 acbd 54d2 fa3d 0698 1a3e

bias f4 [128]
0.1140187 0.03492482 0.09342621 0.049096745 0.038122118 0.01580318 -0.09012764 0.11252712
-0.049208075 0.013341784 -0.0873239 -0.0410574 0.09717953 0.013030039 -0.028351145 0.061473925
0.052083746 0.079180054 0.109796874 -0.07280348 0.02746058 -0.034844093 -0.00799777 -0.0474706
0.090426326 -0.044275895 -0.031755775 -0.06747745 -0.017639402 -0.004017302 -0.08857074 0.11643764
0.094332665 0.028471505 -0.06204521 -0.038888335 -0.01653164 -0.032420784 0.06816242 0.115138605
-0.052824188 0.031743567 -0.09304575 -0.02424649 -0.077095285 -0.03905595 0.12653434 0.07822255
0.044892974 -0.029703911 -0.07482403 -0.03967561 -0.02494772 -0.029657299 0.022084812 0.13333124
-0.009213213 0.063061886 -0.04689883 0.010544486 0.09405635 0.026921984 -0.008476873 0.008320059
0.01735306 -0.028210362 0.00060366205 -0.031266343 0.085745916 0.024917588 0.02710363 -0.006473754
-0.11675058 0.006610333 0.083923735 0.03079978 -0.06893698 0.13844314 0.04702582 0.10588512
0.10259079 -0.06925187 -0.03890023 -0.06725234 0.16089106 0.05224048 0.020244325 -0.015766677
-0.01535801 -0.046080705 -0.0095896525 -0.08453533 -0.048127398 0.08583253 -0.031248132 -0.08571969
-0.005457344 0.05814541 0.10797984 -0.017798379 -0.017418003 0.09138783 0.013326895 -0.02606174
-0.025027366 -0.054017607 -0.0614126 -0.0008369221 0.05131198 0.05210775 -0.07327433 0.044653937
0.105014496 0.1296493 0.004674074 0.08146442 0.009573034 0.0016077991 -0.03709874 -0.06234095
0.086759664 -0.03251955 0.023338633 0.07824541 -0.0768768 0.005212704 -0.016645443 -0.056510556
00000000: a382 e93d 540d 0f3d 3e56 bf3d ab19 493d
00000010: f025 1c3d ac75 813c d794 b8bd 9e74 e63d
00000020: 688e 49bd 7f97 5a3c dfd6 b2bd ce2b 28bd
00000030: 1006 c73d f27b 553c a940 e8bc 15cc 7b3d
00000040: c455 553d 2729 a23d 2fdd e03d fe19 95bd
00000050: 03f5 e03c aeb8 0ebd 1409 03bc 8870 42bd
00000060: 7031 b93d a45a 35bd 5812 02bd 9e31 8abd
00000070: 8280 90bc 92a3 83bb 9364 b5bd db76 ee3d
00000080: 7c31 c13d 133d e93c 1e23 7ebd 6049 1fbd
00000090: 5d6d 87bc a8cb 04bd bd98 8b3d cacd eb3d
000000a0: 2d5e 58bd 8b05 023d c58e bebd 93a0 c6bc
000000b0: 22e4 9dbd 22f9 1fbd 3892 013e 2533 a03d
000000c0: b2e1 373d 9e55 f3bc 573d 99bd e482 22bd
000000d0: 295f ccbc ddf3 f2bc 35eb b43c fc87 083e
000000e0: 04f3 16bc 9726 813d fd18 40bd c8c2 2c3c
000000f0: 9ea0 c03d 7e8b dc3c 95e2 0abc db50 083c
00000100: 0128 8e3c 6b19 e7bc 133f 1e3a 2311 00bd
00000110: 8e9b af3d f81f cc3c 6f08 de3c c921 d4bb
00000120: ee1a efbd 7e9b d83b 35e0 ab3d d24f fc3c
00000130: d52e 8dbd 0ac4 0d3e 259e 403d 4cda d83d
00000140: 1f1b d23d edd3 8dbd d955 1fbd 98bb 89bd
00000150: a0c0 243e 1dfa 553d 6dd7 a53c 1e29 81bc
00000160: 2aa0 7bbc 1fbf 3cbd eb1d 1dbc dc20 adbd
00000170: 3c21 45bd f7c8 af3d 15fc ffbc ce8d afbd
00000180: 85d3 b2bb e229 6e3d 8924 dd3d e8cd 91bc
00000190: 33b0 8ebc 8b29 bb3d 0d59 5a3c 6e7f d5bc
000001a0: 3106 cdbc 9141 5dbd c78b 7bbd e464 5bba
000001b0: 832c 523d f06e 553d da10 96bd 0ce7 363d
000001c0: d711 d73d c9c2 043e f928 993b d1d6 a63d
000001d0: 37d8 1c3c c9bc d23a d9f4 17bd 3959 7fbd
000001e0: 0daf b13d 3833 05bd a930 bf3c 213f a03d
000001f0: 9571 9dbd 55cf aa3b 065c 88bc 9d77 67bd

weight f4 [64, 128]
0.13886644 -0.07474133 -0.059725188 0.017606081 0.017345663 -0.033785332 -0.020162903 -0.071034774
0.016073545 0.1449463 -0.04943152 0.0522571 0.020574238 -0.018139223 -0.028245872 0.06486523
0.022693029 -0.052946616 0.041653525 -0.056563616 0.05946347 0.06690394 0.024971616 -0.05657905
-0.0956387 0.007728396 0.032843243 -0.02017951 -0.0039868085 -0.04109403 -0.092566356 0.035321534
-0.020871857 -0.050377365 -0.04867844 -0.013580149 0.024767414 0.037020635 0.08286091 0.030374562
-0.07292447 0.013993252 0.054199085 -0.061383687 0.052622862 -0.011713823 -0.0058892844 -0.009306687
0.06889009 0.07053714 -0.030760072 0.051898062 0.03922703 0.072816454 0.023326885 0.085048154
0.08620617 -0.08230964 -0.054991838 -0.08214418 0.06148546 0.13485463 0.04707899 -0.008797383
-0.06701577 0.006288843 -0.018644836 0.03970399 -0.092248775 0.09673567 -0.0652692 -0.010091664
0.0033196183 -0.041576203 0.0060465764 -0.042261597 -0.06353917 0.06092934 0.077685505 0.032082543
0.08264283 -0.012926108 -0.05118954 0.012350567 -0.038489968 -0.049447875 0.10975898 0.045191325
0.016712986 0.05602303 -0.0022074746 -0.025676392 0.092061 -0.008326696 -0.04778426 0.013951575
-0.07098093 0.051448483 -0.017894153 -0.0008356741 -0.07141819 -0.012517113 -0.0043574735 0.044546265
0.03337641 0.050221257 -0.0037960699 0.0008094717 0.11431884 0.14936292 0.051674284 0.08166067
-0.08424901 0.059902802 -0.029380083 0.09805886 0.078746445 0.030823844 0.06383104 -0.045305748
0.071386956 -0.02777701 0.0006441683 0.109662466 -0.068984054 0.12393995 -0.10675134 0.012025084
0.08943727 0.018297462 -0.032020047 0.12701306 0.012966232 -0.06838954 0.04270345 0.1276066
-0.044942502 -0.019943101 0.108465046 0.047073 -0.082466036 0.04022522 -0.034095015 0.021086728
-0.06926328 -0.08176464 -0.05779985 0.05796155 0.123534426 -0.019965803 0.0909958 0.113768235
0.09602733 0.052239608 -0.018235262 0.048260674 0.0055848453 -0.014283521 -0.12812373 -0.0010708357
-0.10795338 0.08754498 0.10339469 0.004001303 -0.038188513 0.040091835 -0.08662942 -0.06448897
0.10853588 0.0071848477 -0.04902786 0.017491363 0.07771795 0.02535301 0.073347874 -0.02057809
0.058094427 0.03192918 -0.09783999 -0.0069427234 0.0011928601 0.06935832 -0.054855343 -0.059038315
0.0464796 -0.053145565 -0.008062527 -0.028577363 -0.06091667 0.046545383 0.103833206 0.10773467
-0.07481508 0.025845278 -0.031393833 0.02223431 0.05271639 0.043618277 -0.09296062 0.08135039
0.057574444 0.027957845 -0.054888535 0.033806413 0.049807496 -0.075907186 -0.08361375 -0.02420923
0.055254906 0.0057241027 0.06366439 -0.05331189 -0.05676523 -0.026012726 -0.013514372 -0.07988644
0.018682284 -0.104665674 0.059981827 0.108738735 -0.060282376 0.03342091 0.035647035 -0.018201236
0.00809687 -0.06572443 -0.023271285 -0.033382606 0.030793175 -0.051570952 0.056381434 0.10973117
0.10360673 -0.07732888 0.08381842 0.000438531 0.044717968 0.10377683 -0.062523164 0.024939863
-0.032766826 -0.08184343 -0.0076217223 -0.0058765244 0.014172425 0.042116888 -0.082967326 -0.031781156
-0.017208062 0.10223045 0.08959715 -0.03820784 -0.051035207 0.03177448 -0.023435162 0.024954196
00000000: 0133 0e3e fc11 99bd 66a2 74bd a13a 903c
00000010: 7e18 8e3c 7d62 0abd ac2c a5bc ae7a 91bd
00000020: abac 833c ce6c 143e b578 4abd 8a0b 563d
00000030: 4e8b a83c b598 94bc e363 e7bc 10d8 843d
00000040: bbe6 b93c 8dde 58bd e39c 2a3d 40af 67bd
00000050: f88f 733d ef04 893d 4691 cc3c 6fbf 67bd
00000060: 39de c3bd 7c3e fd3b a386 063d 804f a5bc
00000070: c6a3 82bb 3752 28bd 6e93 bdbd 50ad 103d
00000080: 75fb aabc 7f58 4ebd 0b63 47bd 467f 5ebc
00000090: 08e5 ca3c f3a2 173d fbb2 a93d 13d4 f83c
000000a0: 6d59 95bd f443 653c dcff 5d3d 766d 7bbd
000000b0: 128b 573d 56eb 3fbc e6fa c0bb 137b 18bc
000000c0: 3f16 8d3d c775 903d 8cfc fbbc 1093 543d
000000d0: 86ac 203d cb20 953d 0618 bf3c ba2d ae3d
000000e0: dc8c b03d f591 a8bd 1f3f 61bd 353b a8bd
000000f0: 2dd8 7b3d 5517 0a3e e6d5 403d e622 10bc
00000100: 903f 89bd a412 ce3b 0ebd 98bc a7a0 223d
00000110: edec bcbd 5a1d c63d dcab 85bd 8257 25bc
00000120: f48d 593b cf4b 2abd 5c22 c63b 7f1a 2dbd
00000130: d320 82bd 0b91 793d 9419 9f3d fc68 033d
00000140: a540 a93d 07c8 53bc 20ac 51bd 085a 4a3c
00000150: a8a7 1dbd db89 4abd 51c9 e03d 8a1a 393d
00000160: ace9 883c 6878 653d 47ab 10bb 4c57 d2bc
00000170: 7a8a bc3d b26c 08bc 6eb9 43bd 2695 643c
00000180: 735e 91bd a5bb 523d c296 92bc 2411 5bba
00000190: b343 92bd 9414 4dbc 23c9 8ebb 2576 363d
000001a0: b4b5 083d ceb4 4d3d 7cc7 78bb ba32 543a
000001b0: ff1f ea3d 98f2 183e 6aa8 533d b63d a73d
000001c0: bf8a acbd a45c 753d 80ae f0bc 15d3 c83d
000001d0: d145 a13d 4982 fc3c d9b9 823d 8592 39bd
000001e0: 5333 923d 9d8c e3bc 67dd 283a b796 e03d
000001f0: 8347 8dbd 3ad4 fd3d 72a0 dabd dc04 453c
00000200: e32a b73d 8fe4 953c 7427 03bd b60f 023e
00000210: 5270 543c d10f 8cbd d0e9 2e3d 4eab 023e
00000220: a115 38bd b75f a3bc ec22 de3d 9ecf 403d
00000230: f4e3 a8bd 33c3 243d 37a7 0bbd 13be ac3c
00000240: e8d9 8dbd 3874 a7bd 89bf 6cbd 1769 6d3d
00000250: 9eff fc3d 538f a3bc 025c ba3d 52ff e83d
00000260: faa9 c43d 33f9 553d 1e62 95bc fcac 453d
00000270: 1401 b73b 6e05 6abc de32 03be 495b 8cba
00000280: a916 ddbd c84a b33d 98c0 d33d 5d1d 833b
00000290: 8f6b 1cbd 5637 243d c46a b1bd cb12 84bd
000002a0: 0f48 de3d df6e eb3b 70d1 48bd 0c4a 8f3c
000002b0: 972a 9f3d 1eb1 cf3c 6937 963d 6293 a8bc
000002c0: 6cf4 6d3d 2cc8 023d 5560 c8bd c97f e3bb
000002d0: be59 9c3a bc0b 8e3d ffaf 60bd 29d2 71bd
000002e0: 6561 3e3d 2aaf 59bd b018 04bc 131b eabc
000002f0: c283 79bd 5fa6 3e3d 81a6 d43d ffa3 dc3d
00000300: a638 99bd 7ab9 d33c d296 00bd ba24 b63c
00000310: 24ed 573d 14a9 323d 2362 bebd 099b a63d
00000320: 2ed3 6b3d da07 e53c cdd2 60bd 9878 0a3d
00000330: f202 4c3d 3a75 9bbd b03d abbd 6f52 c6bc
00000340: f852 623d 4191 bb3b 7a62 823d 925d 5abd
00000350: a882 68bd a418 d5bc 626b 5dbc 809b a3bd
00000360: 970b 993c f55a d6bd 81af 753d 6ab2 de3d
00000370: a7ea 76bd 5de4 083d a002 123d c21a 95bc
00000380: bca8 043c 889a 86bd 6ca3 bebc 33bc 08bd
00000390: f841 fc3c 103c 53bd 38f0 663d bcba e03d
000003a0: c42f d43d 9b5e 9ebd fea8 ab3d a2ea e539
000003b0: 302a 373d f288 d43d 250c 80bd af4e cc3c
000003c0: 8236 06bd 879d a7bd a4bf f9bb dc8f c0bb
000003d0: 7533 683c c282 2c3d c6ea a9bd f52c 02bd
000003e0: ecf7 8cbc 335e d13d b67e b73d d37f 1cbd
000003f0: 4b0a 51bd f525 023d 19fb bfbc be6c cc3c

bias f4 [64]
0.0075711226 -0.08054255 -0.0012270086 0.037823975 0.024957605 -0.0381801 0.016894475 0.06036557
0.07240619 -0.013082 0.09236152 0.07375843 0.0030352958 0.063963674 -0.009518381 -0.0744802
0.04248937 0.042495787 0.07611813 0.08713363 -0.033199053 0.0763617 -0.06747119 -0.05025074
-0.041586313 0.05725313 -0.025795238 -0.0057507316 -0.0103888335 0.098265715 -0.055159226 -0.008797392
0.011606862 0.0008590175 4.1866583e-21 -0.0024615647 0.06875582 -0.0076942053 -0.09278805 0.056110833
0.009270481 0.09790274 0.042676557 0.033369754 -0.051631887 0.088247985 -0.07033522 -0.059037507
-0.015189585 -0.042541116 0.07735719 0.016861456 -0.028214771 -0.031082107 0.09562468 0.013248659
-0.015669206 0.04694395 0.04991757 0.067192346 0.058654387 0.08719579 -0.020513017 -0.015092866
00000000: 2e17 f83b 7ef3 a4bd 94d3 a0ba 50ed 1a3d
00000010: e473 cc3c bd62 1cbd 4866 8a3c e341 773d
00000020: b249 943d e355 56bc 0928 bd3d a90e 973d
00000030: d0eb 463b 63ff 823d fcf2 1bbc 1389 98bd
00000040: 5509 2e3d 1010 2e3d d2e3 9b3d 1e73 b23d
00000050: bbfb 07bd 8663 9c3d 562e 8abd b8d3 4dbd
00000060: 6956 2abd 4282 6a3d 8950 d3bc a270 bcbb
00000070: ed35 2abc 893f c93d a4ee 61bd f022 10bc
00000080: b52a 3e3c b02f 613a e02a 9e1d 3452 21bb
00000090: dacf 8c3d ac1f fcbb a907 bebd 79d4 653d
000000a0: 37e3 173c 3b81 c83d 9dcd 2e3d b9ae 083d
000000b0: f57b 53bd 5cbb b43d e90b 90bd 50d1 71bd
000000c0: bddd 78bc 983f 2ebd 726d 9e3d 0921 8a3c
000000d0: aa22 e7bc e79f febc dfd6 c33d e710 593c
000000e0: b55c 80bc 4d48 403d 5e76 4c3d 249c 893d
000000f0: 953f 703d b593 b23d ea0a a8bc 1148 77bc

weight f4 [64, 64]
-0.057684794 0.10131519 0.16927452 -0.077924296 0.017894648 -0.040558726 -0.14393476 0.04175286
-0.14484316 0.04364573 0.09606525 -0.0930759 -0.15018912 0.09700815 -0.091595754 -0.09607567
-0.016297303 0.08101812 0.07295338 -0.1311198 0.00017261997 -0.08861048 0.059102133 0.027560063
0.037653744 -0.017123438 0.082013495 -0.113049544 0.04806645 0.031342804 0.104408324 0.034303937
-0.08973289 0.124953486 3.053156e-18 0.04925628 0.1003012 0.12981941 -0.10518098 -0.13888945
0.011826883 -0.13408218 0.04567452 0.081194885 -0.13171217 0.16091906 0.14019133 0.113072574
0.029593606 0.049731422 0.1154101 0.1444471 -0.11649794 -0.048574414 0.053458083 0.0023917842
-0.00012567622 0.09574435 0.14288078 0.07935315 0.0016143847 -0.0047861272 0.048843767 0.09190944
0.092367895 0.10561769 0.0645899 2.7012797e-08 0.08088761 -0.0842125 -0.08015821 -0.039111014
-0.016146662 -2.9298466e-13 0.031396713 -0.060331754 0.03950965 0.02903917 -0.03965198 0.034793034
-0.10273013 -0.14626911 -0.0056571416 -0.10799085 0.069511004 0.11019884 -0.075687304 0.05382083
0.018494304 0.09187399 0.129994 -0.0072304686 -7.734356e-09 -0.04567403 0.049604617 0.03619994
0.14211793 0.04407939 1.2045322e-05 -0.07387744 0.01782037 -0.10205878 -0.052971218 0.103075884
-0.06124715 -0.0564299 0.089796856 0.047390763 -0.073895976 -0.039445635 -0.062668495 -0.050616518
0.07550278 -0.1223038 0.014717624 0.10815006 -0.016995642 0.1329587 -0.014651762 -0.086578354
-9.772447e-06 7.8847215e-06 0.097634844 0.030120594 -2.5766558e-06 -0.034545854 0.07336178 0.012051542
-0.040959824 0.0011378678 -0.10598333 -4.3101583e-08 -0.03335441 -0.08545552 -0.015106434 0.08648433
7.511475e-05 -6.1155345e-13 -0.07831161 0.017130269 -0.014063149 -0.10678371 0.07127133 0.08375282
-0.015594977 -0.05594241 -3.9432577e-18 0.11297359 0.09692332 0.00084745244 -0.096957676 -0.03872936
-0.022309247 -0.009035242 -0.041153494 0.041707776 9.281279e-14 0.049801826 -2.4927427e-18 4.297623e-13
0.090120636 -0.048371345 -4.121553e-06 1.5621154e-16 -0.07851008 -0.041764382 0.03244189 0.055248085
-0.10623146 -0.026008518 0.08381547 -0.11128564 0.10031613 0.050826807 -0.10265555 -0.04401559
0.0966252 -0.030297374 -0.11600199 0.099566214 0.03615667 -0.08411604 0.08088318 -0.09419578
1.4551738e-07 9.04016e-19 0.05290542 -0.0064007337 -6.6213103e-18 0.044624705 -0.081330836 -0.0115848305
-0.0042312006 0.044010818 0.0609905 -0.02996618 0.08074199 -0.11545429 -0.02324306 0.032832492
0.100480355 0.066770814 -0.11247947 -0.046211 0.14233203 0.12915039 0.13497733 -0.09951947
-0.06322427 0.16617717 -0.005574471 0.035476442 0.02303392 -0.023868414 0.08811384 0.03359619
-0.054114718 0.12361613 -0.10508221 0.09495243 0.035904672 0.008065776 -0.16713504 0.054665044
0.109524906 -0.04309763 9.78303e-10 0.010408216 -0.023790946 -0.043918245 0.030886326 -0.102362536
-0.09373493 0.09390807 -0.11144922 -0.11308125 0.015268441 -0.10499289 0.055934966 0.07994852
-0.15010403 0.04083118 -0.06142944 0.10535986 -0.053953152 0.094412245 0.10747953 0.029278643
0.001402652 0.004021188 -0.048903923 0.044440422 1.3504611e-18 -0.03828411 0.10234412 -0.04848208
00000000: e446 6cbd 577e cf3d 4d56 2d3e c696 9fbd
00000010: cc97 923c e820 26bd a263 13be 0c05 2b3d
00000020: c451 14be ddc5 323d dcbd c43d 949e bebd
00000030: 2dcb 19be 35ac c63d 8e96 bbbd 52c3 c4bd
00000040: ec81 85bc d4ec a53d 9568 953d 4544 06be
00000050: 5201 3539 6979 b5bd 1415 723d a4c5 e13c
00000060: d03a 1a3d 7446 8cbc b1f6 a73d 8586 e7bd
00000070: 53e1 443d 5061 003d 08d4 d53d 4982 0c3d
00000080: e1c5 b7bd 9de7 ff3d 7c48 6122 f4c0 493d
00000090: b76a cd3d 61ef 043e 2069 d7bd 0939 0ebe
000000a0: 8bc5 413c d74c 09be 3515 3b3d 8149 a63d
000000b0: 8edf 06be f7c7 243e 518e 0f3e 9892 e73d
000000c0: 4a6e f23c 2db3 4b3d 215c ec3d f1e9 133e
000000d0: 7996 eebd f7f5 46bd ddf6 5a3d 7bbf 1c3b
000000e0: f4c7 03b9 9d15 c43d 574f 123e e883 a23d
000000f0: c399 d33a f2d4 9cbb 6710 483d 043b bc3d
00000100: 612b bd3d 164e d83d b647 843d c509 e832
00000110: 67a8 a53d 9a77 acbd fd29 a4bd df32 20bd
00000120: 0146 84bc 8aef a4aa d799 003d 6e1e 77bd
00000130: dfd4 213d 8ee3 ed3c 1d6a 22bd 2483 0e3d
00000140: 2d64 d2bd 92c7 15be 8b5f b9bb 4f2a ddbd
00000150: c95b 8e3d eeaf e13d f201 9bbd 3b73 5c3d
00000160: 5e81 973c 6e28 bc3d 261d 053e 91ed ecbb
00000170: 0fe0 04b2 b114 3bbd 362e 4b3d 6346 143d
00000180: 5d87 113e 978c 343d 4416 4a37 0e4d 97bd
00000190: 06fc 913c 3204 d1bd 59f8 58bd 7319 d33d
000001a0: 4bde 7abd 0a23 67bd 6ae7 b73d d11c 423d
000001b0: c656 97bd bf91 21bd 5758 80bd 4453 4fbd
000001c0: 34a1 9a3d 6a7a fabd 3022 713c c77d dd3d
000001d0: 723a 8bbc 5326 083e f20d 70bc fe4f b1bd
000001e0: 57f4 23b7 9f48 0437 c7f4 c73d 77bf f63c
000001f0: 9cea 2cb6 f47f 0dbd b33e 963d d573 453c
00000200: 7dc5 27bd 8224 953a ca0d d9bd b11e 39b3
00000210: a29e 08bd 4e03 afbd fa80 77bc b21e b13d
00000220: ed86 9d38 1223 2cab d661 a0bd c754 8c3c
00000230: 1f69 66bc 6bb1 dabd b4f6 913d 9986 ab3d
00000240: 1382 7fbc de23 65bd 047b 91a2 b35e e73d
00000250: bc7f c63d 9227 5e3a bf91 c6bd ada2 1ebd
00000260: e2c1 b6bc 8d08 14bc 9190 28bd c6d5 2a3d
00000270: eefe d029 00fd 4b3d 94ee 37a2 46ef f12a
00000280: 2b91 b83d 0821 46bd df4b 8ab6 8219 3425
00000290: e5c9 a0bd 2111 2bbd cae1 043d d14b 623d
000002a0: e18f d9bd d10f d5bc 72a7 ab3d bae9 e3bd
000002b0: 8b72 cd3d c52f 503d 133d d2bd b149 34bd
000002c0: 6fe3 c53d 3332 f8bc 7492 edbd 5fe9 cb3d
000002d0: 0419 143d 0845 acbd 15a6 a53d b8e9 c0bd
000002e0: 833f 1c34 c268 8521 5bb3 583d 3fbd d1bb
000002f0: 8248 f4a2 65c8 363d c890 a6bd 4dce 3dbc
00000300: e2a5 8abb b044 343d 2dd1 793d a27b f5bc
00000310: 0e5c a53d 4c73 ecbd 3b68 bebc 5d7b 063d
00000320: a5c8 cd3d 23bf 883d a35b e6bd bf47 3dbd
00000330: 7dbf 113e 0040 043e 7f37 0a3e ddd0 cbbd
00000340: ba7b 81bd 592a 2a3e 0daa b6bb bf4f 113d
00000350: a2b1 bc3c b187 c3bc 0775 b43d 299c 093d
00000360: 65a7 5dbd 742a fd3d 5735 d7bd 6b76 c23d
00000370: c710 133d 5126 043c 7325 2bbe 74e8 5f3d
00000380: 984e e03d 2487 30bd fa74 8630 3987 2a3c
00000390: 3be5 c2bc 9ee3 33bd 5205 fd3c 73a3 d1bd
000003a0: 19f8 bfbd e052 c03d 7d3f e4bd 2497 e7bd
000003b0: 7c28 7a3c 8306 d7bd 101c 653d 0dbc a33d
000003c0: dfb4 19be 983e 273d 709d 7bbd e9c6 d73d
000003d0: fbfd 5cbd 355b c13d 3a1e dc3d c4d9 ef3c
000003e0: 31d9 b73a 2bc4 833b 7b4f 48bd 2907 363d
000003f0: fa4a c721 cdcf 1cbd cb99 d13d 2595 46bd

bias f4 [64]
0.0028003228 0.026746005 -0.019952925 0.038541812 -0.008208587 -0.047877815 0.020188533 4.4171168e-18
0.016640117 0.0038442016 0.029983224 0.044781584 -0.05151314 0.14527705 0.049179982 -0.07293732
-0.04958061 -0.015335086 0.06614242 -0.08618066 0.0038104337 -0.050078303 0.12424034 0.0023680236
-0.021011444 -0.047225855 -0.054367647 0.06592196 0.07443553 0.116422065 -0.01906877 -0.016743805
-0.07595389 -0.08040429 0.036788788 0.032666698 0.0043050777 6.7612916e-19 0.08749887 -0.035481784
0.08997199 0.047902178 -0.054597054 0.052213416 0.10689396 0.08944326 -0.047274992 0.0044727447
-0.013302222 0.108922526 -0.037702832 -0.07367433 0.07938161 0.072050035 0.021388123 0.11156696
0.11424916 0.07808941 -1.109051e-19 0.016291449 -0.08750979 0.045976095 0.111021705 -0.074473806
00000000: 9f85 373b 701a db3c 5174 a3bc 05de 1d3d
00000010: 4f7d 06bc 871b 44bd 6c62 a53c 7df6 a222
00000020: db50 883c 00ef 7b3b 619f f53c e56c 373d
00000030: 71ff 52bd 82c3 143e f370 493d 2960 95bd
00000040: 0a15 4bbd 0340 7bbc ad75 873d 7c7f b0bd
00000050: 78b8 793b e81e 4dbd b871 fe3d d830 1b3b
00000060: 3120 acbc e66f 41bd 9cb0 5ebd 1802 873d
00000070: a871 983d b16e ee3d 1c36 9cbc 4e2a 89bc
00000080: b78d 9bbd 01ab a4bd d7af 163d 84cd 053d
00000090: 9c11 8d3b e08e 4721 9c32 b33d 5955 11bd
000000a0: 3c43 b83d 1335 443d 29a1 5fbd bcdd 553d
000000b0: 38eb da3d 072e b73d 6ca3 41bd 1a90 923b
000000c0: 90f1 59bc c612 df3d 496e 1abd 91e2 96bd
000000d0: d392 a23d f88e 933d 2536 af3c 387d e43d
000000e0: 77fb e93d 57ed 9f3d 02ef 02a0 a575 853c
000000f0: 5538 b3bd 6e51 3c3d 595f e33d b985 98bd

weight f4 [32, 64]
0.16928242 0.17057537 7.875785e-08 -0.11027856 -0.03067644 0.082340725 -0.07111693 -2.3516957e-07
0.05291953 0.035120793 0.046706058 0.0785551 0.15502134 0.12596849 0.0765487 0.054528773
0.062841386 0.028964985 -0.060831565 0.12371863 -0.15699224 0.11477115 0.048496243 0.009538208
-0.016846132 0.07023018 8.658968e-20 0.12540808 0.064407535 0.045268234 0.13159962 -0.09416934
0.170382 -0.005859456 -0.01556619 -0.039365176 -0.045238327 -3.3551685e-06 -0.1358596 -0.053424045
4.5520287e-07 -0.12677565 0.052994546 0.02095994 -0.017019315 0.03394935 -0.1002454 -0.08217878
0.08335242 -0.12688273 0.026627304 -0.030650618 0.14364119 -0.08712797 -0.026715478 -0.046997946
0.16101107 0.0451651 -2.0086343e-07 -0.12548679 0.013768022 -0.111509204 0.050860744 0.1533024
0.015366386 -0.01132652 6.718464e-17 0.0258108 0.0070844945 3.2993731e-12 0.014904555 7.653569e-06
7.979069e-09 0.011012048 1.3394366e-19 -0.002187054 0.03711144 0.026082415 0.044851147 0.038019285
-0.0044937944 0.03181512 -0.08861956 0.03602592 0.02293311 -0.041141603 0.08673118 -0.05779131
0.035214726 -0.018029679 -3.4996194e-06 -0.10970758 -0.008238779 -0.028008197 -0.013985587 0.048908282
0.06746097 0.12762018 0.07615908 -0.005375774 -0.049465753 5.9964217e-18 0.047710743 0.11098853
-2.220241e-18 -0.059541795 0.084640145 0.017409105 0.06018566 -0.10284552 -0.054530237 -0.094916984
0.008749712 0.058493678 0.10236086 0.027811173 -0.0013583471 -0.016379198 0.011493282 -0.077289455
0.019792283 8.0987384e-08 -7.8404214e-11 -0.04578988 0.07814494 -0.08378895 0.02579101 -0.00985667
-0.06950745 -0.010297353 0.020389127 0.008548784 -0.057730135 0.029373713 0.0032437716 1.278323e-07
0.090163134 -0.008614105 0.11676633 -0.09152422 0.029138682 0.0014159222 0.08635812 -0.14013141
-0.12899029 -0.0576919 0.001988266 0.0965823 0.02023147 0.15212923 -0.005056477 0.11253586
0.10838131 0.028971616 1.860622e-10 -0.0442713 0.13000222 0.025320932 -0.045381486 0.13871351
0.005439233 0.04955912 -0.11309235 0.13353595 0.11666499 -6.652034e-11 0.07008869 -0.0403213
-0.036173534 -0.028804783 0.03591737 -0.10607896 0.061903697 0.071132846 0.029930886 -0.14696695
-0.05173637 0.082411654 -0.08623953 0.018515756 -0.11750447 0.04352479 0.015426497 -0.02445377
0.051797368 -0.00096793234 1.784826e-12 -0.115464166 0.123420455 -0.08288201 -0.06444461 0.05545463
-0.006031697 0.09919876 0.06599575 -0.0711665 -0.06861986 0.025959322 0.09582499 -7.2864293e-19
-0.08123083 0.03881167 0.0639272 -0.12657702 0.02958743 0.1458379 0.07613564 0.086245
-0.066506185 0.077231 0.009903079 0.059163954 0.114308424 0.12017729 0.006319386 0.11625974
-0.10049203 -0.12902713 9.873571e-18 0.056096334 -0.038668655 0.073306344 0.08675069 0.045321513
0.07111098 -0.009141743 -0.06582611 -0.09620962 -0.10115214 3.4938012e-06 0.058773093 0.02975691
-0.017825771 -0.06877356 0.13654786 0.13450894 0.007177027 -0.01587285 -0.0999361 -0.043408934
0.059150457 0.055203397 0.15315945 0.1301968 -0.12033214 -0.15213205 0.024372973 -0.07727183
0.053855892 0.042672455 -3.548982e-18 -0.0455233 0.118204705 0.18244433 0.096042186 -0.14785947
00000000: 5f58 2d3e 4fab 2e3e 9621 a933 bad9 e1bd
00000010: 284d fbbc 41a2 a83d c1a5 91bd eb82 7cb4
00000020: 26c2 583d d2da 0f3d da4e 3f3d 7fe1 a03d
00000030: eabd 1e3e e2fd 003e 91c5 9c3d 9059 5f3d
00000040: fcb2 803d fa47 ed3c 852a 79bd 3160 fd3d
00000050: 93c2 20be 230d eb3d ffa3 463d 2546 1c3c
00000060: e600 8abc d7d4 8f3d 4074 cc1f fa6a 003e
00000070: 19e8 833d 2f6b 393d 0dc2 063e dbdb c0bd
00000080: 9e78 2e3e ae00 c0bb 5509 7fbc 613d 21bd
00000090: d34b 39bd 5b29 61b6 c71e 0bbe 2cd3 5abd
000000a0: 9b62 f434 7ad1 01be cf10 593d 2eb4 ab3c
000000b0: 176c 8bbc 790e 0b3d 764d cdbd 594d a8bd
000000c0: acb4 aa3d 8ced 01be 8121 da3c 0117 fbbc
000000d0: ad16 133e 2670 b2bd 6bda dabc eb80 40bd
000000e0: 16e0 243e 0aff 383d ebac 57b4 9c7f 00be
000000f0: 4593 613c f05e e4bd 5b53 503d 4efb 1c3e
00000100: 4bc3 7b3c de92 39bc d0ea 9a24 2c71 d33c
00000110: 0c25 e83b 392c 682c 3c32 743c d467 0037
00000120: 5114 0932 e16b 343c fd21 1e20 ad54 0fbb
00000130: 2a02 183d caaa d53c d6b5 373d 1cba 1b3d
00000140: ae40 93bb 9250 023d 2c7e b5bd ea8f 133d
00000150: 38de bb3c 1984 28bd 1ea0 b13d 95b6 6cbd
00000160: 513d 103d fab2 93bc 01db 6ab6 5eae e0bd
00000170: f2fb 06bc 7271 e5bc ce23 65bc 0d54 483d
00000180: fa28 8a3d ddae 023e 4bf9 9b3d 4327 b0bb
00000190: 9a9c 4abd 9a3a dd22 576c 433d f44d e33d
000001a0: 2bd3 23a2 19e2 73bd d057 ad3d 8a9d 8e3c
000001b0: 3d85 763d aca0 d2bd 195b 5fbd d663 c2bd
000001c0: f45a 0f3c 1197 6f3d 92a2 d13d 42d4 e33c
000001d0: 910a b2ba ab2d 86bc 524e 3c3c ef49 9ebd
000001e0: 6d23 a23c 49eb ad33 a669 acae 2b8e 3bbd
000001f0: 740a a03d 8b99 abbd ab47 d33c df7d 21bc
00000200: ec59 8ebd 3bb6 28bc 1907 a73c 3310 0c3c
00000210: 6f76 6cbd 24a1 f03c 7595 543b 4642 0934
00000220: 73a7 b83d 2d22 0dbc 3023 ef3d 0d71 bbbd
00000230: 3fb4 ee3c 7796 b93a 87dc b03d 9c7e 0fbe
00000240: 0816 04be 574e 6cbd 914d 023b f1cc c53d
00000250: 78bc a53c c4c7 1b3e ceb0 a5bb 3379 e63d
00000260: 05f7 dd3d e255 ed3c da93 4c2f d355 35bd
00000270: 4d1f 053e d86d cf3c f0e1 39bd ea0a 0e3e
00000280: 983b b23b 81fe 4a3d f69c e7bd a6bd 083e
00000290: 0eee ee3d 9f47 92ae a98a 8f3d f327 25bd
000002a0: b32a 14bd 02f8 ebbc 181e 133d ed3f d9bd
000002b0: bb8e 7d3d 19ae 913d 9e31 f53c 817e 16be
000002c0: 84e9 53bd 71c7 a83d 5a9e b0bd 5bae 973c
000002d0: 2fa6 f0bd 0d47 323d 6bbf 7c3c 4653 c8bc
000002e0: 7a29 543d d7bc 7dba 2231 fb2b 7a78 ecbd
000002f0: ddc3 fc3d 0bbe a9bd 89fb 83bd 6524 633d
00000300: 8ba5 c5bb b828 cb3d c828 873d bebf 91bd
00000310: 9288 8cbd a5a8 d43c e43f c43d b40e 57a1
00000320: 595c a6bd fcf8 1e3d 44ec 823d 689d 01be
00000330: 5761 f23c 8856 153e 01ed 9b3d 38a1 b03d
00000340: 6534 88bd 492b 9e3d 8640 223c e755 723d
00000350: 891a ea3d 831f f63d da12 cf3b 9619 ee3d
00000360: c4ce cdbd b01f 04be 9f22 3623 45c5 653d
00000370: 0663 1ebd a321 963d 59aa b13d 0da3 393d
00000380: a2a2 913d 40c7 15bc d7cf 86bd 8d09 c5bd
00000390: da28 cfbd 0c77 6a36 0ebc 703d c3c4 f33c
000003a0: 5a07 92bc 27d9 8cbd 34d3 0b3e b6bc 093e
000003b0: 442d eb3b c707 82bc 4cab ccbd 91cd 31bd
000003c0: c047 723d f51c 623d d5d5 1c3e 4f52 053e
000003d0: b270 f6bd 81c8 1bbe d4a9 c73c b140 9ebd
000003e0: ff97 5c3d 50c9 2e3d 30ef 82a2 a476 3abd
000003f0: 4f15 f23d b0d2 3a3e c4b1 c43d 7968 17be

bias f4 [32]
-0.10144749 -0.0678347 -0.0013616267 -0.08245044 0.09951567 0.06916523 0.1302699 -0.08461378
0.051781654 -0.08019901 0.033924315 -0.08244149 0.028715841 2.1399061e-18 -0.002925232 -0.06965026
-0.08487771 0.12960665 -0.083084226 0.032495663 0.00018654545 -2.2405299e-08 0.12474947 -0.053968687
0.06162668 0.06149847 0.0650815 -1.154304e-19 -0.014484327 -0.0061127483 -0.00066321663 0.10132738
00000000: b4c3 cfbd ebec 8abd 9c78 b2ba c7db a8bd
00000010: dfce cb3d 80a6 8d3d 7965 053e fd49 adbd
00000020: 0019 543d 613f a4bd 39f4 0a3d 15d7 a8bd
00000030: 7c3d eb3c afe5 1d22 40b5 3fbb cca4 8ebd
00000040: 5dd4 adbd 9bb7 043e 1028 aabd 2c1a 053d
00000050: 6a9b 4339 c675 c0b2 a67c ff3d 450e 5dbd
00000060: 426c 7c3d d2e5 7b3d 7349 853d b346 08a0
00000070: ac4f 6dbc 734d c8bb b7db 2dba bb84 cf3d

weight f4 [10, 32]
0.13444234 0.007378809 -0.18937702 0.18208383 0.025607226 -0.044631626 0.07709939 -0.17964703
-0.24275887 -0.2794255 0.19127087 0.035861284 -0.009861069 0.00036440731 0.20749004 0.14404628
-0.13142322 0.123193555 0.024704957 -0.1386168 2.8123232e-08 6.190676e-05 -0.21603352 -0.14550091
-0.12096895 -0.09994077 -0.10602566 1.8499566e-12 0.0008753975 -0.008730954 -0.00019027607 0.10238574
0.06537797 0.0094369985 -0.0501026 -0.15436243 -0.14048976 0.056457978 -0.20745131 0.18033767
-0.058335304 0.03744203 0.009872258 -0.09937158 -0.012885892 2.9695133e-18 -0.1079803 0.119096704
-0.2196213 -0.061853807 0.17624934 0.14858915 -5.9083935e-18 4.752448e-06 -0.16919473 0.21087843
0.05839727 -0.009245013 -0.1671256 -5.6270767e-07 -0.004096685 -0.061787512 -0.0052840756 -0.0632741
0.22161266 0.10644675 0.21434516 -0.16088028 0.05782945 0.20012598 0.19875075 0.034050006
-0.1433256 -0.12923396 0.11539879 0.035696756 -0.08362878 -3.2537697e-09 -0.1563141 0.08050291
-0.112842895 0.0015299496 0.010849674 0.0020625717 0.0003020629 -1.2726972e-18 0.16651079 -0.15084776
0.08263784 0.09637576 -0.23325388 2.994051e-07 -0.0023644506 0.11728376 0.0014179471 -0.14084148
-0.107660785 -0.033279125 -0.09287677 -0.10063586 -0.040660746 0.19039287 0.0053067678 0.19975379
0.14078982 -0.20208417 0.118090056 -0.12640788 0.11643281 -1.1867212e-06 -0.11968415 -0.025488254
0.05655778 -0.038902115 -0.099729106 0.0008768683 -4.4707654e-16 1.7146805e-05 0.18747 -0.10314071
0.12688826 0.05345505 -0.09640371 0.0001010273 -0.0014346408 -0.07555876 -0.0028527898 0.112066716
-0.16885373 0.15577133 0.14336646 0.044793524 0.09828378 -0.020640628 -0.2887786 -0.12774944
-0.14580454 -0.15034756 -0.15710922 -0.15814957 0.098174945 9.62562e-05 -0.058271393 -0.061223194
0.10504878 -0.06265054 0.12386817 -0.0030205476 4.3505718e-08 -2.6102096e-17 -0.23190306 0.15344012
-0.18486212 0.106498085 0.09312722 -3.0842486e-19 0.001634278 0.10895029 8.023678e-09 -0.24288453
-0.17838088 0.023108356 0.14416555 -0.0742176 -0.12112393 -0.14042936 0.020389557 -0.15782383
0.20578451 0.06476086 0.21163407 0.110410444 0.045553923 1.7922444e-16 -0.047064994 0.060744274
0.07391843 0.18460019 0.12510829 -0.17908569 -9.726295e-16 -1.1662217e-18 -0.09463654 0.07323796
0.0028176974 0.13626844 -0.18714827 -8.51197e-06 -0.04446447 -0.22403589 0.0044604726 0.11880862
-0.0981868 0.003737193 -0.15394296 0.11468162 0.1807007 -0.1432022 0.03216683 -0.045020614
0.11560878 -0.14601585 0.054183003 0.056419842 -0.13596402 -4.7151248e-06 -0.19768736 0.090870656
-0.21740049 -0.11777842 -0.09181542 0.008746372 8.9085406e-05 -0.00029700415 -0.18064433 -0.08652023
-0.042967618 0.11056513 -0.019569708 -4.22176e-07 -3.2388543e-06 0.21695504 -5.7164204e-12 0.114075854
-0.061559495 -0.13141519 -0.14317386 0.0704992 -0.13174163 -0.15443511 0.049106274 -0.043015685
-0.12691976 0.17654711 -0.037230372 0.03473365 -0.17840669 1.2480873e-18 0.13206676 -0.11290822
-0.15229137 -0.065822765 0.15885192 -0.099980414 1.2467937e-09 1.8982565e-08 -0.1507786 -0.0689041
-0.04761836 -0.25770918 0.20794632 -9.640579e-20 -0.00026793085 0.0045973426 -0.000365913 -0.2124035
00000000: 41ab 093e f0c9 f13b 0dec 41be 2f74 3a3e
00000010: 3fc6 d13c a7cf 36bd 49e6 9d3d 64f5 37be
00000020: c895 78be dc10 8fbe 83dc 433e 48e3 123d
00000030: 5290 21bc ec0d bf39 4578 543e de80 133e
00000040: cf93 06be e74c fc3d 0d62 ca3c 90f1 0dbe
00000050: a493 f132 f0d3 8138 e437 5dbe 31fe 14be
00000060: 92be f7bd bfad ccbd fb23 d9bd db2d 022c
00000070: ef7a 653a 460c 0fbc d884 47b9 9daf d13d
00000080: e3e4 853d a49d 1a3c 6238 4dbd 2f11 1ebe
00000090: 8cdc 0fbe 7b40 673d 1e6e 54be 70aa 383e
000000a0: 00f1 6ebd d05c 193d 40bf 213c 5483 cbbd
000000b0: 591f 53bc 851c 5b22 c724 ddbd f9e8 f33d
000000c0: 68e4 60be 6b5a 7dbd b57a 343e c127 183e
000000d0: 33fb d9a2 3877 9f36 6241 2dbe 84f0 573e
000000e0: fa31 6f3d 6578 17bc f922 2bbe fa0c 17b5
000000f0: 7c3d 86bb e714 7dbd 0a26 adbb da95 81bd
00000100: 6eee 623e c100 da3d 4c7d 5b3e cdbd 24be
00000110: 93de 6c3d d3ed 4c3e 5185 4b3e 0578 0b3d
00000120: f2c3 12be e855 04be 3356 ec3d c336 123d
00000130: 9145 abbd ec98 5fb1 ce10 20be b6de a43d
00000140: 2d1a e7bd 9788 c83a d5c2 313c 362c 073b
00000150: 325e 9e39 24d1 bba1 ce81 2a3e d677 1abe
00000160: 073e a93d a860 c53d 1bda 6ebe ecbd a034
00000170: e6f4 1abb 7832 f03d 69da b93a c038 10be
00000180: 427d dcbd b14f 08bd 2d36 bebd 2c1a cebd
00000190: e28b 26bd 59f6 423e 65e4 ad3b 428c 4c3e
000001a0: 352b 103e 27ef 4ebe 33d9 f13d 1171 01be
000001b0: 5374 ee3d 6e47 9fb5 f71c f5bd becc d0bc
000001c0: 21a9 673d d357 1fbd c63e ccbd a3dd 653a
000001d0: 6ddc 00a6 7cd6 8f37 23f8 3f3e 703b d3bd
000001e0: ffee 013e aff3 5a3d 4f6f c5bd 9ede d338
000001f0: 8f0a bcba 8dbe 9abd dff5 3abb 3c83 e53d
00000200: fee7 2cbe 8582 1f3e a8ce 123e 6a79 373d
00000210: 0249 c93d 8916 a9bc cada 93be c0d0 02be
00000220: c94d 15be b6f4 19be 3de1 20be f6f1 21be
00000230: f20f c93d 27dd c938 fcad 6ebd 2cc5 7abd
00000240: d123 d73d ed4e 80bd 98ae fd3d 61f4 45bb
00000250: 0bdb 3a33 d5bf f0a3 ff77 6dbe 681f 1d3e
00000260: 7f4c 3dbe ab1b da3d 7cb9 be3d d90f b6a0
00000270: 4535 d63a 5421 df3d 82d8 0932 b9b6 78be
00000280: 7aa9 36be bc4d bd3c 22a0 133e 66ff 97bd
00000290: d30f f8bd b7cc 0fbe 0008 a73c 929c 21be
000002a0: 2db9 523e 57a1 843d 9ab6 583e df1e e23d
000002b0: c096 3a3d b8a1 4e25 39c7 40bd fdce 783d
000002c0: 8c62 973d d507 3d3e 631c 003e 3d62 37be
000002d0: b22b 8ca6 9c1a aca1 cdd0 c1bd c9fd 953d
000002e0: 1ea9 383b f489 0b3e cca3 3fbe a2ce 0eb7
000002f0: 6020 36bd aa69 65be 2829 923b ef51 f33d
00000300: 2916 c9bd b2eb 743b 39a3 1dbe 32de ea3d
00000310: 9b09 393e 99a3 12be 5ec1 033d 8967 38bd
00000320: 4cc4 ec3d 2e85 15be ffee 5d3d 7e18 673d
00000330: 273a 0bbe 9d36 9eb6 8e6e 4abe 651a ba3d
00000340: 3c9e 5ebe d035 f1bd b909 bcbd f14c 0f3c
00000350: 5dd3 ba38 39b7 9bb9 d4fa 38be 8531 b1bd
00000360: d0fe 2fbd f96f e23d a750 a0bc 6da7 e2b4
00000370: 185b 59b6 7629 5e3e f020 c9ac 9aa0 e93d
00000380: cf25 7cbd b491 06be 2b9c 12be e261 903d
00000390: 47e7 06be 3d24 1ebe a923 493d 3731 30bd
000003a0: 41f7 01be c4c8 343e e07e 18bd df44 0e3d
000003b0: 3eb0 36be 682f b821 823c 073e 6d3c e7bd
000003c0: 45f2 1bbe 16ce 86bd 14aa 223e 88c2 ccbd
000003d0: a75b ab30 1a0f a332 b565 1abe 981d 8dbd
000003e0: 780b 43bd 75f2 83be e1ef 543e b9a1 e39f
000003f0: 1279 8cb9 4ea5 963b 03d8 bfb9 4e80 59be

bias f4 [10]
0.11620761 -0.09514353 -0.09369671 -0.14782836 -0.10297531 0.12167656 0.01545035 0.14328304
0.13126582 -0.012239621
00000000: 41fe ed3d 9cda c2bd 10e4 bfbd 5160 17be
00000010: b8e4 d2bd 8f31 f93d 7723 7d3c cab8 123e
00000020: 8c6a 063e b188 48bc
