Assignments/Assignment 4/results/classifier_mlp/classifier_mlp.model (torch, 97223 bytes, 10 tensors)

weight f4 [128, 64]
1.4530274e-10 -0.011258482 -0.029130258 0.03291578 0.009746453 -0.0037326228 -0.02629656 -0.0071604727
-2.6605204e-17 0.01300569 -0.021257443 -0.007875673 -0.045133103 0.0023056353 -0.015413529 -0.011216023
2.0465674e-05 -0.0042276112 0.00956595 0.08793512 0.051737882 0.0055169645 0.074797995 -0.0058079194
8.804131e-19 -0.018665474 -0.09042229 0.019537317 0.030690953 0.0069001913 0.065465294 -0.013158624
-6.51085e-16 -0.0011708847 -0.009253083 -0.018516291 -0.00097576063 -0.059118763 0.057259224 -1.8228325e-18
-0.006398583 0.0072150608 0.035496578 -0.04181677 0.014552653 -0.041017972 -0.008136356 5.895572e-12
-0.006421091 -0.025549458 0.010934047 -0.022814166 -0.029186623 -0.027069643 0.08564635 -0.02485324
3.3754534e-17 0.009278301 0.015413247 0.0018061114 0.00567861 -0.044463065 0.015929442 -0.007235075
-1.8212193e-08 -0.12736729 0.04724838 0.10006693 -0.049074553 -0.088340774 0.12029337 -0.018583057
0.0061544375 -0.06884863 0.09206527 0.11477701 -0.0468768 0.012142906 0.09379766 0.07252467
0.040261623 0.07504176 0.021659382 -0.0059221587 -0.04403048 0.102678984 0.16369922 -0.09465171
-0.003614222 -0.0634424 -0.07044327 -0.086721644 -0.023923038 0.1530097 0.06933662 -0.122503646
-5.4252285e-17 -0.06027895 -0.044863112 -0.117636 -0.03432146 -0.093231164 -0.0050188 6.863463e-11
-0.118751295 0.07737761 -0.057530552 -0.07270458 0.089532815 -0.0465892 0.011575003 -0.07307531
-0.023141349 0.045640066 0.114377975 0.057521045 0.03561446 0.013589279 -0.005845652 0.025799582
0.040969662 0.073195636 0.0805813 -0.0938014 0.05908868 0.010049034 -0.012628627 -0.051366378
6.707202e-12 0.090581074 -0.078144066 -0.026403487 0.09034604 0.013190269 0.10783463 -0.017369375
0.026702587 0.054084547 0.010893419 -0.1009156 0.094503306 0.079159915 0.04812084 0.11924078
0.061572116 0.09008465 0.041301176 0.07357939 0.16636902 -0.12247372 0.056850094 0.04738739
-0.02672155 -0.050847307 0.10493355 0.12978916 0.070690796 -0.06381243 -0.11002059 -0.07344169
5.7094084e-17 0.017433109 -0.11735171 0.042301793 -0.06289742 0.0660945 -0.04097053 -6.4463e-18
-0.0993501 -0.069076054 -0.11925263 0.023312792 -0.004751121 -0.14789017 -0.13299224 0.029087193
0.023368351 0.0103386305 0.08029881 0.11269369 0.1356246 0.021950778 0.0754608 -0.02700708
0.012120254 -0.011599159 -0.106046446 -0.029415408 -0.1037055 0.043237496 0.02396332 0.14024357
-3.5844583e-12 -0.052314527 -0.03129415 -0.04009091 -0.03134649 -0.08949988 0.05650724 0.08627651
-0.013644859 -0.034729417 -0.021077327 0.06462487 0.051144976 0.046391197 0.03463083 0.12034369
0.007957537 0.11380806 -0.02573816 -0.023980323 0.032163203 0.14746842 0.12059157 -0.022167372
-0.025932165 -0.15647182 -0.07101724 0.12470768 0.030040067 0.08251885 -0.053990908 0.08215604
-2.8758846e-16 -0.13069408 -0.12311714 0.14477873 0.16656402 0.06837074 -0.12137931 3.1280295e-05
0.081094705 0.08092778 0.05377311 -0.040284336 0.033196475 0.0013231832 -0.1451888 0.0397704
0.039506495 0.016115343 0.030874487 -0.01597424 0.15107846 0.055835538 0.061745297 0.060200542
0.016075343 -0.07374102 0.026103847 -0.044902794 0.05324 0.06252811 0.030497689 0.014869414
00000000: 16c3 1f2f 7f75 38bc 94a2 eebc b2d2 063d
00000010: 96af 1f3c 059f 74bb e26b d7bc 66a2 eabb
00000020: c363 f5a3 d115 553c 1724 aebc f708 01bc
00000030: 7ddd 38bd 241a 173b 0789 7cbc 69c3 37bc
00000040: b3ad ab37 c687 8abb 81ba 1c3c 5417 b43d
00000050: 1aeb 533d a7c7 b43b b12f 993d 5c50 bebb
00000060: 11ed 8121 56e8 98bc 522f b9bd b90c a03c
00000070: 986b fb3c 001b e23b ab12 863d 4597 57bc
00000080: 98a9 3ba6 5f78 99ba 3e9a 17bc 7aaf 97bc
00000090: 30ca 7fba 8426 72bd a688 6a3d 5580 06a2
000000a0: 34ab d1bb 516c ec3b dc64 113d 1048 2bbd
000000b0: 406e 6e3c 7602 28bd 5a4e 05bc 976e cf2c
000000c0: 0468 d2bb 194d d1bc b824 333c c6e4 babc
000000d0: c918 efbc 28c1 ddbc 5b67 af3d 0699 cbbc
000000e0: 52aa 1b24 0404 183c d887 7c3c 0bbb ec3a
000000f0: a213 ba3b e71e 36bd 767e 823c 3514 edbb
00000100: 0971 9cb2 926c 02be 8487 413d e4ef cc3d
00000110: 6602 49bd 02ec b4bd 5f5c f63d 7f3b 98bc
00000120: 2aab c93b 8300 8dbd b78c bc3d 3610 eb3d
00000130: e301 40bd 0af3 463c fd18 c03d d087 943d
00000140: 5fe9 243d 7faf 993d 046f b13c ab0e c2bb
00000150: 4e59 34bd 5c49 d23d c5a0 273e c1d8 c1bd
00000160: 95dc 6cbb 17ee 81bd 9044 90bd 1e9b b1bd
00000170: 3ffa c3bc 93ae 1c3e 5c00 8e3d 31e3 fabd
00000180: cb31 7aa4 0fe7 76bd 62c2 37bd 25eb f0bd
00000190: a994 0cbd fbef bebd bf74 a4bb dded 962e
000001a0: e133 f3bd 2778 9e3d 28a5 6bbd 24e6 94bd
000001b0: fb5c b73d 51d4 3ebd 15a5 3d3c 82a8 95bd
000001c0: ed92 bdbc 14f1 3a3d 003f ea3d 309b 6b3d
000001d0: 78e0 113d 91a5 5e3c e28c bfbb a559 d33c
000001e0: cecf 273d 98e7 953d cf07 a53d f31a c0bd
000001f0: f906 723d b4a4 243c 4de8 4ebc 8d65 52bd
00000200: 1bfd eb2c 9282 b93d ff09 a0bd 204c d8bc
00000210: 5807 b93d ff1b 583c 67d8 dc3d 384a 8ebc
00000220: 62bf da3c c287 5d3d 507a 323c d7ac cebd
00000230: f38a c13d 981e a23d 5c1a 453d 8334 f43d
00000240: 0b33 7c3d 4d7e b83d 6c2b 293d cbb0 963d
00000250: a45c 2a3e 80d3 fabd a5db 683d 4819 423d
00000260: 27e7 dabc 4445 50bd 67e7 d63d 73e7 043e
00000270: 56c6 903d 17b0 82bd 7a52 e1bd 9968 96bd
00000280: 66a6 8324 e1cf 8e3c 1856 f0bd a544 2d3d
00000290: 5dd0 80bd 8e5c 873d b7d0 27bd 95d3 eda2
000002a0: 1178 cbbd bf77 8dbd b93a f4bd 78fa be3c
000002b0: 4baf 9bbb 8570 17be 1e2f 08be 4448 ee3c
000002c0: fc6e bf3c 5c63 293c b473 a43d f3cb e63d
000002d0: 2de1 0a3e 1ed2 b33c 318b 9a3d f43d ddbc
000002e0: 0894 463c 660a 3ebc e12e d9bd 95f8 f0bc
000002f0: 8d63 d4bd cd19 313d b94e c43c 039c 0f3e
00000300: dc3b 7cac c247 56bd 4b2e 00bd 5e36 24bd
00000310: 2d65 00bd b74b b7bd 2374 673d bdb1 b03d
00000320: b08e 5fbc 6f40 0ebd 5caa acbc 0b5a 843d
00000330: 657d 513d b204 3e3d 0fd9 0d3d c176 f63d
00000340: 5460 023c 3314 e93d d5d8 d2bc 6272 c4bc
00000350: 90bd 033d f601 173e b7f8 f63d 5998 b5bc
00000360: b16f d4bc 263a 20be 7d71 91bd bd66 ff3d
00000370: 9616 f63c a5ff a83d 9225 5dbd 6d41 a83d
00000380: 91c8 a5a5 abd4 05be d724 fcbd e040 143e
00000390: c28f 2a3e f505 8c3d b795 f8bd f632 0338
000003a0: fb14 a63d 77bd a53d 3141 5c3d 3001 25bd
000003b0: 07f9 073d a96e ad3a 5fac 14be 49e6 223d
000003c0: 90d1 213d 5304 843c 7eec fc3c 69dc 82bc
000003d0: 50b4 1a3e ceb3 643d a3e8 7c3d d894 763d
000003e0: 70b0 833c 8805 97bd bcd7 d53c feeb 37bd
000003f0: 3012 5a3d bd0e 803d 4ad6 f93c d89e 733c

bias f4 [128]
0.0136234695 -0.03756158 0.04270923 0.050104313 -0.06656685 -0.010671073 -0.050392345 -0.09313754
0.08912017 0.052321814 0.11042371 -0.02668665 0.08461932 -0.05345421 -0.03788625 0.0020571686
0.0069941287 0.081102155 -0.046715584 0.037007906 -0.006152061 -0.044012807 0.07426105 0.05640519
-0.0033188197 0.07728744 0.11536112 0.102110274 0.11067599 -0.09727248 -0.07492744 -0.046562973
-0.0535831 0.09455186 0.09178447 0.14716601 0.068599634 -0.096869424 -0.04843886 -0.062564984
0.11341138 -0.02099098 0.054013684 0.06203219 0.077696174 -0.073858455 -0.01567318 -0.005066605
0.06646064 0.13824639 0.1123451 -0.09279525 -0.09171735 -0.10391224 -0.04176228 -0.060713507
0.0076721464 0.005019047 0.024291374 -0.04023796 -0.031164099 0.13546324 -0.02177295 0.13321336
0.03185102 0.07353412 -0.042441305 0.09702813 -0.046859697 0.10184973 -0.012244199 -0.045608766
-0.05883808 0.062471464 -0.042624548 0.11140573 -0.11442606 -0.022241317 0.09002571 -0.038972914
0.002920481 -0.084436916 0.0013414138 -0.0281923 -0.08540464 0.14796886 0.014195545 0.05415129
0.14092568 -0.04040732 0.07581381 -0.07317772 0.018770898 -0.0064324997 0.031027677 -0.018136477
0.048980094 -0.0643771 -0.09692809 0.12630208 0.047063146 -0.084249325 0.015960542 -0.017303826
-0.032419126 0.13487104 -0.035908315 -0.058732018 0.09473197 -0.060006093 0.13538513 0.043978445
0.11781428 -0.09979222 0.05827745 0.010167615 0.036721088 -0.0053529576 0.10764679 -0.07884465
-0.00910492 0.031210665 -0.006008349 0.07668047 0.038249087 0.11318772 0.050898567 -0.003772193
00000000: f934 5f3c 2cda 19bd e0ef 2e3d 2e3a 4d3d
00000010: 3354 88bd b9d5 2ebc 3468 4ebd e5be bebd
00000020: a384 b63d 664f 563d d325 e23d f69d dabc
00000030: e54c ad3d cdf2 5abd 9d2e 1bbd 90d1 063b
00000040: 012f e53b e318 a63d d758 3fbd 9a95 173d
00000050: 3a97 c9bb c646 34bd 2d16 983d 2109 673d
00000060: 8e80 59bb e148 9e3d 7342 ec3d 311f d13d
00000070: 18aa e23d cb36 c7bd 8f73 99bd d1b8 3ebd
00000080: f479 5bbd 68a4 c13d 7ff9 bb3d b0b2 163e
00000090: f77d 8c3d 7a63 c6bd d367 46bd 1222 80bd
000000a0: 3a44 e83d 47f5 abbc 743d 5d3d 7715 7e3d
000000b0: 2c1f 9f3d 1a43 97bd 0a65 80bc c305 a6bb
000000c0: 841c 883d 7690 0d3e 3015 e63d 700b bebd
000000d0: 4ed6 bbbd f1cf d4bd ed0e 2bbd baae 78bd
000000e0: a166 fb3b d176 a43b b4fe c63c 8fd0 24bd
000000f0: da4b ffbc e0b6 0a3e 305d b2bc 1569 083e
00000100: 3776 023d 0f99 963d efd6 2dbd afb6 c63d
00000110: f4ef 3fbd 9796 d03d e59b 48bc 42d0 3abd
00000120: 3300 71bd 14e2 7f3d 1497 2ebd b028 e43d
00000130: 3658 eabd 6c33 b6bc 665f b83d 10a2 1fbd
00000140: 8a65 3f3b 43ed acbd 61d2 af3a 8af3 e6bc
00000150: a1e8 aebd 2685 173e 6e94 683c becd 5d3d
00000160: d24e 103e 2582 25bd 4544 9b3d 33de 95bd
00000170: 6dc5 993c b8c7 d2bb c12d fe3c f392 94bc
00000180: 5a9f 483d 24d8 83bd 3c82 c6bd 5555 013e
00000190: 49c5 403d e98a acbd afbf 823c c1c0 8dbc
000001a0: ebc9 04bd a21b 0a3e 9914 13bd fc90 70bd
000001b0: d602 c23d f3c8 75bd 66a2 0a3e be22 343d
000001c0: 9d48 f13d dd5f ccbd 56b4 6e3d 1196 263c
000001d0: da68 163d dd67 afbb ec75 dc3d 4e79 a1bd
000001e0: cd2c 15bc 82ad ff3c afe1 c4bb a60a 9d3d
000001f0: 13ab 1c3d f7ce e73d 047b 503d e636 77bb

weight f4 [64, 128]
0.034305245 0.024180572 0.021477308 0.084333874 -0.04925379 0.060537476 -0.105159715 0.08840286
0.07479923 -0.012026607 0.076603666 0.08952972 -0.027619744 0.08231241 0.08512599 -0.016348965
0.072881766 0.04233015 0.008072666 -0.01010381 0.14034742 -0.033051144 -0.038654007 -0.066296205
-0.035621703 -0.1036093 -0.0646142 -0.0972766 -0.051371947 0.10884168 0.1119357 0.005122047
0.101418026 -0.06472408 -0.082692534 0.09694762 0.08453445 0.09863301 0.1013595 -0.037485257
-0.06167483 0.028799739 0.004509495 0.115998775 0.0091330325 -0.02032769 -0.023489444 0.05323642
-0.0053483383 0.0662386 0.07067066 -0.06868008 -0.03665467 0.088773854 0.027549686 0.053408965
-0.026069175 0.057503406 0.0005708522 0.019281724 0.070523635 0.06634617 0.02888361 0.12705614
0.12577415 -0.0068505607 -0.008007096 0.13043931 -0.095365606 0.07192668 0.06453612 -0.042880602
-0.016937299 -0.020678867 0.044896238 0.085841775 0.018145816 0.11450125 0.029858645 -0.051769838
0.1344154 0.043103214 -0.0638846 -0.04107534 0.06254001 -0.12308411 -0.07418157 0.026760148
0.08806846 0.1421276 0.08980181 -0.03919094 -0.021814018 -0.07391519 -0.014546392 0.017522534
0.010719764 0.046022534 0.023013573 0.009180887 0.10759049 0.0028609205 0.107207745 0.030271823
0.048234873 0.0017115695 -0.04979252 0.044731725 -0.0065755346 0.13340236 0.12744617 0.079740815
0.043912254 0.010274832 0.06833245 -0.012649661 -0.058352616 -0.019859321 -0.027731903 -0.0029038712
0.07087455 -0.019437615 -0.05410983 -0.05685962 -0.021960963 0.08713062 0.044738274 0.078391835
-0.0033977602 0.11492104 -0.0792764 -0.046163917 -0.08131047 0.108880855 -0.10966908 -0.044522803
0.15529837 -0.05539835 0.047840446 0.021969903 -0.12873647 0.15295225 -0.011872251 0.042420596
0.07174001 0.0100519145 -0.004647693 0.05803847 0.021170774 -0.033982545 0.090473 -0.11148541
0.1211302 0.045745693 -0.03251154 0.03672648 0.08406201 0.07203217 0.07833268 0.10215767
0.09898898 0.059002534 -0.091935374 0.052337598 0.0062139654 -0.08868358 -0.058663823 0.07136143
0.0098266015 -0.0061985482 0.059262738 0.018419791 -0.076648585 -0.11527787 -0.060514968 0.096156314
0.020682503 0.09424783 -0.048502624 0.026699811 -0.023918064 0.008572672 0.06452107 -0.09200476
-0.04127544 -0.09201122 -0.059598103 -0.03109317 -0.086078614 0.15032269 0.112206854 0.10440978
0.07427164 -0.133868 -0.0796345 0.088663116 0.013071832 0.012439515 0.03972347 0.13831384
0.11295357 0.08197104 0.10787714 -0.059694763 -0.14947292 0.06220862 -0.044452317 -0.054822013
0.07979493 0.02381253 -0.10237432 0.0018231783 0.060266856 0.07057027 0.064220585 0.047600944
-0.0151861925 0.14014006 0.07905624 0.019111613 -0.026937352 0.035142217 0.010455322 0.05848419
-0.02098365 0.09502466 0.012443241 0.029328896 0.108589865 0.023822578 -0.08475599 0.028241161
-0.017336212 -0.086307935 0.033307046 -0.06979681 0.07753025 0.0588485 0.10043559 0.0090822475
0.11417819 -0.017838985 -0.103459746 -0.014744642 -0.033097778 0.013835943 0.04245192 -0.027721213
-0.054153584 -0.00029259935 0.069886304 0.11073944 -0.03832545 -0.07166743 0.029166503 0.015237425
00000000: a883 0c3d 5616 c63c 2ef1 af3c 3db7 ac3d
00000010: 58be 49bd 25f6 773d fa5d d7bd 8f0c b53d
00000020: 5730 993d 3f0b 45bc 62e2 9c3d 5c5b b73d
00000030: cd42 e2bc 6993 a83d 8956 ae3d 44ee 85bc
00000040: 0943 953d 6162 2d3d 3743 043c 738a 25bc
00000050: 3cb7 0f3e a360 07bd aa53 1ebd 4ec6 87bd
00000060: 10e8 11bd 1d31 d4bd 7354 84bd f438 c7bd
00000070: 646b 52bd 63e8 de3d 8b3e e53d d8d6 a73b
00000080: 41b4 cf3d 0f8e 84bd b45a a9bd 798c c63d
00000090: 6620 ad3d 1b00 ca3d 9295 cf3d 248a 19bd
000000a0: bf9e 7cbd 6eed eb3c 63c4 933b c490 ed3d
000000b0: b7a2 153c 4186 a6bc ef6c c0bc 6f0e 5a3d
000000c0: 1d41 afbb 1aa8 873d c7bb 903d 24a8 8cbd
000000d0: 3523 16bd 11cf b53d e1af e13c 5cc3 5a3d
000000e0: 068f d5bc b188 6b3d 3ea5 153a b5f4 9d3c
000000f0: b26e 903d 80e0 873d 529d ec3c 011b 023e
00000100: f0ca 003e ab7a e0bb 3230 03bc e291 053e
00000110: 0b4f c3bd 4c4e 933d 832b 843d 92a3 2fbd
00000120: 17c0 8abc ba66 a9bc 1ee5 373d d0cd af3d
00000130: 89a6 943c a27f ea3d 1e9a f43c 9c0c 54bd
00000140: 31a4 093e ff8c 303d eed5 82bd 9e3e 28bd
00000150: fa14 803d 8613 fcbd 82ec 97bd 1938 db3c
00000160: 3d5d b43d e689 113e 03ea b73d ae86 20bd
00000170: 50b3 b2bc d960 97bd fd53 6ebc 6b8b 8f3c
00000180: f3a1 2f3c 2082 3c3d f686 bc3c 6e6b 163c
00000190: 6758 dc3d 487e 3b3b bc8f db3d 9dfc f73c
000001a0: ee91 453d be56 e03a 3ef3 4bbd 9d38 373d
000001b0: 9577 d7bb a19a 083e 4081 023e 274f a33d
000001c0: 56dd 333d c557 283c e2f1 8b3d 8640 4fbc
000001d0: 2703 6fbd 04b0 a2bc 042e e3bc e04e 3ebb
000001e0: ad26 913d a23b 9fbc 45a2 5dbd a2e5 68bd
000001f0: 7ae7 b3bc 8a71 b23d 7b3f 373d e68b a03d
00000200: f5ac 5ebb b95b eb3d aa5b a2bd 6016 3dbd
00000210: 1b86 a6bd edfc de3d 2f9a e0bd 8b5d 36bd
00000220: 8906 1f3e 61e9 62bd 58f4 433d 3afa b33c
00000230: 7ed3 03be 849f 1c3e d483 42bc 38c1 2d3d
00000240: 6dec 923d c9b0 243c ad4b 98bb bfb9 6d3d
00000250: 556e ad3c 4831 0bbd e949 b93d 7652 e4bd
00000260: 1c13 f83d d65f 3b3d d22a 05bd 816e 163d
00000270: b428 ac3d 9a85 933d e26c a03d 0a38 d13d
00000280: bcba ca3d a4ac 713d 9d48 bcbd f35f 563d
00000290: 859e cb3b bd9f b5bd 7a49 70bd f125 923d
000002a0: c1ff 203c 311d cbbb 7cbd 723d 1ae5 963c
000002b0: eff9 9cbd ce16 ecbd 8bde 77bd 9aed c43d
000002c0: 5a6e a93c 0205 c13d b0aa 46bd 90b9 da3c
000002d0: d1ef c3bc 6474 0c3c 9f23 843d fe6c bcbd
000002e0: 7010 29bd 6170 bcbd 241d 74bd 1bb7 febc
000002f0: fc49 b0bd 31ee 193e b5cc e53d cbd4 d53d
00000300: bb1b 983d b114 09be 6a17 a3bd 0295 b53d
00000310: 3d2b 563c 1ccf 4b3c 14b5 223d 25a2 0d3e
00000320: 3454 e73d 6fe0 a73d b1ee dc3d 7f82 74bd
00000330: 6e0f 19be 77ce 7e3d a213 36bd 0c8d 60bd
00000340: 866b a33d 7f12 c33c a1a9 d1bd b6f7 ee3a
00000350: 61da 763d 2587 903d 1586 833d 35f9 423d
00000360: 82cf 78bc e080 0f3e 3de8 a13d f58f 9c3c
00000370: b9ab dcbc 49f1 0f3d cd4c 2b3c 1e8d 6f3d
00000380: e7e5 abbc 4a9c c23d bcde 4b3c 2743 f03c
00000390: 5d64 de3d 9127 c33c 8c94 adbd 025a e73c
000003a0: ac04 8ebc 37c2 b0bd f86c 083d a1f1 8ebd
000003b0: 2ec8 9e3d 200b 713d 2db1 cd3d b5cd 143c
000003c0: 41d6 e93d 1023 92bc b4e2 d3bd 8393 71bc
000003d0: 8991 07bd 27b0 623c 11e2 2d3d 9917 e3bc
000003e0: 26d0 5dbd 0568 99b9 8d20 8f3d 5ccb e23d
000003f0: 26fb 1cbd 60c6 92bd 97ee ee3c 65a6 793c

bias f4 [64]
0.10428344 0.09651549 0.06506307 0.053352486 0.026943333 0.08589331 -0.053082537 -0.023830133
0.016776092 0.024975143 -0.011239618 0.047554586 0.007678246 0.04641028 2.2017318e-08 0.020836774
-0.07880535 -0.05761071 -0.059632383 -0.059547115 0.09510606 -0.05668937 -0.024677655 0.077984594
-0.058695417 -0.05237179 -0.040811278 0.075204834 -0.009723147 -0.03907403 -0.016804403 -0.027280739
-0.07623519 0.060001224 -0.057567783 -0.022231255 0.038911883 -0.027421463 -0.0065862173 -0.04504558
-0.052158274 0.013375227 -0.013768071 -0.053610686 -0.055134736 0.078275196 -0.004243063 0.030428356
-0.045064516 0.004533079 -0.054554634 -0.0426791 -0.030079417 0.06314081 0.0751845 -0.012862211
0.04595056 -0.028779631 -0.052411214 0.09016809 0.00049598725 0.08715025 0.042024586 -0.06292501
00000000: 8e92 d53d eaa9 c53d c93f 853d 2388 5a3d
00000010: 44b8 dc3c d5e8 af3d 136d 59bd 6937 c3bc
00000020: 046e 893c ac98 cc3c 6026 38bc 99c8 423d
00000030: cc99 fb3b b518 3e3d 9820 bd32 e2b1 aa3c
00000040: b364 a1bd 35f9 6bbd 1641 74bd ade7 73bd
00000050: f7c6 c23d 1d33 68bd cb28 cabc 63b6 9f3d
00000060: 9b6a 70bd cd83 56bd ba29 27bd fe04 9a3d
00000070: d64d 1fbc 170c 20bd 63a9 89bc db7b dfbc
00000080: 3221 9cbd d8c3 753d 32cc 6bbd 521e b6bc
00000090: 1162 1f3d faa2 e0bc 32d1 d7bb b781 38bd
000000a0: eaa3 55bd c523 5b3c 7a93 61bc e196 5bbd
000000b0: f6d4 61bd bf4e a03d 6409 8bbb e344 f93c
000000c0: 9295 38bd 398a 943b ae74 5fbd 48d0 2ebd
000000d0: 1c69 f6bc f84f 813d 55fa 993d 06bc 52bc
000000e0: a836 3c3d 43c3 ebbc 24ad 56bd 0caa b83d
000000f0: 2405 023a d57b b23d f921 2c3d d4de 80bd

weight f4 [64, 64]
0.11245256 0.17935784 -0.049332324 -0.09466 0.009653096 -0.052392967 -0.043715518 0.059205383
0.12448114 -7.534517e-08 -0.149551 0.046556912 0.052597437 -0.016415859 3.0744144e-12 0.07410015
-0.109270304 -0.09786298 -0.115116924 -0.13219425 -0.013186933 -0.051689792 -0.010871932 2.5129735e-17
0.034591865 0.03396263 -0.03398798 0.10266812 0.11253823 -0.041279852 -0.03794409 0.13201167
0.019059226 -0.1236939 -0.062059063 0.06157253 0.08002018 1.8880656e-17 -0.07608064 -0.047765512
0.052726306 -0.006494842 -0.009326038 0.045398265 0.05864989 -0.07144639 0.12371411 -0.018445633
-0.032220215 -0.06271692 -0.037861343 0.04955673 0.0108798975 -0.02246441 -0.07303958 0.05120952
-0.064177714 0.010189316 -0.049327068 -0.049831558 0.07983691 0.13887271 -0.002837212 0.16850138
-0.016527776 0.06518015 -0.15536954 -0.1300983 -0.099059336 0.06731959 -0.028642217 -0.05745184
-0.08156411 -0.08933636 -0.12043077 0.08952108 -0.09443481 0.047299553 6.6656715e-17 0.012186285
0.08428956 0.11545272 0.12868953 0.08723577 0.04794971 0.03813508 0.14522326 0.097826794
0.14793201 -0.023828192 -0.010107855 0.054798525 0.005776993 0.07387034 0.0040410687 -0.0015317526
0.0056784474 0.012917999 0.013506632 0.07227105 0.10912652 1.3705933e-05 -0.08690765 0.004149794
-0.0964035 0.058113907 -0.006092193 0.14144717 0.15318392 0.06685125 -0.026702678 -0.11055286
-0.13515271 -0.069467515 -0.11785515 -0.041533142 -0.0535583 -0.08939816 0.11218785 0.07190947
0.035996184 0.0032680964 -0.088922136 -0.0046924674 0.05167094 -0.124852665 0.04303851 -0.07973176
0.02245761 0.09593273 0.047833223 -0.06280042 0.04152085 -0.09012202 0.0055148415 0.059413902
0.0292196 0.00053466926 0.024002902 0.1736301 -0.08722377 -0.062261164 1.810768e-10 -0.02544012
0.008152993 -0.019192507 0.08204916 -0.04039219 0.044892024 -0.005104704 0.07851797 -0.10006286
0.17212513 -0.11341535 0.09337655 0.013636656 -0.047157615 -0.06744333 0.06246218 -0.02106501
0.038462438 0.079895504 0.1041756 0.024378685 -0.06525458 0.050549377 -0.0012223257 0.13238473
0.14172617 0.0018216972 0.099981256 0.0569166 0.1001484 0.106923714 0.11890557 -0.10604134
0.13735276 -0.0268597 0.085516475 0.15292841 0.10103475 0.10970718 0.10546365 -0.019723803
0.12066536 0.03916933 -0.03233301 -0.039931584 0.034849595 0.13395368 -0.021570204 0.02133094
0.04643484 0.07529223 -0.04307584 0.059098102 0.16689642 0.12534045 0.0842051 0.030515082
0.11780129 0.08208948 -0.100391634 0.07989568 -0.11716854 0.0654599 -1.646137e-16 0.033994228
-0.03410058 -0.038582522 0.03791945 0.09879562 -0.12331733 0.00048320237 0.04859098 0.08253141
-0.00965443 -0.06763862 0.1036604 -0.046204418 0.12707914 0.05822227 0.046411533 0.038876962
0.024864554 -0.084093474 -0.073087744 -0.0151270125 -0.05038628 -0.024332613 -0.036695912 -0.09772141
-0.09204886 -0.08380825 0.098259486 0.0049861087 0.08013021 -0.09320054 0.0401818 0.0692494
0.031834994 0.14495967 0.1587365 -0.06739073 0.12385716 0.05597847 0.036338534 0.10212846
0.04734467 -0.0036590968 -0.035317235 0.07197111 -0.0013810245 -0.04699472 0.07422291 0.13771476
00000000: 874d e63d 95a9 373e b110 4abd 1add c1bd
00000010: 0528 1e3c 029a 56bd 0b0f 33bd 5881 723d
00000020: f8ef fe3d 72cd a1b3 e623 19be 76b2 3e3d
00000030: 6970 573d 8d7a 86bc ba57 582c d2c1 973d
00000040: 1cc9 dfbd 636c c8bd 6cc2 ebbd ee5d 07be
00000050: 010e 58bc adb8 53bd 3020 32bc e9c7 e723
00000060: 33b0 0d3d 661c 0b3d fb36 0bbd aa43 d23d
00000070: 727a e63d 1015 29bd 436b 1bbd 112e 073e
00000080: 1822 9c3c 3a53 fdbd a531 7ebd 7a33 7c3d
00000090: 9fe1 a33d b024 ae23 2bd0 9bbd c5a5 43bd
000000a0: 8af7 573d afd2 d4bb 3dcc 18bc 88f3 393d
000000b0: de3a 703d 7c52 92bd d35d fd3d 4c1b 97bc
000000c0: 58f9 03bd bb71 80bd 7f14 1bbd fffb 4a3d
000000d0: 9941 323c 4807 b8bc c695 95bd 13c1 513d
000000e0: 9b6f 83bd 17f1 263c 2e0b 4abd 2d1c 4cbd
000000f0: 8981 a33d a634 0e3e 85f0 39bb a08b 2c3e
00000100: 4265 87bc 2c7d 853d 3119 1fbe 7d38 05be
00000110: 9fdf cabd dade 893d 15a3 eabc 9f52 6bbd
00000120: 160b a7bd fbf5 b6bd 68a4 f6bd d456 b73d
00000130: 0a67 c1bd 2dbd 413d 2eb3 9924 fca8 473c
00000140: 01a0 ac3d 7a72 ec3d 30c7 033e aba8 b23d
00000150: ea66 443d 8833 1c3d 68b5 143e 6a59 c83d
00000160: 7d7b 173e 5733 c3bc 6b9b 25bc 6b74 603d
00000170: ee4c bd3b 5549 973d f16a 843b 17c5 c8ba
00000180: 4512 ba3b 04a6 533c ec4a 5d3c d802 943d
00000190: ba7d df3d 89f2 6537 a3fc b1bd fffa 873b
000001a0: 336f c5bd d908 6e3d 05a1 c7bb 87d7 103e
000001b0: 3fdc 1c3e 4fe9 883d 93bf dabc 8a69 e2bd
000001c0: 7965 0abe fc44 8ebd 0a5e f1bd a81e 2abd
000001d0: f35f 5bbd 6216 b7bd bec2 e53d 4645 933d
000001e0: bc70 133d 8f2d 563b cf1c b6bd 45c3 99bb
000001f0: e8a4 533d c1b2 ffbd 2649 303d 684a a3bd
00000200: 06f9 b73c 6178 c43d c5ec 433d 829d 80bd
00000210: c411 2a3d e591 b8bd d8b5 b43b fe5b 733d
00000220: f15d ef3c 0c29 0c3a bca1 c43c 17cc 313e
00000230: 60a2 b2bd 9005 7fbd 9718 472f cc67 d0bc
00000240: 2294 053c 9b39 9dbc 6409 a83d 4872 25bd
00000250: b3e0 373d 5c45 a7bb 08ce a03d c2ed ccbd
00000260: 9241 303e 4f46 e8bd 343c bf3d 486c 5f3c
00000270: 5828 41bd bb1f 8abd 58d8 7f3d 8790 acbc
00000280: ca8a 1d3d 41a0 a33d 045a d53d cfb5 c73c
00000290: 31a4 85bd dd0c 4f3d 7236 a0ba dd8f 073e
000002a0: aa20 113e 04c6 ee3a f9c2 cc3d 6121 693d
000002b0: 9b1a cd3d d2fa da3d c384 f33d 342c d9bd
000002c0: 34a6 0c3e e008 dcbc 4323 af3d 4499 1c3e
000002d0: 4feb ce3d 28ae e03d 53fd d73d d093 a1bc
000002e0: 661f f73d 0570 203d 9e6f 04bd 4d8f 23bd
000002f0: 73be 0e3d 272b 093e ffb3 b0bc 39be ae3c
00000300: 7532 3e3d d032 9a3d 4b70 30bd da10 723d
00000310: e5e6 2a3e 3f59 003e b973 ac3d c4fa f93c
00000320: cd41 f13d 871e a83d 219a cdbd 59a0 a33d
00000330: 0ff6 efbd d70f 863d 64c9 3da5 883d 0b3d
00000340: 0dad 0bbd b508 1ebd 6d51 1b3d 5c55 ca3d
00000350: cc8d fcbd 5356 fd39 5607 473d 3a06 a93d
00000360: 9d2d 1ebc 1e86 8abd e74b d43d d840 3dbd
00000370: 0921 023e 7a7a 6e3d 051a 3e3d 733d 1f3d
00000380: c0b0 cb3c 3339 acbd 07af 95bd 4ad7 77bc
00000390: d861 4ebd 3055 c7bc 744e 16bd 2a22 c8bd
000003a0: 1d84 bcbd a9a3 abbd 453c c93d 8362 a33b
000003b0: 4f1b a43d eddf bebd ac95 243d a1d2 8d3d
000003c0: 6965 023d 4f70 143e d28b 223e 2704 8abd
000003d0: d3a8 fd3d ae49 653d b7d7 143d ba28 d13d
000003e0: 7cec 413d 75cd 6fbb cea8 10bd 9765 933d
000003f0: 7e03 b5ba 897d 40bd 2e02 983d 1905 0d3e

bias f4 [64]
-0.0027205893 -0.08945467 0.03112565 -0.0679729 0.0981837 -0.023046998 0.025560644 0.034264237
0.09528685 0.018608544 0.11485193 0.0410322 -0.076512225 0.0035474305 -0.015574331 0.018934337
-0.010180382 -0.09739941 0.12651691 -0.022281133 0.0125839515 -0.10941138 -0.08371672 -2.3397611e-08
0.045097515 0.018396897 0.015727824 -0.0947366 0.06015125 -0.03745518 -0.030954506 -0.034261648
0.0051964573 0.029176682 0.057133533 0.041612856 0.07099545 -0.012079455 -0.10952753 -0.06276649
0.0009526645 0.08544266 0.12112801 -0.07657917 0.019167708 0.12429846 0.014793269 0.026694208
0.12131144 0.09035699 0.014544072 0.12128161 0.110242836 0.04242936 -0.004412871 -0.036206856
0.045141988 0.052329604 -0.11191335 0.08914808 -5.1523166e-06 0.023564212 0.10755686 -0.027735211
00000000: ea4b 32bb 0334 b7bd 38fb fe3c 6035 8bbd
00000010: 8914 c93d 0fcd bcbc 8e64 d13c a858 0c3d
00000020: c125 c33d f270 983c 7d37 eb3d 6111 283d
00000030: 71b2 9cbd 027c 683b 7b2b 7fbc 2f1c 9b3c
00000040: 9ecb 26bc 5879 c7bd a68d 013e ec86 b6bc
00000050: eb2c 4e3c 1313 e0bd ac73 abbd e4fb c8b2
00000060: 2cb8 383d 17b5 963c a3d7 803c 4305 c2bd
00000070: 2861 763d 9a6a 19bd 4e94 fdbc f155 0cbd
00000080: 0b47 aa3b f003 ef3c da04 6a3d 3e72 2a3d
00000090: 1066 913d e8e8 45bc f84f e0bd b88b 80bd
000000a0: 3bbc 793a 90fc ae3d f611 f83d 8ad5 9cbd
000000b0: 9905 9d3c 3190 fe3d 785f 723c d0ad da3c
000000c0: 2272 f83d 160d b93d 424a 6e3c 7e62 f83d
000000d0: ffc6 e13d 69ca 2d3d d899 90bb a44d 14bd
000000e0: cee6 383d 9157 563d d432 e5bd 4593 b63d
000000f0: 10e2 acb6 bc09 c13c c546 dc3d f434 e3bc

weight f4 [32, 64]
0.08283842 0.04040536 -0.08717501 0.016037874 0.024228986 -0.05813457 0.012844418 -0.06363799
-0.13406244 0.0775018 0.07508851 0.07747483 6.888131e-16 0.047803372 -0.03184788 3.0145727e-06
0.14148739 0.047910742 0.04855988 0.12330978 -0.016429543 0.107516795 0.009665004 1.4950577e-07
-0.05472885 0.070219845 -9.046953e-06 -0.09835693 0.061349973 -0.14458899 0.03894976 -0.073966324
-0.072065376 -3.525873e-05 0.13213405 0.02363675 -0.15400682 0.1343828 -1.0018539e-17 -0.022801938
6.4545446e-07 0.0499485 0.037042357 0.053108685 0.026014494 -0.075418025 -0.046067473 -0.016942674
0.032204498 -0.015649203 0.11523142 -0.053460866 0.006877141 0.009244329 0.13623154 0.05649106
-0.08364381 -0.037789278 -0.039999876 -0.08438946 2.3887406e-17 -0.10379837 0.011139756 -0.052861437
-0.15062673 0.06768952 0.037625253 0.027207525 0.12747015 -0.06896033 -0.085894465 0.016103275
0.06993726 -0.107988186 -0.123745404 -0.03835163 0.093588404 0.06781776 0.020255959 0.08967534
0.038179338 0.09333816 0.05991015 0.020596668 0.14216176 0.075699665 -0.06840831 -1.6858028e-18
0.02235199 -0.05506685 -0.08622221 -0.1368529 -0.02726716 0.0046889423 -0.06753367 -0.0021157798
-0.12752344 0.01365258 0.09288301 -0.019829502 0.057206694 0.13375168 -0.06324768 0.07140843
0.021979507 0.10967895 -0.04880643 -0.070603356 0.032549597 0.078360155 -0.06553823 0.09195267
0.0143937515 -0.06553251 -0.13400729 0.0031477956 0.025221469 -0.10097145 -0.095189385 -0.10472454
0.055259798 0.040698018 0.10917719 -0.03856551 -1.5603122e-07 0.04579488 0.07706627 0.11706361
-0.0028317904 -0.0712377 -0.07442486 0.042244524 -0.1147847 0.02361317 -0.0651414 -0.068503015
0.09938342 0.11229327 0.010604484 0.0060758074 -7.659771e-14 -0.06757668 0.13991556 0.03371323
-0.050958056 -0.064178586 0.039148286 -0.14598231 -0.053572316 0.08152117 0.07290429 -6.669107e-07
0.031465862 0.09003381 0.07821641 0.15427221 0.023100933 0.07267631 0.077631354 0.044475567
0.052666187 -1.6411365e-08 -0.13638224 0.04856512 -0.051381767 -0.07555035 -0.013763213 -0.04492143
-0.0018588888 -0.0034370117 0.09749402 0.15214093 -0.053672016 -0.035663873 0.11658359 -0.14107561
0.004369442 0.15938655 -0.0027553805 0.02850005 -0.044175666 0.11136676 0.06436475 -0.014197235
-0.071577705 0.052179158 -0.037002504 0.1498625 1.9938231e-13 -0.07406353 0.08862245 -0.11345011
0.017834403 -0.0050920337 -0.00746479 0.03392434 -0.006711446 -0.002023809 0.013933109 -0.008366417
0.1020284 0.0007785484 0.011383056 -0.0052360212 1.239867e-07 0.034774344 -0.013695863 -6.1456674e-18
-0.0058344672 0.038494356 0.012534234 -0.04698653 -0.012593548 0.008498903 0.021915821 1.4781108e-07
1.21262635e-17 -0.007546763 -0.04156995 0.02372262 -0.0282013 0.006566853 0.041234236 0.009317923
0.013148515 -7.3765073e-06 0.061404433 0.08120382 0.08695017 0.00576327 -3.076736e-06 0.013953549
-3.630726e-17 -0.022571374 -0.06176261 0.031531647 2.473527e-16 -0.070641324 -0.033227593 0.00896048
0.016924618 -0.012727214 -0.009884283 -0.0076918276 0.0060286685 5.0458722e-05 0.008530329 0.0024237353
0.047985565 0.000905168 0.037450165 -0.043446846 -1.7804757e-18 0.019339364 -0.008279267 -0.022661027
00000000: 31a7 a93d 1780 253d d088 b2bd dc61 833c
00000010: de7b c63c 841e 6ebd 6571 523c a254 82bd
00000020: aa47 09be 44b9 9e3d 01c8 993d 20ab 9e3d
00000030: 7089 4626 78cd 433d ec72 02bd f74d 4a36
00000040: 12e2 103e 0e3e 443d bae6 463d d789 fc3d
00000050: 4097 86bc c431 dc3d f759 1e3c d587 2034
00000060: 5c2b 60bd 6ccf 8f3d 5ec8 17b7 5c6f c9bd
00000070: 1c4a 7b3d 230f 14be c989 1f3d a87b 97bd
00000080: 0397 93bd c6e2 13b8 264e 073e dca1 c13c
00000090: f7b3 1dbe a59b 093e 36cf 38a3 21cb babc
000000a0: 4b43 2d35 cc96 4c3d bab9 173d 7e88 593d
000000b0: 591c d53c c474 9abd 3fb1 3cbd 5dcb 8abc
000000c0: dde8 033d c232 80bc 73fe eb3d c8f9 5abd
000000d0: a459 e13b 8775 173c 4880 0b3e 2b63 673d
000000e0: 724d abbd eec8 1abd e9d6 23bd 62d4 acbd
000000f0: 8b52 dc23 3d94 d4bd 8683 363c 3c85 58bd
00000100: e53d 1abe cea0 8a3d f01c 1a3d 51e2 de3c
00000110: 8987 023e 133b 8dbd 70e9 afbd 04eb 833c
00000120: 443b 8f3d e928 ddbd 3b6e fdbd 9916 1dbd
00000130: 47ab bf3d 0ae4 8a3d d3ef a53c b4a7 b73d
00000140: f061 1c3d 1428 bf3d 5864 753d 58ba a83c
00000150: da92 113e 6d08 9b3d a819 8cbd d4c7 f8a1
00000160: 851b b73c c78d 61bd 4595 b0bd 2b23 0cbe
00000170: 615f dfbc b3a5 993b 184f 8abd e5a8 0abb
00000180: 8195 02be 12af 5f3c 7339 be3d 7b71 a2bc
00000190: 9151 6a3d 33f6 083e 0088 81bd 953e 923d
000001a0: 5e0e b43c 5b9f e03d 40e9 47bd 7e98 90bd
000001b0: ba52 053d 4a7b a03d e838 86bd ae51 bc3d
000001c0: c5d3 6b3c e935 86bd 3539 09be 3f4b 4e3b
000001d0: 419d ce3c 1fca cebd a7f2 c2bd d279 d6bd
000001e0: 1958 623d f7b2 263d 4a98 df3d def6 1dbd
000001f0: 8989 27b4 6993 3b3d ecd4 9d3d 0cbf ef3d
00000200: 8f95 39bb 12e5 91bd 106c 98bd 9808 2d3d
00000210: 3e14 ebbd 6870 c13c db68 85bd 4f4b 8cbd
00000220: 8989 cb3d 04fa e53d 6ebe 2d3c 9117 c73b
00000230: 937b aca9 a465 8abd 0646 0f3e e216 0a3d
00000240: 65b9 50bd 1070 83bd f459 203d 637c 15be
00000250: a56e 5bbd 92f4 a63d d84e 953d c105 33b5
00000260: 59e2 003d a563 b83d ed2f a03d 89f9 1d3e
00000270: 2b3e bd3c 51d7 943d 30fd 9e3d 032c 363d
00000280: 80b8 573d f9f8 8cb2 c9a7 0bbe 38ec 463d
00000290: b075 52bd 24ba 9abd 197f 61bc 89ff 37bd
000002a0: f5a5 f3ba 7d3f 61bb f2aa c73d d5ca 1b3e
000002b0: 30d7 5bbd 4814 12bd 61c3 ee3d 2076 10be
000002c0: 892d 8f3b 3a36 233e 9d93 34bb f078 e93c
000002d0: 8bf1 34bd 4214 e43d abd1 833d 859b 68bc
000002e0: 5597 92bd d0b9 553d f08f 17bd 8e75 193e
000002f0: 0a7c 602a 9fae 97bd b07f b53d 8858 e8bd
00000300: 7419 923c 13db a6bb 329b f4bb 40f4 0a3d
00000310: b1eb dbbb e1a1 04bb b247 643c 4c13 09bc
00000320: 44f4 d03d 8017 4c3a ff7f 3a3c ee92 abbb
00000330: 3421 0534 8b6f 0e3d 9d64 60bc 30bc e2a2
00000340: 0f2f bfbb 42ac 1d3d 635c 4d3c f374 40bd
00000350: 2b55 4ebc fc3e 0b3c cf88 b33c 00b6 1e34
00000360: a9b0 5f23 d64a f7bb 4045 2abd f155 c23c
00000370: 6a06 e7bc c12e d73b 3be5 283d 34aa 183c
00000380: de6c 573c b783 f7b6 3783 7b3d 304e a63d
00000390: ee12 b23d d0d9 bc3b ec79 4eb6 6d9d 643c
000003a0: 0c70 27a4 9ae7 b8bc cafa 7cbd 5427 013d
000003b0: d196 8e25 66ac 90bd a819 08bd face 123c
000003c0: 7fa5 8a3c ce85 50bc b0f1 21bc ba0b fcbb
000003d0: 238c c53b a4a3 5338 cbc2 0b3c 88d7 1e3b
000003e0: 838c 443d cc48 6d3a 5865 193d 52f5 31bd
000003f0: 3c60 03a2 966d 9e3c c3a5 07bc 9ea3 b9bc

bias f4 [32]
0.13259909 -0.08622841 -0.052299596 0.010331845 -0.11010604 -0.093715936 0.01423556 0.08835557
-0.000364785 -0.042134356 0.12791033 -0.076707855 -0.004544362 -1.3147719e-06 0.11346505 0.0015721543
-0.1120507 0.106838375 0.043276574 0.09008758 -0.048371058 -1.4889247e-16 0.098064125 0.07421036
-0.104695916 -7.182472e-06 0.1350517 -0.073389046 -0.006012488 -0.060247578 0.085182935 -0.069271654
00000000: 0ec8 073e 8598 b0bd 1a38 56bd e646 293c
00000010: 477f e1bd 24ee bfbd 443c 693c c4f3 b43d
00000020: 9d40 bfb9 1395 2cbd edfa 023e 0219 9dbd
00000030: dfe8 94bb 3877 b0b5 5d60 e83d bf10 ce3a
00000040: d67a e5bd 14ce da3d c742 313d d67f b83d
00000050: bb20 46bd 4da9 2ba5 d8d5 c83d 9afb 973d
00000060: d06a d6bd f700 f1b6 fe4a 0a3e ff4c 96bd
00000070: 6804 c5bb 2ac6 76bd 6474 ae3d 4cde 8dbd

weight f4 [10, 32]
-0.061358597 -0.07429549 0.07907774 0.07676776 -0.039939154 0.15987135 -0.114377886 -0.0029158252
0.00041006156 -0.074802145 -0.24641986 0.14698005 0.07835184 -0.00016288814 -0.034430683 0.06599263
-0.17877746 0.04006879 0.04305533 0.195579 -0.07638866 1.7541043e-06 -0.19158287 -0.09120986
-0.12951696 -8.286246e-09 -0.23375078 0.16455795 -0.042571466 3.915846e-05 0.1864085 0.12154263
-0.11817845 0.06900748 0.014754428 -0.10072426 0.17765999 -0.22164117 0.01414267 -0.13645215
2.3959636e-09 0.07563236 -0.0031413836 0.1379334 -0.018417185 0.00020932204 0.10620937 0.120087534
0.18798415 -0.08643947 0.20332064 -0.1863322 0.1435887 1.2679279e-05 0.08453796 -0.1958723
0.14851241 1.5535944e-11 -0.004394639 -0.16914031 0.18777466 0.061535273 -0.20071769 -0.011902573
-0.19694711 -0.17221412 0.1989464 -0.04433828 -0.024547929 -0.034312777 -0.0040579243 0.12543705
-9.791914e-05 -0.23530474 0.20077637 -0.04733136 0.10168936 -0.00031172668 -0.053326733 -0.1818514
-0.1348975 -0.095693685 -0.20787534 -0.1697719 0.13422471 -3.0364161e-05 -0.12358567 0.1686626
0.129318 5.0355492e-12 0.057899393 -0.24553923 -0.06589631 -9.852193e-05 -0.2288354 0.073648475
-0.016873252 0.13900653 -0.17775862 -0.04895304 -0.07209007 0.21384232 0.15671232 -0.004824587
1.4896253e-06 0.0051061613 -0.01683174 0.15105483 -0.07000226 2.4921981e-08 -0.14752972 -0.19526382
0.14480366 0.069410875 -0.14799017 -0.0796383 0.02007592 -0.00022909234 0.02964174 0.21158032
0.023920404 6.0439066e-07 -0.11067098 -0.14301713 -0.07747305 0.00018098443 -0.22428095 0.19094303
0.18513097 -0.08217985 0.043658935 -0.016629288 -0.13174182 -0.0015532959 -0.17825978 -0.22393988
0.00054786366 0.16403839 0.08028195 -0.09172914 -0.0034303449 3.5246572e-05 0.08839162 -0.03430087
0.19010538 0.025723483 0.000890044 0.17069107 -0.0536849 5.319952e-12 0.15576829 -0.12328049
0.10951593 0.0002426699 -0.16673195 -0.0041550063 -0.098443404 -0.0002333936 -0.09578255 -0.117956296
-0.10703256 -0.02249535 -0.16004105 0.028291686 -0.21833342 0.01000773 0.13225627 0.050913338
-2.2676647e-14 0.023246154 0.06431149 -0.15076219 -0.13700409 5.007301e-10 -0.058384545 -0.15788989
-0.21926205 -0.0073191756 0.11415269 0.1670479 0.07756642 -2.120521e-17 0.089647435 0.011473864
-0.19665632 1.3386737e-06 0.16315027 -0.04846394 0.012284746 0.00083199283 0.15746748 -0.03222044
0.027342536 -0.07403461 -0.024013476 0.060097266 -0.1428359 -0.16654433 0.20669995 -0.16898565
0.00043398558 0.15604892 0.15224718 -0.088999905 0.15618819 -0.00017122303 -0.17715576 0.12177392
-0.00045163173 0.13988462 -0.24205981 0.076470345 -0.14108819 -0.0005219116 -0.0033681353 -0.12592861
0.18660878 -2.4945235e-08 -0.12320909 0.035135273 0.04177746 0.00034090775 0.022371652 -0.17998095
0.029765243 -0.27213502 0.09551068 0.02015812 0.16030636 0.14471604 -0.124228545 -0.06353467
0.0007414445 0.058873683 0.18786037 0.15683438 -0.10069981 -3.8902223e-12 0.01890395 0.00937662
0.044671018 -0.14474776 0.026830679 0.007304908 -0.0030252666 -0.00060871063 -0.1219182 -0.045177348
-0.12622145 -2.3422624e-08 -0.10373952 -0.12981349 -0.02907591 -0.00020319938 0.19162454 0.11540121
00000000: 2753 7bbd 3c28 98bd 83f3 a13d 6a38 9d3d
00000010: 3d97 23bd 51b5 233e f43e eabd 6e17 3fbb
00000020: 88fd d639 de31 99bd 7d55 7cbe f081 163e
00000030: ee76 a03d f4cc 2ab9 3007 0dbd 2527 873d
00000040: 7011 37be 2c1f 243d c95a 303d dd45 483e
00000050: a871 9cbd 916e eb35 4d2e 44be 3ccc babd
00000060: 18a0 04be 4c5b 0eb2 5d5c 6fbe e181 283e
00000070: 6b5f 2ebd 143e 2438 dfe1 3e3e 58eb f83d
00000080: 8b07 f2bd cb53 8d3d 8ebc 713c 8548 cebd
00000090: 80ec 353e e7f5 62be a8b6 673c 1dba 0bbe
000000a0: 3da6 2431 24e5 9a3d acdf 4dbb 6a3e 0d3e
000000b0: a3df 96bc 757d 5b39 4c84 d93d 74f0 f53d
000000c0: eb7e 403e 2d07 b1bd 4933 503e decd 3ebe
000000d0: eb08 133e 17b9 5437 3d22 ad3d c092 48be
000000e0: a313 183e d6a7 882d e700 90bb 1e33 2dbe
000000f0: 0048 403e 690c 7c3d f088 4dbe 0203 43bc
00000100: 81ac 49be e658 30be 9bb8 4b3e 0e9c 35bd
00000110: bd18 c9bc 8e8b 0cbd 56f8 84bb 9272 003e
00000120: f059 cdb8 baf3 70be 5298 4d3e 87de 41bd
00000130: 8342 d03d 3f6f a3b9 226d 5abd 4137 3abe
00000140: 9222 0abe 0dfb c3bd 46dd 54be afd8 2dbe
00000150: 3472 093e 8ab6 feb7 7c1a fdbd e3b5 2c3e
00000160: f06b 043e 322c b12c ea27 6d3d a36e 7bbe
00000170: a5f4 86bd 8f9d ceb8 d453 6abe 03d5 963d
00000180: c639 8abc ba57 0e3e 5b06 36be fc82 48bd
00000190: f5a3 93bd 7bf9 5a3e 3279 203e 9217 9ebb
000001a0: 23ef c735 9651 a73b b8e2 89bc 1eae 1a3e
000001b0: 585d 8fbd 0414 d632 0812 17be 3df3 47be
000001c0: 6947 143e 4a27 8e3d bc8a 17be 6819 a3bd
000001d0: 4176 a43c 8238 70b9 3cd3 f23c 83a8 583e
000001e0: b9f4 c33c 693d 2235 77a7 e2bd 1573 12be
000001f0: 31aa 9ebd a3c6 3d39 e8a9 65be 9286 433e
00000200: f992 3d3e e94d a8bd b6d3 323d 253a 88bc
00000210: 54e7 06be f697 cbba bb89 36be 7f50 65be
00000220: 829e 0f3a aef9 273e dd6a a43d 7ddc bbbd
00000230: a3cf 60bb b8d5 1338 aa06 b53d 127f 0cbd
00000240: fcaa 423e 0eba d23c d751 693a a4c9 2e3e
00000250: b3e4 5bbd de2d bb2c b981 1f3e 7b7a fcbd
00000260: e349 e03d 3575 7e39 c8bb 2abe b826 88bb
00000270: b29c c9bd 1ebb 74b9 a429 c4bd 1293 f1bd
00000280: e333 dbbd 2b48 b8bc cde1 23be f7c3 e73c
00000290: cc92 5fbe 76f7 233c 306e 073e 818a 503d
000002a0: ca40 cca8 b86e be3c beb5 833d 6761 1abe
000002b0: cd4a 0cbe c0a3 0930 a224 6fbd e3ad 21be
000002c0: 3b86 60be b2d5 efbb e3c8 e93d 9b0e 2b3e
000002d0: 25db 9e3d 6395 c3a3 1399 b73d e0fc 3b3c
000002e0: 4660 49be 7aac b335 dd10 273e 2082 46bd
000002f0: f645 493c 181a 5a3a 283f 213e 95f9 03bd
00000300: 74fd df3c 759f 97bd e9b7 c4bc 8d28 763d
00000310: 9343 12be 998a 2abe 27a9 533e 930a 2dbe
00000320: 8f88 e339 4acb 1f3e afe6 1b3e 9545 b6bd
00000330: ccef 1f3e 558a 33b9 5268 35be 9b64 f93d
00000340: fcc8 ecb9 ea3d 0f3e 87de 77be 7c9c 9c3d
00000350: 6c79 10be e5d0 08ba efbb 5cbb 6ef3 00be
00000360: 5f16 3f3e 2747 d6b2 0c55 fcbd 01ea 0f3d
00000370: d81e 2b3d ddbb b239 c144 b73c ed4c 38be
00000380: 3dd6 f33c 4855 8bbe 1a9b c33d a422 a53c
00000390: 5a27 243e 7130 143e 896b febd 771e 82bd
000003a0: 805d 423a 8825 713d 785e 403e 3199 203e
000003b0: b43b cebd 02e0 88ac 75dc 9a3c 65a0 193c
000003c0: f5f8 363d c238 14be 03cc db3c 025e ef3b
000003d0: 8d43 46bb e191 1fba 40b0 f9bd e20b 39bd
000003e0: 3240 01be e532 c9b2 6375 d4bd d4ed 04be
000003f0: 9a30 eebc eb11 55b9 3939 443e 7857 ec3d

bias f4 [10]
0.009690716 -0.09399605 -0.15199688 -0.083499774 0.053906266 -0.1474303 0.12307991 -0.02088468
-0.08076464 0.122722805
00000000: cfc5 1e3c 0081 c0bd 12a5 1bbe ee01 abbd
00000010: d1cc 5c3d f8f7 16be 5211 fc3d 5916 abbc
00000020: ee67 a5bd 1856 fb3d
