Assignments/Assignment 4/results/classifier_mlp/classifier_mlp.model (torch, 97223 bytes, 10 tensors)

weight f4 [128, 64]
2.361437e-16 8.818212e-09 0.0012216382 -0.00094337756 -0.07307611 -0.0005109836 -0.04119694 0.08481544
3.0997792e-06 2.9393548e-05 -0.000932435 -0.043500233 8.3428444e-05 -0.0872526 0.07849685 -0.0838587
-5.43171e-11 -1.8577573e-10 0.052486908 -0.061986648 0.081875324 -0.08776615 -0.0010439306 5.680949e-17
-6.5674694e-06 -0.0022170192 -0.06896374 -0.011262899 -0.05216185 0.07822403 0.059145536 1.9802742e-06
4.3775796e-18 -1.9120823e-19 0.06717686 0.040428605 -0.021210324 0.023938036 -0.06498753 4.517357e-18
-2.2189817e-05 -2.0858174e-06 -0.07809212 -0.033246793 -0.08423111 0.05243553 3.6140007e-19 2.5811341e-05
-1.6956372e-17 2.6923265e-17 -0.0012257242 -0.032839965 0.0076897927 0.00014163848 -7.9697885e-19 -1.3547507e-05
-4.21484e-06 3.1780825e-18 -0.0008615203 -0.019684073 -0.044642515 -1.3736688e-05 -2.386463e-09 -1.11619926e-17
-1.07384935e-17 -0.015571146 0.02011564 -0.11862986 -0.05344637 0.111981295 0.08918664 0.096494004
3.5305548e-17 -0.09680969 -0.022677323 -0.039113656 0.04368806 -0.049887482 0.13522965 0.0881698
0.007968957 0.007197475 -0.046567257 0.10718746 0.021352872 0.078964084 0.20170653 0.09151468
2.3452132e-05 -0.006389532 0.020787084 -0.027407011 0.0691511 0.109702446 0.06438682 -0.05302616
-2.5476701e-17 -0.051018316 -0.018145693 -0.12424471 0.01715634 -0.009894433 0.08026975 2.4606008e-16
0.012724816 -0.10782793 -0.10392798 0.02647877 -0.084641464 -0.07399225 0.08211733 -0.042345814
0.021050707 0.055112842 -0.06431804 0.066773154 0.07416072 -0.07823354 0.062113833 -0.10212988
0.046398584 0.037220966 -0.13228633 -0.009891217 -0.06815502 0.10541836 0.1368984 0.004369007
4.0398045e-06 0.08500132 0.062303144 0.02947462 0.029228918 0.0051491014 0.013011617 -0.053580116
2.292667e-06 0.028453326 0.061293997 0.07963548 0.031184325 -0.061400753 -0.057818476 -0.02977356
-0.035768144 -0.025374694 -0.09417506 -0.031348545 -0.106045194 -0.06079498 -0.07648964 0.0009253427
-0.010900588 -0.1340203 -0.08069314 -0.0440014 0.09140133 0.09264493 0.09280713 0.02587694
3.943623e-19 0.017658643 -0.060859054 -0.048484154 0.03304147 0.08548316 -0.004066976 3.5789895e-17
-0.07745633 -0.087089695 0.18795957 0.2012874 -0.107505724 -0.16233766 0.04547836 -0.041795146
0.061657775 0.16993637 0.069296554 0.11668333 -0.03076452 -0.032403212 -0.10764984 0.032707762
0.037592974 0.061773732 0.05248844 0.045050323 -0.08288372 -0.0050645056 0.11039214 0.008864268
1.4255101e-08 0.0156817 0.086823545 0.009940719 0.06522124 0.059507776 0.04399182 0.005738643
-0.002877979 -0.09219638 -0.0058807284 -0.10140472 0.06959866 -0.06860767 0.12192365 -0.079831235
4.403531e-17 -0.07753944 0.08970093 -0.01477668 0.08235902 -0.078226835 -0.114847876 0.05164349
0.020693189 0.03634447 0.058778793 0.026897931 -0.059984103 -0.07353231 -0.11081293 -0.024398077
-2.007043e-07 0.14118831 0.07527986 0.031824302 0.07612409 -0.07343819 0.17434266 -8.219964e-06
0.096308276 0.016755356 0.061619513 -0.06040328 -0.015464186 0.044590622 0.09585749 -0.03604047
0.06201686 0.06545342 -0.037421234 -0.10774726 0.07643392 0.10922418 0.012452008 -0.03575033
-0.0017222541 -0.073347926 -0.043153908 0.027939957 0.0008541186 -0.09292838 -0.03417255 -0.1343271
00000000: a920 8825 e87e 1732 601f a03a ff4c 77ba
00000010: eda8 95bd 87f3 05ba 1fbe 28bd b8b3 ad3d
00000020: cd05 5036 2a92 f637 a76e 74ba 4d2d 32bd
00000030: 4ef6 ae38 7eb1 b2bd f5c2 a03d 1cbe abbd
00000040: 9ee3 6eae 3843 4caf 83fc 563d b6e5 7dbd
00000050: 40ae a73d bdbe b3bd 80d4 88ba 67fe 8224
00000060: 225e dcb6 694b 11bb dc3c 8dbd 0688 38bc
00000070: aaa7 55bd ec33 a03d 9742 723d dae4 0436
00000080: 1281 a122 24bd 61a0 0694 893d 7798 253d
00000090: 46c1 adbc b319 c43c 2f18 85bd 3ba9 a622
000000a0: 4524 bab7 12fa 0bb6 c3ee 9fbd ca2d 08bd
000000b0: 5c81 acbd a3c6 563d 3c55 d520 6f85 d837
000000c0: 1a65 9ca3 c352 f823 7ba8 a0ba 3383 06bd
000000d0: a8fa fb3b ca84 1439 053a 6ba1 194a 63b7
000000e0: 336d 8db6 4880 6a22 a6d7 61ba 7e40 a1bc
000000f0: 12db 36bd a076 66b7 1aff 23b1 05e7 4da3
00000100: 1a17 46a3 1f1e 7fbc 8ec9 a43c 36f4 f2bd
00000110: 95ea 5abd 7356 e53d 7ca7 b63d a69e c53d
00000120: 6fd1 2224 2944 c6bd cbc5 b9bc a435 20bd
00000130: 40f2 323d d156 4cbd a479 0a3e 5e92 b43d
00000140: 3a90 023c ccd8 eb3b 4fbd 3ebd 1985 db3d
00000150: 38ec ae3c ecb7 a13d 288c 4e3e 0c6c bb3d
00000160: 12bb c437 475f d1bb ad49 aa3c ab84 e0bc
00000170: 189f 8d3d adab e03d 3ddd 833d f531 59bd
00000180: 29fb eaa3 95f8 50bd 47a6 94bc 0374 febd
00000190: 748b 8c3c 431c 22bc 7764 a43d 0fd8 8d25
000001a0: bf7b 503c e4d4 dcbd 31d8 d4bd 01ea d83c
000001b0: 8158 adbd 4089 97bd 212d a83d ce72 2dbd
000001c0: 8872 ac3c 01be 613d 2db9 83bd 5dc0 883d
000001d0: 93e1 973d e838 a0bd 136b 7e3d 7829 d1bd
000001e0: 710c 3e3d 0375 183d 1176 07be c50e 22bc
000001f0: dc94 8bbd 95e5 d73d 182f 0c3e e329 8f3b
00000200: a88d 8736 2c15 ae3d 9531 7f3d c274 f13c
00000210: 7c71 ef3c cbb9 a83b ad2e 553c d376 5bbd
00000220: b8db 1936 f316 e93c 6a0f 7b3d ed17 a33d
00000230: 4576 ff3c 5b7f 7bbd 11d3 6cbd aee7 f3bc
00000240: 9e81 12bd 97de cfbc dbde c0bd 5567 00bd
00000250: 392e d9bd 2804 79bd 9aa6 9cbd b392 723a
00000260: 6198 32bc 9e3c 09be 7242 a5bd d03a 34bd
00000270: 9f30 bb3d a0bc bd3d aa11 be3d e0fb d33c
00000280: 59ca e820 dca8 903c 5847 79bd 5297 46bd
00000290: 7e56 073d cc11 af3d 4444 85bb 400d 2524
000002a0: 6da1 9ebd 155c b2bd 7978 403e 491e 4e3e
000002b0: f62b dcbd d83b 26be 8447 3a3d 6331 2bbd
000002c0: dd8c 7c3d cd03 2e3e 5aeb 8d3d abf7 ee3d
000002d0: e005 fcbc 3bb9 04bd 8577 dcbd 93f8 053d
000002e0: 17fb 193d 7406 7d3d 1efe 563d b086 383d
000002f0: f1be a9bd 27f4 a5bb 4615 e23d 6f3b 113c
00000300: 99e6 7432 e976 803c 8bd0 b13d 66de 223c
00000310: b792 853d 6dbe 733d c430 343d 3a0b bc3b
00000320: 7a9c 3cbb 75d1 bcbd 20b3 c0bb 47ad cfbd
00000330: be89 8e3d 2e82 8cbd 1bb3 f93d 8f7e a3bd
00000340: b813 4b24 ffcc 9ebd 1fb5 b73d e319 72bc
00000350: d9ab a83d 6435 a0bd 5d35 ebbd 2088 533d
00000360: c384 a93c f0dd 143d 08c2 703d 0d59 dc3c
00000370: e4b1 75bd 1c98 96bd e4f1 e2bd 7ade c7bc
00000380: 2e81 57b4 ab93 103e 542c 9a3d 335a 023d
00000390: f2e6 9b3d c366 96bd e286 323e 7ae8 09b7
000003a0: 463d c53d 8742 893c be64 7c3d 6e69 77bd
000003b0: 7f5d 7dbc a8a4 363d ef50 c43d 2c9f 13bd
000003c0: 6405 7e3d 710c 863d 0247 19bd 98aa dcbd
000003d0: 6389 9c3d edb0 df3d 8203 4c3c f06e 12bd
000003e0: 42bd e1ba 7037 96bd 27c2 30bd 56e2 e43c
000003f0: eee6 5f3a 3c51 bebd 84f8 0bbd 0b8d 09be

bias f4 [128]
0.032943334 -0.040448867 -0.096831545 0.06296177 0.092811726 0.036855653 0.114873275 -0.079371996
-0.10747929 0.036180478 0.08510419 -0.0827299 1.1102097e-06 -0.0915942 0.118153475 0.10261247
-0.0694952 0.025831757 -0.07855697 -0.053349636 0.014824709 -0.03629378 0.12027027 0.015417395
-0.090439074 -0.06796233 0.014324214 -0.031278703 0.03412272 0.11020603 0.015382746 -0.029349582
-0.026917718 0.014813151 -0.00014822494 -0.055520333 -0.008328694 0.12550433 -0.04220276 -0.083879314
0.027322147 -0.067119084 -0.069552906 0.034733754 0.0234259 0.14071213 0.01961962 0.11244948
0.10004994 -0.089205146 -0.020575844 -0.012412767 0.08755466 0.043312475 0.10069345 -0.100255854
0.11280289 -0.07106555 -0.09805726 -0.056868516 0.04762643 0.006964837 -0.0544899 0.053423084
0.1214688 -0.0041743275 -0.069331355 -0.06573492 -2.632082e-17 -0.06512057 0.09568876 0.08992854
-4.762579e-19 0.11220163 0.06632125 0.07781003 0.012237152 0.047892112 0.14121854 0.059549175
-0.02359949 -0.08763719 0.05241008 0.11781866 0.04316856 0.08793095 -0.03414881 0.042740334
-0.012923276 -0.018051928 0.059770554 0.06068652 -0.06689789 -0.02012841 -0.033179816 0.06498092
-0.025437238 -0.008365503 0.14801544 -0.08649631 0.07387546 0.06002341 0.1260254 0.1146802
-0.038507804 0.07314638 0.04874526 -0.041945316 0.12500462 0.042319242 0.051932205 0.06673476
0.057170138 0.09743526 -0.084260225 0.025683315 0.04998334 0.054217402 -0.04158773 -0.033670954
0.11378285 -0.008496785 -0.09921415 -0.07522378 0.15122049 0.07570312 -0.029977547 0.13183247
00000000: 97ef 063d b6ad 25bd 9e4f c6bd 1af2 803d
00000010: 1314 be3d f4f5 163d ae42 eb3d c98d a2bd
00000020: 1a1e dcbd fb31 143d 1b4b ae3d 4b6e a9bd
00000030: 8402 9535 bd95 bbbd 73fa f13d 7d26 d23d
00000040: 8053 8ebd 1f9d d33c 7ae2 a0bd 2685 5abd
00000050: 56e3 723c c9a8 14bd 4250 f63d 3e99 7c3c
00000060: 1f38 b9bd d62f 8bbd 1cb0 6a3c 191e 00bd
00000070: 44c4 0b3d b3b3 e13d ea07 7c3c 896e f0bc
00000080: 8c82 dcbc dcb2 723c d46c 1bb9 4a69 63bd
00000090: 1375 08bc 3584 003e cddc 2cbd ebc8 abbd
000000a0: b2d2 df3c bb75 89bd c171 8ebd fb44 0e3d
000000b0: ace7 bf3c d716 103e 53b9 a03c ea4b e63d
000000c0: fce6 cc3d 30b1 b6bd ac8e a8bc eb5e 4bbc
000000d0: dc4f b33d 6c68 313d 5e38 ce3d f152 cdbd
000000e0: 3405 e73d d18a 91bd 3fd2 c8bd f6ee 68bd
000000f0: ee13 433d 4a39 e43b cd30 5fbd 2ad2 5a3d
00000100: a2c4 f83d ccc8 88bb 99fd 8dbd 08a0 86bd
00000110: 47c4 f2a3 ef5d 85bd 78f8 c33d 742c b83d
00000120: 0891 0ca1 f8c9 e53d 6fd3 873d dd5a 9f3d
00000130: 567e 483c 852a 443d 989b 103e d6e9 733d
00000140: b853 c1bc 217b b3bd f4ab 563d e94a f13d
00000150: 84d1 303d 2415 b43d 9fdf 0bbd 7d10 2f3d
00000160: 26bc 53bc a3e1 93bc f8d1 743d 6e92 783d
00000170: c301 89bd 56e4 a4bc 8fe7 07bd b714 853d
00000180: c161 d0bc 760f 09bc 5c91 173e fa24 b1bd
00000190: 044c 973d 1bdb 753d cd0c 013e 74dd ea3d
000001a0: 5cba 1dbd c5cd 953d 1ca9 473d dace 2bbd
000001b0: 3601 003e f156 2d3d ddb6 543d 3cac 883d
000001c0: 3c2b 6a3d 238c c73d a090 acbd d165 d23c
000001d0: 55bb 4c3d 1113 5e3d e557 2abd 8eea 09bd
000001e0: fc06 e93d 1936 0bbc ca30 cbbd ed0e 9abd
000001f0: 8bd9 1a3e 3d0a 9b3d 7993 f5bc 17ff 063e

weight f4 [64, 128]
0.017724881 0.027086515 0.010154342 0.056506116 0.032651905 -0.04150802 -0.06650207 0.049995482
0.009434712 0.0013730394 0.014712054 -0.07146085 -5.6956634e-11 0.1121422 0.056146078 0.020441784
0.021166073 -0.01343751 0.08785811 0.011806334 -0.13295904 0.09846907 0.035192885 0.02031812
0.10053427 0.015243467 0.01963224 0.06455874 -0.008469179 0.039664827 0.0019445387 0.041617434
-0.00011391208 -0.12992747 0.009100539 -0.1291079 0.05444641 -0.033891805 0.028140277 -0.022081602
-0.046514317 0.08526755 0.042924892 -0.04583184 -0.019736474 0.055101383 -0.05939061 -0.07881898
-0.014379957 -0.007817523 0.0803328 0.0688862 -0.14143118 -0.042987347 0.09713389 0.033538807
0.07449061 -0.042614795 -0.008379812 0.090820074 -0.0026866384 -0.12768312 -0.0662481 0.045950998
-0.02258083 0.04206217 0.023693265 0.04780077 -1.5407025e-17 0.0027776272 0.1267582 0.036734372
-3.8338716e-12 0.08124782 -0.040407892 0.008417546 0.05686761 -0.10991886 0.008108758 -0.043999627
-0.045204975 -0.015645318 -0.04860153 -0.050806444 0.08013595 -0.021560242 -0.07235283 0.008065252
-0.038669616 0.044506744 -0.05566601 -0.021040356 -0.011800374 0.005702925 0.020037727 -0.07379373
-0.005332523 0.0071921046 0.063635975 0.00715957 -0.0071354113 0.11220321 -0.065597765 -0.03581325
0.061598595 0.09143857 0.06031224 -0.0051387367 -0.039863046 0.014025101 0.08699419 -0.01949006
-0.06601477 -0.09578104 0.023841714 0.0136438105 0.04406553 -0.012396271 -0.09279254 -0.01313833
-0.06862357 0.11426494 -0.08885687 0.020694446 0.02801481 0.074320935 -0.070667565 0.073090166
-0.0013085546 -0.16190018 0.052826297 0.10970173 0.004151946 0.013637628 -0.027502699 0.0063473266
0.00941898 0.011823875 0.11991515 0.010969403 -3.7297283e-12 -0.022702677 -0.028750375 -0.04359224
0.087832965 0.042742252 -0.049679153 0.0019017489 -0.027375285 -0.13370381 0.00624436 -0.11616978
-0.009549383 -0.041454207 -0.009069229 -0.094214775 0.14269564 -0.044386398 0.03725799 -0.009617518
0.031616576 -0.03788524 0.00023889162 0.0053997617 0.14065449 0.00315454 0.013406888 0.002664133
-0.020059628 0.08826791 0.14518118 -0.010677219 0.020512775 -0.077234 0.016816596 -0.0040811547
-0.079511 0.07160817 0.0072301603 -0.012752897 0.038343567 -0.10488244 0.007205283 0.15800615
-0.039885003 0.06657284 0.08291632 -0.07969181 0.060152974 0.07165639 -0.07101785 -0.0030613302
0.047659922 -0.015724467 -0.04102331 0.07939967 8.085495e-14 0.07425848 0.0031862364 0.054544635
-5.1449914e-18 0.080979094 0.07569654 -0.047451723 0.11750692 0.021959277 0.0010343523 0.022165617
-0.039897468 0.030236227 -0.12807424 0.095689796 -0.023496857 -0.005925698 0.05842429 0.067817815
0.0101146605 0.07652685 0.10880534 0.07287353 0.06669055 0.02210719 0.018234948 -0.033989932
0.02217696 -0.11599336 0.051140364 0.020608947 0.07456545 -0.015875155 -0.010658039 -0.019134479
0.031025942 0.004873651 -0.07315095 -0.018560393 -0.08363818 0.081683494 -0.11908955 -0.055791795
-0.05717401 -0.006332279 0.12797111 -0.047388494 0.04248505 -0.040200673 -0.017688526 -0.0032186008
0.07456794 0.002156958 0.05828282 0.025580056 -0.008678516 0.02305515 -0.017864127 -0.062069558
00000000: c533 913c 8ae4 dd3c 665e 263c f572 673d
00000010: 01be 053d 5004 2abd 3d32 88bd 10c8 4c3d
00000020: 0d94 1a3c 8ff7 b33a d40a 713c 115a 92bd
00000030: 787f 7aae cfaa e53d 6ef9 653d 8775 a73c
00000040: 7964 ad3c 0029 5cbc f4ee b33d 5b6f 413c
00000050: 6a26 08be 27aa c93d 6a26 103d 3072 a63c
00000060: e9e4 cd3d bcbf 793c cbd3 a03c 5f37 843d
00000070: 50c2 0abc 9677 223d e4df fe3a 0b77 2a3d
00000080: 15e4 eeb8 b50b 05be 6d1a 153c dd34 04be
00000090: 3303 5f3d 22d2 0abd 7086 e63c 7ae4 b4bc
000000a0: cc85 3ebd c1a0 ae3d 03d2 2f3d 2bba 3bbd
000000b0: 63ae a1bc fdb1 613d 9143 73bd d86b a1bd
000000c0: e999 6bbc 1115 00bc 8685 a43d 3514 8d3d
000000d0: 56d3 10be 8013 30bd 22ee c63d fd5f 093d
000000e0: 888e 983d da8c 2ebd 7b4b 09bc e0ff b93d
000000f0: 5012 30bb 5dbf 02be 15ad 87bd 1d37 3c3d
00000100: 6ffb b8bc 6249 2c3d 6118 c23c bdca 433d
00000110: cf1a 8ea3 da08 363b e7cc 013e c876 163d
00000120: 72e4 86ac 4265 a63d bf82 25bd bfe9 093c
00000130: 03ee 683d 241d e1bd 99da 043c f438 34bd
00000140: da28 39bd 9c2a 80bc 6612 47bd 6b1a 50bd
00000150: 511e a43d 1b9f b0bc b82d 94bd 1e24 043c
00000160: 0864 1ebd b44c 363d 0b02 64bd d35c acbc
00000170: 5b56 41bc 9adf ba3b 2926 a43c 2b21 97bd
00000180: 72bc aebb bfab eb3b 9453 823d d49a ea3b
00000190: 2bd0 e9bb ccca e53d 1f58 86bd eab0 12bd
000001a0: cf4e 7c3d 2544 bb3d f809 773d d962 a8bb
000001b0: 6f47 23bd 8ac9 653c 032a b23d 9ea9 9fbc
000001c0: c032 87bd da28 c4bd b34f c33c 4a8a 5f3c
000001d0: 0f7e 343d bb19 4bbc 040a bebd 2642 57bc
000001e0: 848a 8cbd bd03 ea3d 97fa b5bd 6687 a93c
000001f0: 517f e53c 9335 983d 28ba 90bd 4cb0 953d
00000200: ce83 abba 29c9 25be 6360 583d 4dab e03d
00000210: 0c0d 883b 5c70 5f3c 574d e1bc 3cfd cf3b
00000220: 1152 1a3c edb8 413c 1396 f53d 03b9 333c
00000230: 683a 83ac f7fa b9bc e885 ebbc c78d 32bd
00000240: c5e1 b33d 8012 2f3d 5e7c 4bbd 1b44 f93a
00000250: 2242 e0bc a7e9 08be 7d9d cc3b 6cea edbd
00000260: 0475 1cbc e3cb 29bd 1a97 14bc adf3 c0bd
00000270: ce1e 123e 83ce 35bd d69b 183d cb92 1dbc
00000280: 6280 013d 8e2d 1bbd fb7e 7a39 7cf0 b03b
00000290: bb07 103e 66bc 4e3b 90a8 5b3c bc98 2e3b
000002a0: 1754 a4bc cec5 b43d 60aa 143e 81ef 2ebc
000002b0: 680a a83c dc2c 9ebd f5c2 893c 35bb 85bb
000002c0: aad6 a2bd 4ea7 923d fbea ec3b 87f1 50bc
000002d0: 250e 1d3d 9bcc d6bd 4b1a ec3b 5dcc 213e
000002e0: 755e 23bd 5757 883d 08d0 a93d 7635 a3bd
000002f0: f762 763d 96c0 923d ce71 91bd 99a0 48bb
00000300: 0d37 433d 99d0 80bc 0f08 28bd 4b9c a23d
00000310: b511 b629 d414 983d 2dd0 503b 326a 5f3d
00000320: 12d1 bda2 5ed8 a53d ca06 9b3d bd5c 42bd
00000330: 78a7 f03d f1e3 b33c 1b93 873a ab94 b53c
00000340: 876b 23bd f7b1 f73c e525 03be 03f9 c33d
00000350: 7b7c c0bc 5c2c c2bb 4f4e 6f3d 11e4 8a3d
00000360: f6b7 253c 1cba 9c3d 56d5 de3d b83e 953d
00000370: 0e95 883d 231a b53c 7561 953c 0739 0bbd
00000380: 75ac b53c ed8d edbd 8f78 513d 18d4 a83c
00000390: c5b5 983d 9d0c 82bc 0e9f 2ebc e9bf 9cbc
000003a0: 1e2a fe3c 26b3 9f3b 2ad0 95bd f70b 98bc
000003b0: 7e4a abbd ad49 a73d 39e5 f3bd f085 64bd
000003c0: 4b2f 6abd 027f cfbb dc0a 033e 701a 42bd
000003d0: ce04 2e3d 76a9 24bd 87e7 90bc 29ef 52bb
000003e0: 13b7 983d c05b 0d3b f7b9 6e3d 448d d13c
000003f0: 5630 0ebc 27de bc3c ca57 92bc a63c 7ebd

bias f4 [64]
-0.03677502 0.00802184 -0.05841358 -0.008800913 -0.07658582 -0.066118084 -0.0053218356 -0.07580991
0.09095774 -0.060217544 0.11358933 -0.02301514 -0.05295253 -0.033610273 0.02412407 0.029565847
-0.007454687 -0.04258914 0.009033697 0.020923682 -0.04709839 0.069014505 0.079011664 0.06605205
0.08966714 -0.04246377 -0.016393235 0.08323128 -0.01723502 0.0013648206 0.01758961 0.03093881
-0.05600065 -0.04649351 -0.007712411 0.06501116 -0.019871207 -0.018464578 0.06498045 -0.033409413
0.028989665 0.0009284611 -0.0063464995 -0.023907533 0.04459082 -0.03265919 -0.07357972 -0.014659095
-0.050493564 -0.025773749 0.09452213 0.04659583 0.1055385 -0.064382195 -0.047078006 0.054732066
0.045446277 0.0858145 -0.0074141016 0.059071712 -0.06598355 0.068766244 -0.049337864 -0.07715921
00000000: 67a1 16bd 096e 033c 1443 6fbd b431 10bc
00000010: 07d9 9cbd eb68 87bd cb62 aebb 3a42 9bbd
00000020: 0d48 ba3d aca6 76bd 86a1 e83d 3f8a bcbc
00000030: c1e4 58bd edaa 09bd d79f c53c 1334 f23c
00000040: 7246 f4bb f371 2ebd 1202 143c 2468 ab3c
00000050: 3eea 40bd 7a57 8d3d ded0 a13d 4c46 873d
00000060: 68a3 b73d 7dee 2dbd 1b4b 86bc 2975 aa3d
00000070: 7530 8dbc c8e3 b23a 1618 903c 6373 fd3c
00000080: f060 65bd fb6f 3ebd 65b8 fcbb 9224 853d
00000090: f1c8 a2bc 0743 97bc 7814 853d 4fd8 08bd
000000a0: bc7b ed3c f863 733a 4cf6 cfbb bbd9 c3bc
000000b0: dda4 363d a5c5 05bd f7b0 96bd b32c 70bc
000000c0: 57d2 4ebd 7823 d3bc d294 c13d 45db 3e3d
000000d0: 9224 d83d d0da 83bd ded4 40bd bb2e 603d
000000e0: e025 3a3d 83bf af3d fef1 f2bb 2ef5 713d
000000f0: 6222 87bd 51d5 8c3d 8016 4abd a605 9ebd

weight f4 [64, 64]
-0.06847717 0.022708952 -0.055835698 0.08872949 -6.964746e-18 -0.0025420743 0.028155351 0.026520064
-0.071503244 -6.10745e-15 -0.040573113 -0.057923127 0.003563381 -0.022014923 0.08540054 -3.4625582e-08
0.01038916 -0.02017534 -0.015443928 -0.0145126 0.029925153 0.023216572 0.08248356 2.2577084e-17
0.004820166 0.11261969 0.018139293 -0.054784726 -0.028867865 -0.014773933 -0.07726325 -6.8621703e-06
0.046952665 0.02984348 0.028832741 0.016706401 -0.03634786 0.014048553 -0.059254467 -0.002420396
-0.015097109 0.022672126 0.027710417 -0.0038097003 0.0756312 -0.05467954 -0.050623592 0.11068038
-0.007803269 -0.039121103 -0.033603482 0.044835214 0.026426448 4.442527e-06 0.050685514 -0.0661843
0.015314993 -0.05543585 -0.015378754 -0.03965963 0.01759528 -8.832555e-06 -0.026545562 1.1273469e-05
-0.067697436 0.03148048 0.0033811647 -0.039195187 0.009279938 -0.06931487 0.060058534 -0.021576148
-0.04111426 0.024400782 0.035753857 -0.019917324 -0.040471494 0.024637254 0.14026345 0.028776878
0.076934256 0.0028521032 -0.07980619 0.0043280697 -0.17911212 -0.0002767184 0.13736433 -0.02656962
-0.060778677 -0.05700517 0.06699918 0.09976652 0.06713621 0.106533974 -0.07605545 -0.017752582
0.11876355 -0.12398038 0.059837453 0.12321893 -0.03288843 0.07288932 0.09543469 0.0857538
0.09430038 0.11250722 -0.08150348 -0.064447865 -0.108075745 -0.13117373 0.10402874 -0.039165672
0.14173032 -0.10062012 -0.006308409 0.0726399 0.093267545 -0.03954392 -0.10073078 -0.14648934
0.14925487 0.024039693 0.04204347 -0.009651637 -0.021032188 -0.027509365 0.04522018 -0.073361516
-0.065432236 0.008584568 0.0062136757 0.09923604 0.023502901 0.11398604 0.06116284 0.17491584
0.15772739 -0.07405928 0.06253725 -0.073903985 -0.04364624 -0.07833688 0.10871076 0.0014407062
-0.02850884 -0.11355047 -0.14791219 -0.065013506 0.009769904 -0.020643549 0.126825 -0.09301661
0.045704633 0.16357107 0.03249957 0.09646053 0.0800759 -0.028105073 0.1438144 0.0043356437
0.090290405 -0.023912873 -0.021627111 -0.09431458 0.037082165 -0.018165153 0.06676932 0.008634987
-0.033198986 0.061526712 -0.02644232 0.16160041 0.13796525 0.024097417 -0.14014167 0.06298368
0.030213458 0.00958491 -0.044377606 0.007526805 -0.005151456 0.002737107 0.08333137 0.07389526
-0.021431481 -0.022626031 -0.10245377 0.07366676 0.14918715 -0.0711423 -0.013035601 0.040908914
0.11860036 -0.016192207 -0.10104076 0.144253 0.107255645 0.06873361 0.03091952 0.05620543
0.16118148 0.06241407 -0.10100418 0.028063761 0.072317205 0.1289184 0.089405425 0.023780461
0.017657138 -0.047917813 -0.050085165 0.04464972 0.029038321 0.02921379 0.09014651 0.008444562
-0.021383677 0.12151145 -0.061808936 0.073883146 -0.00065685296 0.15551062 -0.11390736 -2.1972735e-13
-0.12929519 -0.04912948 0.18291329 0.14124452 -0.034490924 0.039048817 0.03673656 0.07146961
-0.040617272 -0.01841201 -0.07326815 -0.0107043125 0.06342304 -0.09584163 0.0664611 -0.0776468
-0.04522805 0.043126144 0.09745287 -0.11206562 0.008759715 -0.014664944 0.024977779 -0.078718126
0.032524295 0.09707379 -0.020996902 -0.029944945 0.106825516 0.09632232 0.05331227 -0.0011527133
00000000: c23d 8cbd 2008 ba3c f9b3 64bd cfb7 b53d
00000010: 157a 00a3 ee98 26bb 0da6 e63c 9b40 d93c
00000020: 4b70 92bd 490b dca7 fe2f 26bd cd40 6dbd
00000030: 9d87 693b a458 b4bc 7ae6 ae3d 3bb7 14b3
00000040: 4c37 2a3c c146 a5bc 8708 7dbc 42c6 6dbc
00000050: 9825 f53c ae30 be3c 24ed a83d a23c d023
00000060: 7cf2 9d3b 27a5 e63d db98 943c f365 60bd
00000070: 4d7c ecbc 5e0e 72bc 323c 9ebd 9841 e6b6
00000080: 7051 403d 507a f43c a432 ec3c dddb 883c
00000090: 7ee1 14bd e72b 663c d0b4 72bd 829f 1ebb
000000a0: dd59 77bc e5ba b93c f500 e33c 2aac 79bb
000000b0: 88e4 9a3d a7f7 5fbd af5a 4fbd 65ac e23d
000000c0: 91b2 ffbb 733d 20bd cea3 09bd 21a5 373d
000000d0: 477c d83c 0411 9536 9d9b 4f3d a28b 87bd
000000e0: bdeb 7a3c b410 63bd 2bf7 7bbc 2372 22bd
000000f0: fa23 903c 892f 14b7 1476 d9bc 2e23 3d37
00000100: f4a4 8abd adf1 003d 8896 5d3b 228b 20bd
00000110: e20a 183c f4f4 8dbd f0ff 753d 76c0 b0bc
00000120: 6d67 28bd 26e4 c73c a372 123d a829 a3bc
00000130: 70c5 25bd 11d4 c93c 39a1 0f3e 7dbd eb3c
00000140: b58f 9d3d 5aea 3a3b 6e71 a3bd 7bd2 8d3b
00000150: 2b69 37be 8414 91b9 3ca9 0c3e 88a8 d9bc
00000160: 10f3 78bd 417e 69bd de36 893d 6452 cc3d
00000170: b67e 893d 7c2e da3d f6c2 9bbd dd6d 91bc
00000180: 4e3a f33d 6de9 fdbd 1e18 753d 355a fc3d
00000190: 05b6 06bd ff46 953d 4373 c33d b09f af3d
000001a0: 8f20 c13d 2f6a e63d 4ceb a6bd 3efd 83bd
000001b0: d156 ddbd 6852 06be 050d d53d 2f6c 20bd
000001c0: c121 113e ec11 cebd c5b6 cebb 3ac4 943d
000001d0: 0e03 bf3d cef8 21bd f04b cebd 4d01 16be
000001e0: 45d6 183e e4ee c43c c635 2c3d e621 1ebc
000001f0: b24b acbc 525b e1bc cc38 393d 903e 96bd
00000200: 5601 86bd 4aa6 0c3c 179c cb3b 443c cb3d
00000210: 2889 c03c 8371 e93d e385 7a3d 231d 333e
00000220: 4a83 213e 64ac 97bd 8813 803d f95a 97bd
00000230: 66c6 32bd 166f a0bd bfa3 de3d 14d6 bc3a
00000240: 5f8b e9bc 268d e8bd 4b76 17be cd25 85bd
00000250: f311 203c a91c a9bc 6ade 013e 7e7f bebd
00000260: c834 3b3d 2d7f 273e 451e 053d 198d c53d
00000270: d5fe a33d 9c3c e6bc 1544 133e 0412 8e3b
00000280: 2dea b83d eee4 c3bc 572b b1bc 0128 c1bd
00000290: 78e3 173d 16cf 94bc 5abe 883d c379 0d3c
000002a0: a9fb 07bd 6f03 7c3d 909d d8bc 947a 253e
000002b0: c346 0d3e f267 c53c 4c81 0fbe 96fd 803d
000002c0: 3782 f73c 070a 1d3c 4bc5 35bd 6ba3 f63b
000002d0: 8ccd a8bb 0961 333b a3a9 aa3d 6656 973d
000002e0: 1391 afbc 3a5a b9bc 48d3 d1bd 99de 963d
000002f0: 84c4 183e 0eb3 91bd 4693 55bc 1b90 273d
00000300: bfe4 f23d 85a5 84bc 75ee cebd 0fb7 133e
00000310: d9a8 db3d 35c4 8c3d ef4a fd3c aa37 663d
00000320: c20c 253e e5a5 7f3d 48db cebd f9e5 e53c
00000330: 0b1b 943d 2f03 043e 311a b73d 3ecf c23c
00000340: b4a5 903c 7845 44bd 1a26 4dbd a0e2 363d
00000350: c6e1 ed3c c251 ef3c bc9e b83d 0f5b 0a3c
00000360: d22c afbc ffda f83d 5e2b 7dbd 0c50 973d
00000370: a830 2cba 2d3e 1f3e 4348 e9bd 1964 77aa
00000380: f565 04be fe3b 49bd 9f4d 3b3e 67a2 103e
00000390: 5b46 0dbd a7f1 1f3d 1379 163d a95e 923d
000003a0: 4c5e 26bd c9d4 96bc 9d0d 96bd 2461 2fbc
000003b0: f0e3 813d 9e48 c4bd c21c 883d 4905 9fbd
000003c0: 0c41 39bd 0aa5 303d 5f95 c73d a982 e5bd
000003d0: e884 0f3c 3c45 70bc 339e cc3c f836 a1bd
000003e0: 3238 053d a0ce c63d b201 acbc 1a4f f5bc
000003f0: 56c7 da3d a344 c53d f85d 5a3d a416 97ba

bias f4 [64]
0.046566546 -0.09577375 0.018240852 0.0023265723 0.041746944 0.012718925 0.07358721 0.07485945
-1.2494691e-17 0.1439911 0.006310858 0.108203985 0.046851672 -0.006173075 -0.11220908 0.015152466
0.0029130923 0.013474368 -0.07615971 -0.05739673 -0.0030952217 0.046930645 0.11413674 -0.035724323
-0.106053986 -0.086748235 0.05951497 0.08862514 -0.12401581 0.021905433 -0.026872598 0.02003121
-0.074235454 1.3476696e-17 -0.06826434 -0.0036453216 0.048036776 -0.083257824 0.056427438 -0.10205165
0.008901848 0.097492866 0.003038578 -0.013783999 -0.06208617 -0.02795148 8.920379e-06 0.041992024
-0.07676965 0.06525929 -0.063190885 0.14395897 0.009656785 0.011772682 -0.0010962877 0.07773496
-2.2211827e-06 -0.08947232 -0.03009909 -0.020254266 0.00010295195 -0.040250815 0.0661168 -0.116290905
00000000: 90bc 3e3d 0725 c4bd d76d 953c 6879 183b
00000010: d8fe 2a3d 0a63 503c e4b4 963d e94f 993d
00000020: 837c 66a3 6772 133e 50cb ce3b 0d9a dd3d
00000030: 8ae7 3f3d 8247 cabb e0cd e5bd 0c42 783c
00000040: 94e9 3e3b 98c3 5c3c 9ff9 9bbd d518 6bbd
00000050: 34d9 4abb 593a 403d 86c0 e93d ab53 12bd
00000060: d532 d9bd 0fa9 b1bd f8c5 733d 1981 b53d
00000070: 00fc fdbd 0673 b33c ec23 dcbc 7e18 a43c
00000080: c208 98bd e699 7823 2dce 8bbd 59e6 6ebb
00000090: 36c2 443d 1483 aabd 7520 673d 7500 d1bd
000000a0: 0fd9 113c 57aa c73d e122 473b 48d6 61bc
000000b0: 114e 7ebd 81fa e4bc bca8 1537 d4ff 2b3d
000000c0: 6839 9dbd aaa6 853d 396a 81bd fb69 133e
000000d0: 7e37 1e3c 35e2 403c 50b1 8fba 8233 9f3d
000000e0: a10f 15b6 443d b7bd 5e92 f6bc 46ec a5bc
000000f0: e8e7 d738 0ade 24bd 3f68 873d ed29 eebd

weight f4 [32, 64]
-0.002290084 -0.0020116991 -0.0017932042 -0.0028002602 9.576434e-09 -0.0028724917 -0.001806846 -0.00066435785
2.2308953e-07 -0.0017697383 -0.003247753 -0.0027262503 -0.0017656876 -0.0019812402 -0.0022493603 -0.0021755614
-1.9123861e-05 -0.0017244989 -0.0025370184 -0.0028258986 -0.0031778151 -0.0019543804 -0.0025028961 -0.002146404
-0.0018661837 -2.4072291e-05 -0.0024649715 -0.0030604855 -0.0024229605 -0.0016067297 -0.0032992961 -0.002548324
-0.0014962456 -3.0833077e-12 -0.0027269193 -0.0036604633 -0.001720675 -0.0023133499 -0.001993495 -0.0021527444
8.1758735e-06 -0.0030259318 -6.36043e-10 -0.003085591 -0.0022662987 -0.002298036 4.6637606e-06 -0.0017049654
-1.0123928e-15 -0.0018910352 -0.0018240096 -0.0037998885 -0.0011898188 -0.0023208512 2.360319e-16 1.898639e-17
-7.299101e-18 -0.0018448697 -0.0030884508 -2.4938132e-17 -0.00272481 -8.288198e-19 -0.003842449 -0.001334793
0.04924468 0.08352201 0.028902633 0.06437999 0.10103862 -0.06365885 0.024596855 -0.074349806
-5.107974e-07 0.07707494 0.024784524 0.091675036 0.16695106 -0.121664725 0.010644932 0.1338421
-0.06744559 0.031975176 0.106038265 -0.11441547 0.041819207 0.06141448 0.013260479 -0.071457565
0.1432159 0.06112768 0.09797066 0.07727512 0.15192957 -0.035752866 0.0064957063 -0.009233624
-0.031844262 -4.0880766e-15 0.007382899 0.11825299 -0.08026712 -0.007275365 0.023740755 0.1595558
-0.07013361 -0.13972344 -0.0126735885 0.04124894 0.09741778 -0.035351858 2.4379838e-06 -0.08337841
-0.0370204 0.15069862 -0.1030072 0.16752583 0.11574093 -0.058268625 0.00095674116 -0.061778173
-2.4266287e-06 -0.12108942 0.17060587 -0.0065731048 -0.005205409 0.102381304 0.101415776 0.06655541
-0.007039502 0.08875531 0.016092936 -0.094165266 -0.10264469 -0.011052422 -0.038613554 0.149189
-5.4599364e-13 -0.0040780134 -0.15934375 0.13098451 -0.0016524909 -0.10961841 -0.0755018 0.07881238
0.09403455 0.013261646 0.11299868 0.016982002 -0.1329 0.017868211 0.04640211 0.024693519
-0.06501525 0.088824034 0.11610885 0.14621754 0.00034134803 -0.13094151 0.07674275 0.0106455935
-0.08880578 2.1301313e-18 0.0714201 0.037844155 -0.030391166 0.06354055 0.14841825 -0.03638446
9.162034e-06 0.08201804 0.07864858 0.026881168 0.008495084 -0.0531654 4.9390675e-08 -0.07009759
0.040403407 -0.05210419 0.043845564 0.17865945 -0.14987786 0.08472217 0.00031572187 -9.589097e-17
2.922513e-06 -0.098776005 0.042687483 0.04314925 -0.14341392 -2.2943408e-05 0.026282286 0.064536564
0.036712594 0.037277546 0.06312156 -0.06259896 -0.018645171 0.05904873 -0.02955207 -0.052568536
2.865714e-06 0.04572295 0.1516252 -0.032294586 0.0055536474 0.12708126 0.058812637 0.09030485
-0.07756464 -0.03184114 -0.08212848 0.03688929 0.077613115 -0.021133225 0.11684711 0.081687905
-0.039816845 -0.118009426 -0.07139989 -0.061668336 -0.027104838 0.02915692 -0.090047315 0.13661343
0.15896077 -3.396381e-12 0.06777075 -0.088748604 -0.10631321 -0.02684075 0.009862759 -0.11026492
8.813517e-14 0.14009552 -0.056130677 -0.063338324 -0.081926994 0.17630498 2.2723125e-05 -0.109701954
0.08265793 0.018089905 0.10112424 -0.054544657 -0.13370295 0.15670738 -0.00077749294 4.797481e-10
-8.199116e-09 0.16205323 -0.09987425 0.04539444 -0.0052182465 -2.724758e-12 -0.0931375 -0.016544618
00000000: 3c15 16bb b6d6 03bb f309 ebba 9284 37bb
00000010: 9a85 2432 6a40 3cbb b1d3 ecba 4d28 2eba
00000020: 628a 6f34 90f6 e7ba 41d8 54bb e4aa 32bb
00000030: a56e e7ba b2d7 01bb 016a 13bb dd93 0ebb
00000040: 2e6c a0b7 9508 e2ba 1b44 26bb b632 39bb
00000050: e442 50bb 1015 00bb a107 24bb afaa 0cbb
00000060: bc9a f4ba daee c9b7 5c8b 21bb 6d92 48bb
00000070: 88ca 1ebb e798 d2ba 0139 58bb c801 27bb
00000080: ac1d c4ba eff7 58ac 1db6 32bb 62e4 6fbb
00000090: 4688 e1ba 929b 17bb 4ca5 02bb 0f15 0dbb
000000a0: 1c2b 0937 b64e 46bb 8cd5 2eb0 a037 4abb
000000b0: 2f86 14bb a59a 16bb 667d 9c36 2579 dfba
000000c0: b4e6 91a6 9ddc f7ba 9b13 efba 8d07 79bb
000000d0: b2f3 9bba 6c19 18bb 2910 8825 591e af23
000000e0: 08a5 06a3 8ecf f1ba 9b67 4abb 8003 e6a3
000000f0: ba92 32bb da9f 74a1 99d1 7bbb 39f4 aeba
00000100: cab4 493d 960d ab3d 37c5 ec3c a8d9 833d
00000110: 56ed ce3d 925f 82bd 587f c93c b644 98bd
00000120: bb1d 09b5 77d9 9d3d ea08 cb3c 1fc0 bb3d
00000130: 38f5 2a3e 5b2b f9bd 1568 2e3c e70d 093e
00000140: ea20 8abd 67f8 023d 972a d93d a852 eabd
00000150: 9e4a 2b3d c08d 7b3d 7b42 593c 5858 92bd
00000160: 30a7 123e 0561 7a3d d7a4 c83d 6b42 9e3d
00000170: 6d93 1b3e 9971 12bd efd9 d43b a048 17bc
00000180: 216f 02bd da49 93a7 3fec f13b a02e f23d
00000190: 1663 a4bd 2f66 eebb f97b c23c 9862 233e
000001a0: 36a2 8fbd a913 0fbe e2a4 4fbc a6f4 283d
000001b0: f982 c73d 1ccd 10bd 3e9c 2336 4dc2 aabd
000001c0: b4a2 17bd bd50 1a3e 70f5 d2bd e48b 2b3e
000001d0: 9509 ed3d 15ab 6ebd d0cd 7a3a 1c0b 7dbd
000001e0: 2ad9 22b6 bbfd f7bd 4eb3 2e3e 3363 d7bb
000001f0: 2392 aabb 4aad d13d 13b3 cf3d 344e 883d
00000200: 9fab e6bb 58c5 b53d 55d5 833c b8d9 c0bd
00000210: 6137 d2bd 3815 35bc 3f29 1ebd 00c5 183e
00000220: fdae 19ab dba0 85bb 022b 23be ce20 063e
00000230: 6598 d8ba 9e7f e0bd b0a0 9abd 6368 a13d
00000240: 3095 c03d 6047 593c da6b e73d d71d 8b3c
00000250: f016 08be 5b60 923c 2410 3e3d 104a ca3c
00000260: b726 85bd 60e9 b53d 7aca ed3d 0dba 153e
00000270: f5f6 b239 8815 06be 4e2b 9d3d db6a 2e3c
00000280: cedf b5bd 0b2d 1d22 b444 923d 7902 1b3d
00000290: e5f6 f8bc 8c21 823d f4fa 173e df07 15bd
000002a0: a3b6 1937 13f9 a73d 8212 a13d e535 dc3c
000002b0: f72e 0b3c f6c3 59bd 9f21 5433 538f 8fbd
000002c0: 0b7e 253d 346b 55bd 6897 333d 81f2 363e
000002d0: 9579 19be d182 ad3d 7987 a539 0a1c dda4
000002e0: 6420 4436 134b cabd 12d9 2e3d 45bd 303d
000002f0: 19db 12be 9876 c0b7 f34d d73c bf2b 843d
00000300: f25f 163d 57b0 183d e045 813d e233 80bd
00000310: c2bd 98bc 15dd 713d 2f17 f2bc 1b52 57bd
00000320: 9750 4036 fd47 3b3d a343 1b3e 5447 04bd
00000330: 5ffb b53b 9721 023e 85e5 703d c0f1 b83d
00000340: 36da 9ebd db6b 02bd fa32 a8bd 3919 173d
00000350: a0f3 9e3d 961f adbc 8a4d ef3d fd4b a73d
00000360: fd16 23bd edae f1bd 1b3a 92bd f097 7cbd
00000370: f70a debc 7eda ee3c ba6a b8bd 64e4 0b3e
00000380: 9dc6 223e c3ff 6eac 64cb 8a3d d4c1 b5bd
00000390: beba d9bd 22e1 dbbc 6997 213c 93d2 e1bd
000003a0: 7776 c629 3375 0f3e 48e9 65bd 86b7 81bd
000003b0: 57c9 a7bd 4b89 343e 8a9d be37 6bab e0bd
000003c0: 9048 a93d 4831 943c 3a1a cf3d 386a 5fbd
000003d0: 6de9 08be e677 203e abd0 4bba 45df 0330
000003e0: 18dc 0cb2 48f1 253e df8a ccbd 85ef 393d
000003f0: d3fd aabb e0bc 3fac e0be bebd 9488 87bc

bias f4 [32]
-0.0021618973 0.09306167 0.00709854 -0.09406495 -0.013698477 0.10561046 -0.11188466 0.086615525
-0.060255587 -0.07965649 0.08466797 -0.078971654 0.07918691 -0.01580957 -1.2581374e-08 0.11120766
-1.2186128e-18 -0.106716946 -0.04879738 -0.094707526 -0.003377555 0.018665686 -0.12516862 -0.11705183
0.09043781 0.009659988 0.08054401 4.0391294e-07 -0.036153585 0.01162025 -0.09573492 0.0052384515
00000000: 9eae 0dbb 1e97 be3d df9a e83b 20a5 c0bd
00000010: 946f 60bc 4c4a d83d c923 e5bd 7b63 b13d
00000020: 90ce 76bd f122 a3bd 6766 ad3d e4bb a1bd
00000030: bf2c a23d 1283 81bc 7825 58b2 d7c0 e33d
00000040: e4d5 b3a1 6a8e dabd c3df 47bd 05f6 c1bd
00000050: f859 5dbb c8e8 983c 342c 00be dfb8 efbd
00000060: 7537 b93d ed44 1e3c 42f4 a43d 5fd9 d834
00000070: c815 14bd dc62 3e3c ab10 c4bd 51a7 ab3b

weight f4 [10, 32]
-0.0012644152 0.023641283 -0.15765221 -0.04761193 0.049212966 0.087635964 -0.16547005 0.07202067
0.077998675 -0.19903818 0.00985441 0.12821989 -0.1180632 0.14464417 -5.9995353e-05 0.12437427
-9.033095e-05 -0.1477818 0.1345089 0.06373957 -0.17821273 -0.021612182 -0.13951126 -0.14563689
0.131785 -0.20558038 0.14038555 2.119581e-08 -0.25052235 0.005931679 0.14171037 -0.002148107
0.0018707627 0.07414256 -0.09543699 0.0058184913 -0.046880398 -0.1362581 0.15320846 0.030310145
0.07797522 0.16854024 -0.061400577 0.07072111 -0.01994147 0.1354258 -0.0004463688 -0.11820241
4.804741e-10 -0.18816374 -0.04548041 -0.0825527 0.010629072 0.039443754 -0.14915685 0.09392152
-0.032882147 -0.011385004 0.0247652 -2.4040367e-09 0.06029434 -0.0056518884 0.06977027 -0.08692996
-0.00044829157 -0.013178519 0.20382723 -0.15758109 -0.15460107 -0.06289323 0.17689201 -0.06314402
-0.08843317 -0.14511758 -0.06783871 -0.19106145 0.12819423 -0.08451966 6.895155e-09 -0.18334799
0.0002293981 -0.02290759 0.006155988 -0.15166004 -0.1180583 0.14711066 -0.123805724 -0.020844825
-0.16462252 0.19943215 -0.0840405 -7.469457e-18 0.006400731 0.09900288 -0.064337574 0.06128606
0.001438577 0.14878818 0.16380335 -0.18034597 -0.017388346 0.18872863 0.15472774 0.06984868
-0.094409145 -0.16982788 0.10175668 -0.103867315 -0.095817514 -0.13379073 8.351235e-18 0.013280526
-5.5075244e-17 0.14299837 -0.19719961 -0.2049439 -0.14602657 -0.10905145 0.036381807 -0.22374219
0.12583877 -0.08757697 0.077072345 -3.4455054e-12 -0.17323406 0.1220004 -0.1336112 -0.0018904635
0.0018851794 -0.15278286 -0.061270688 0.20516072 0.16226992 -0.03573952 0.038906496 0.10681181
-0.03335702 -0.21001825 0.16552559 0.16414201 -0.075393654 0.02340115 -1.3210862e-18 0.14250849
5.6594487e-17 0.0015708291 -0.11799122 -0.1713685 0.16068852 0.12195939 0.08228302 -0.13405691
-0.13231184 -0.11770617 -0.18171948 -3.2583052e-09 -0.038610946 -0.12335538 -0.11930673 -0.01178351
0.00014983844 -0.0063114986 0.12707569 0.026849473 0.111529835 -0.0749308 0.07991154 0.06842996
0.12848619 -0.0784967 0.03373935 -0.1926365 0.14963308 -0.20660152 -5.840051e-06 0.022024542
1.7417606e-05 0.16962278 0.073092096 -0.005503038 -0.17773351 -0.1020981 -0.09948304 0.1225253
0.05943106 -0.077226885 -0.048720684 -3.6975423e-17 -0.15207548 -0.1932702 0.14875835 -0.036933325
0.0016870919 0.0960798 0.16724165 0.059830636 -0.21991542 -0.22835538 0.06238026 0.063872285
0.18580393 -0.04334884 -0.040301345 -0.13474154 -0.1384155 -0.16056406 -2.0918167e-06 0.131575
6.597485e-18 -0.20839071 0.1540617 0.07903427 0.04579885 -0.15638418 -0.077446885 0.21139102
-0.13655336 -0.021934384 0.2015729 -2.4074548e-16 0.17470701 -0.20757706 -0.040210687 0.011308816
-0.0018322995 -0.23507798 -0.033456754 0.05928669 -0.10049516 0.056425195 0.06712947 0.13706815
-0.06353838 -0.15455393 -0.037762027 0.15315926 -0.048208073 0.10393266 -9.0870034e-11 -0.066469416
9.542875e-06 0.14745665 0.008343625 0.06628093 -0.1528013 0.18748511 0.15744479 0.039765656
0.051957007 0.09690607 -0.07482999 9.2754835e-06 -0.17514417 0.019525034 0.21260095 -0.0327711
00000000: bcba a5ba 5dab c13c 956f 21be ba04 43bd
00000010: 8993 493d 7c7a b33d fb70 29be 937f 933d
00000020: c5bd 9f3d aad0 4bbe 6474 213c 134c 033e
00000030: 1ecb f1bd 9a1d 143e 85a3 7bb8 f0b7 fe3d
00000040: 0f70 bdb8 1d54 17be b3bc 093e e489 823d
00000050: 667d 36be 080c b1bc 0adc 0ebe d621 15be
00000060: a6f2 063e aa83 52be 3bc1 0f3e 1412 b632
00000070: 7744 80be 885e c23b 861c 113e 41c7 0cbb
00000080: 6134 f53a 0ed8 973d 7874 c3bd 0ba9 be3b
00000090: a905 40bd 3e87 0bbe aee2 1c3e fb4c f83c
000000a0: 79b1 9f3d d095 2c3e 2c7f 7bbd 3bd6 903d
000000b0: 4b5c a3bc 10ad 0a3e 9b06 eab9 1b14 f2bd
000000c0: 5c12 0430 ffad 40be ab49 3abd 6411 a9bd
000000d0: 8f25 2e3c c68f 213d 93bc 18be ed59 c03d
000000e0: 6eaf 06bd 2b88 3abc 64e0 ca3c 4334 25b1
000000f0: 33f7 763d 7a33 b9bb b7e3 8e3d 5608 b2bd
00000100: ad08 ebb9 b7ea 57bc 16b8 503e f05c 21be
00000110: be4f 1ebe 2ace 80bd 2e23 353e a751 81bd
00000120: 731c b5bd b499 14be 06ef 8abd 9da5 43be
00000130: 5945 033e a518 adbd 6dea ec31 93bf 3bbe
00000140: 958a 7039 b3a8 bbbc 2cb8 c93b c54c 1bbe
00000150: 8dc8 f1bd 2da4 163e db8d fdbd c4c2 aabc
00000160: ce92 28be f137 4c3e 6d1d acbd 83c9 09a3
00000170: 39bd d13b 06c2 ca3d 6bc3 83bd 1707 7b3d
00000180: a28e bc3a ee5b 183e 11bc 273e 9dac 38be
00000190: 0172 8ebc 1442 413e f370 1e3e d30c 8f3d
000001a0: 9559 c1bd 5ce7 2dbe ce65 d03d 63b8 d4bd
000001b0: f93b c4bd 7000 09be 980d 1a23 9096 593c
000001c0: 5ffd 7da4 2a6e 123e b2ee 49be d0dc 51be
000001d0: fd87 15be 5e56 dfbd 1705 153d ac1c 65be
000001e0: e1db 003e 8e5b b3bd 1bd8 9d3d b574 72ac
000001f0: 4564 31be 59db f93d 60d1 08be 6ec9 f7ba
00000200: 2018 f73a 1c73 1cbe f9f6 7abd a715 523e
00000210: 162a 263e 9a63 12bd 6b5c 1f3d 26c0 da3d
00000220: 5fa1 08bd 060f 57be 8a7f 293e d814 283e
00000230: fd67 9abd c5b3 bf3c 3af5 c2a1 bfed 113e
00000240: 7d7f 8224 47e4 cd3a 61a5 f1bd 397b 2fbe
00000250: 888b 243e d8c5 f93d 0084 a83d 3746 09be
00000260: c17c 07be ef0f f1bd ac14 3abe b6e8 5fb1
00000270: 8326 1ebd bfa1 fcbd 1657 f4bd a00f 41bc
00000280: f31d 1d39 b0d0 cebb 2120 023e 6df3 db3c
00000290: c169 e43d 5275 99bd a9a8 a33d 0225 8c3d
000002a0: e291 033e e1c2 a0bd 4632 0a3d 8142 45be
000002b0: 6a39 193e 598f 53be a8f5 c3b6 d06c b43c
000002c0: 061c 9237 98b1 2d3e 4fb1 953d d452 b4bb
000002d0: c6ff 35be cf18 d1bd c4bd cbbd 8bee fa3d
000002e0: fc6d 733d 2129 9ebd 578f 47bd e084 2aa4
000002f0: adb9 1bbe a0e8 45be 1c54 183e 6647 17bd
00000300: 6921 dd3a 7cc5 c43d 6541 2b3e f810 753d
00000310: 8231 61be fed5 69be 7282 7f3d 79cf 823d
00000320: 6343 3e3e 8e8e 31bd 0613 25bd b0f9 09be
00000330: cbbc 0dbe e86a 24be 2361 0cb6 99bb 063e
00000340: 7c67 f322 6064 55be 5ac2 1d3e b8dc a13d
00000350: 9397 3b3d 2d23 20be 799c 9ebd e376 583e
00000360: a5d4 0bbe bdaf b3bc 2069 4e3e c3c7 8aa5
00000370: 65e6 323e 158f 54be f6b3 24bd 9d48 393c
00000380: c529 f0ba 48b8 70be f309 09bd 9ad6 723d
00000390: 68d0 cdbd 1b1e 673d 2d7b 893d 985b 0c3e
000003a0: 6920 82bd 6343 1ebe 5bac 1abd c8d5 1c3e
000003b0: d475 45bd a5da d43d 48d3 c7ae 1e21 88bd
000003c0: 561a 2037 e0fe 163e b3b3 083c 4cbe 873d
000003d0: f277 1cbe 19fc 3f3e 3539 213e 50e1 223d
000003e0: dfd0 543d b176 c63d 7740 99bd e69d 1b37
000003f0: fe58 33be f7f2 9f3c 10b4 593e fd3a 06bd

bias f4 [10]
0.11700334 0.16171783 -0.12718353 -0.16715777 0.18455683 -0.122990616 -0.08511284 -0.05217008
0.09092369 -0.04534151
00000000: 729f ef3d 5c99 253e 663c 02be 682b 2bbe
00000010: 77fc 3c3e 81e2 fbbd a44f aebd 4bb0 55bd
00000020: 3336 ba3d 05b8 39bd
