Assignments/Assignment 4/results/classifier_cnn_M_256_kernels_32/classifier_cnn_M_256_kernels_32.model (torch, 445051 bytes, 14 tensors)

weight f4 [3, 3, 3, 3]
00000000: 8fec cfbd a905 7b3c 41d2 8abc 2a29 e53d
00000010: 8fb0 163d f354 933d dac2 c93d 86a6 ffbc
00000020: a2b8 dc3c 9136 123e ddd6 f7bd d4cb 4cbe
00000030: c35f ad3d 64ee 063e df64 6bbd 28e6 883d
00000040: f2e8 2b3e 3650 8d3e 2aea 593c 4b58 9cbd
00000050: f135 e83d fb7e 05be ca25 de3d 192f e9bd
00000060: 9583 013e a305 07bd 06f8 bc3d aec8 263d
00000070: b845 643e a846 143e 42a6 adbd d552 0b3d
00000080: 16cb 0abe 6791 a8bd 8324 53be 0439 a53d
00000090: 6a7c 06be 9187 523c 57e2 483e 003d 07bd
000000a0: 6943 0c3c 9548 e83d b3b5 8bbd 182a c7bd
000000b0: 362b e63d ca06 f83d 8725 f8bc 376d 303e
000000c0: 8738 25be e5b0 db3c 9b26 be3d b08c f53c
000000d0: 0e0d d3bd 64a8 3ebd 87d3 553e 3584 413d
000000e0: 0108 633e cd0e 53bd a927 fbbc 4e53 63be
000000f0: 0265 25be 81b8 523d d2db d8bd f298 d73d
00000100: 47dc 883e b5ae 9b3d 7d78 c4bd f6ce 3ebe
00000110: 79c1 07bd e006 5abd e739 dfbd bc0e 00bd
00000120: b128 a43d c0f3 453d b62f 113d 2ebb 00be
00000130: 47c9 973d 2d56 cf3d 1984 ed3d ca11 2abe
00000140: 7181 02be
-0.10152542 0.015321174 -0.01694596 0.11189492 0.036789473 0.07193937 0.09851618 -0.031207334
0.026943509 0.14278628 -0.12101529 -0.1999963 0.08465531 0.13176876 -0.057469245 0.06684524
0.1678808 0.2760026 0.013300458 -0.07634028 0.113384135 -0.1303672 0.108470514 -0.11385936
0.12647851 -0.03296436 0.09226994 0.040718727 0.2229222 0.14480078 -0.08478977 0.03401454
-0.13554034 -0.08230858 -0.20619397 0.080675155 -0.13133398 0.012849704 0.19617592 -0.03301716
0.008560994 0.11341969 -0.06821766 -0.097248256 0.112387106 0.1211067 -0.030291332 0.17229162
-0.16134845 0.026817748 0.09284707 0.029974312 -0.10305224 -0.04654731 0.20881473 0.047245223
0.22171022 -0.051527787 -0.03065856 -0.22199747 -0.16151813 0.051445488 -0.105888024 0.10527219
0.26730558 0.07601682 -0.09593294 -0.18633637 -0.033143494 -0.053229213 -0.10899716 -0.03126405
0.08015574 0.04832816 0.03544589 -0.12571403 0.074114375 0.101238586 0.11597461 -0.16608348
-0.1274469

bias f4 [3]
00000000: ed19 62bf c4b2 c2bf 0cf7 213f
-0.8832081 -1.5210805 0.6326759

weight f4 [3, 3, 3, 3]
00000000: 112c b1bc 9a96 3ebc 1b1b 5ebd c778 16be
00000010: e7d5 6abe e2d5 393e 87d8 55be 1294 533c
00000020: cf0e 9e3c 31c0 353d 9de0 bcbc 98ff ba3c
00000030: 50c4 9bbd c096 483e bf9e a2bc 9c6f 173e
00000040: 9c5a 833e 8f0d 31bd 89c4 0a3d e670 a9bd
00000050: 0a13 b5bd 3eba f93d 373e a0be 87cd d33c
00000060: d3ce 55bd bfe9 3ebe 6877 2dbb fd7f 13be
00000070: bc2c 483d 1880 873c 5112 46be 50d1 9cbe
00000080: 8cf1 ecbd ad4e 34bd 3116 bc3d 537b a03d
00000090: c8e8 223e 8ca7 023e 1133 c23c 9849 58bd
000000a0: c231 b5bd d8b6 67bd 4e10 6ebd a346 9e3c
000000b0: b4e8 d33c d972 4cbd d90e 16bd 09f8 31bb
000000c0: 6478 f43d eee1 9a3d aafb 3a3e 164b 08bd
000000d0: caf3 bf3d 535e b0bc 7644 15be c0d2 d53d
000000e0: 5b0a a83d 8771 e8bd 99cd 05be efdb 653d
000000f0: 2a3d 603d ef92 9fbe b621 d13d e456 313e
00000100: ab80 6f3e 9190 24be c146 f33c 7833 ac3d
00000110: 5709 4f3d e33c c3bc 81a8 553e 599a a03d
00000120: 850a 52bd a142 d9bd 36ba 17be 6d72 053d
00000130: 9ca1 173d 8cdd 4fbe 774c 1abc ba02 bb3b
00000140: b1c1 08be
-0.021627458 -0.011632586 -0.05422507 -0.1469451 -0.2293316 0.18147996 -0.2088338 0.012913721
0.01929417 0.04437274 -0.023056323 0.022826955 -0.07605803 0.19588757 -0.019851087 0.1478867
0.25655067 -0.04322582 0.033878837 -0.08273487 -0.08841522 0.12193726 -0.31297466 0.025854839
-0.052199196 -0.18643855 -0.0026468877 -0.14404292 0.048870787 0.016540572 -0.19342925 -0.30628443
-0.11569509 -0.044020344 0.0918392 0.07836022 0.15909111 0.12759227 0.023705991 -0.05280456
-0.08847381 -0.056570858 -0.058121018 0.019320792 0.025867797 -0.049914215 -0.036635254 -0.0027155897
0.11937025 0.07562624 0.18260065 -0.033274733 0.09372671 -0.021529352 -0.14576897 0.10440588
0.082051 -0.113497786 -0.1306671 0.05611795 0.05474583 -0.3116679 0.10211508 0.17318302
0.23388927 -0.16070773 0.029696824 0.084082544 0.050546017 -0.023832744 0.2086506 0.078419395
-0.051279563 -0.106084116 -0.14817128 0.032579828 0.037019357 -0.20299357 -0.009417645 0.005707112
-0.13355137

bias f4 [3]
00000000: 7969 863f 93bf b0bf defe 1fc0
1.0500938 -1.3808464 -2.4999309

weight f4 [3, 3, 3, 3]
00000000: 9ed0 e7bd 17bb c8bc 5e91 8cbc e361 40bd
00000010: d74f 0abe a627 97bd 95b2 71be 767b 043d
00000020: 8d41 653d 059d 1b3d b9a1 c1bd ccb8 c63c
00000030: c2b7 d03d a5a1 abbc daa2 833d 2b28 9d3c
00000040: 490e da3d 84e8 ecbc 53c6 9c3d ddda 153e
00000050: 4bda 0f3d 0f3a 9b3e 691d 483e fc67 65bd
00000060: e16c 5cbc aba4 603b b884 d7bd f094 313d
00000070: c56e 81be a099 82be 6130 80bd a1fb debb
00000080: 428e 1b3d 83d1 433d 1cb5 debc 3d7d 533d
00000090: 8035 893d 0558 633e ed07 4d3e 73c7 543d
000000a0: 6015 3bbe b319 39bd 4889 b239 db55 ec3d
000000b0: bbf4 45be 26af bdbd e8cf 91be a326 f1bd
000000c0: e117 83bd b68f 9b3e 63d1 d03c 5d26 ab3c
000000d0: 5d16 053e 6e5a c63d 3c01 33bd cead d1bc
000000e0: 9445 18bd a035 34be fdf2 1f3e d828 043e
000000f0: 4860 653e 1c27 e83d d35f 853d f03c 5abe
00000100: 95a7 563e a77f 793d ac17 9ebe bd22 633d
00000110: 40c1 393e 39da b9be 0462 8b3e 1da6 25bc
00000120: 3ddf ff3d ecc0 0abd 326d 0abe 257b 9bbc
00000130: d19d f13c 7998 9a3d f3dc f0bd d5ec 663d
00000140: ac87 8abc
-0.113190874 -0.024503274 -0.01715916 -0.046968352 -0.13507019 -0.07380609 -0.2360328 0.032344304
0.055970717 0.037991542 -0.09454674 0.02425804 0.10191299 -0.020951102 0.06427546 0.019184193
0.10647256 -0.028919466 0.07655015 0.14634271 0.03512029 0.30317733 0.19542469 -0.05600737
-0.013453693 0.0034277837 -0.10523361 0.04335493 -0.25279823 -0.25507832 -0.062592275 -0.006804899
0.037977464 0.047807228 -0.027185969 0.05163311 0.066996574 0.22201546 0.20022555 0.051948022
-0.18269873 -0.045190524 0.00034053088 0.11539813 -0.19331639 -0.092619225 -0.28478932 -0.117749475
-0.06401039 0.3038308 0.025490468 0.020892316 0.12996812 0.09685217 -0.04370235 -0.025595572
-0.03717573 -0.17598581 0.15620036 0.12906206 0.2240001 0.113355845 0.06512418 -0.21312308
0.20962365 0.060912754 -0.30877435 0.05545305 0.18140125 -0.36299303 0.27223217 -0.010110405
0.12493751 -0.03387539 -0.13518217 -0.018979618 0.029494198 0.07548613 -0.11760893 0.056378204
-0.016910397

bias f4 [3]
00000000: ed50 26c0 470f f33e f3e8 d3bd
-2.5986893 0.47472593 -0.10347166

weight f4 [128, 768]
00000000: 8455 2dbc b472 0f3d 2741 3fbd 28f6 c03c
00000010: a2e0 7c3b 76ec 72bc 6712 233c c74d 893d
00000020: 7f03 233d ef3f 18bc 60be dab9 65d7 cabc
00000030: c328 a13c db1e 983d f6d6 723d adca 803d
00000040: 159f 6c3b d907 8d3d 4b59 a2bd 64ac a03d
00000050: a1e6 5f3d b74a 6f3d 5bee 96bc b974 013d
00000060: 39d9 323b 4d29 d1bd 2612 d3bd c61b 92bd
00000070: b0da ff3c 7e1f 0fbc 6f88 e1bc ff47 90bc
00000080: e343 a9bb bb77 1e3c 9c57 6fbd 9bbb f13c
00000090: d4a4 903d 3860 1cbb e28a e5bb b536 4cbc
000000a0: 64bd 153c 50f6 163d 12f5 cfbc d5d4 69bd
000000b0: a368 e43c 3d67 543c 3a95 a0bd 5423 e0bc
000000c0: 4d6b 8c3c 2010 9fbb de76 acbc 4043 273d
000000d0: 63dc ba3c 2f58 3fbd 8cf9 ffbb 2ac3 44bd
000000e0: 0e40 ccbd 0144 febc fcfd 64bd 88d1 88bd
000000f0: 63ee 3dbd 7f17 11bc 9a6b 183d ae03 1d3d
00000100: 9905 103d 21be f83c a11a 863b 5027 b93d
00000110: 5493 61bb 2824 993c b940 603c 38d9 0cbc
00000120: 2795 22be 2b1b c8bd 93a5 86bd 715a 2dbd
00000130: edbb 4cbd a22c b2bc 943d 1b3d 4c58 713d
00000140: 6371 773d 7b9b 823d 4da6 7fbc aeee 673d
00000150: e7bd 8d3d 94ee b63d a1f2 49bc ba71 adbc
00000160: 5fbf dfbd 35be 2dbd aa96 61bd bf4e 1ebc
00000170: 4378 42bd 7eca a4bd 5b87 f53c 3bbe 2a3d
00000180: 1b6c 003d 6bd9 583d 633f 04bc 1a51 853d
00000190: 996c 9d3d f218 c83d af02 87bd c576 e8bc
000001a0: 35f0 71bd 6093 87b9 1863 843c 03eb 48bd
000001b0: 4253 ba3c fe1d 52bc 1d47 b6bb b45a 34bc
000001c0: 90ce a63d 2121 4b3d a12a 963d bc36 853d
000001d0: 5ff2 9a3d e92b c6bc 5e95 edbc cfe1 c0bd
000001e0: 25ab b4bd 5841 023d 5713 913d 15fb f63c
000001f0: df76 423c 2677 67bd 1f75 61bc e657 48bd
00000200: 4d1c 803d b26c 9e3d d4f2 143d 8cf4 8639
00000210: a3b4 693d 49d2 d3bc c894 3cbd 4728 8dbd
00000220: b875 e9bd 2321 333d 0c0d 833c d5b0 a73d
00000230: 8e12 3e3b 74ae f0bc 9dc2 e5bc 145b d23c
00000240: a12c 6c3d 80c5 c13d 5b12 b73d 378e 8c3c
00000250: a040 6c3d 38ed 333d ef73 ebbc 1497 86bd
00000260: 2d95 d1bd 16d8 ca3d e8a8 bf3d fc21 df3d
00000270: b0c3 893d 01d4 df3b 2ca2 863d f476 ff3d
00000280: b2dc 053d 9392 8c3d 304c ab3d f2e1 4a3c
00000290: 12a1 443d 47ab 543d 1b32 b33b 5442 9a39
000002a0: 7665 a0bd 0687 ca3c c860 103d 86b9 963d
000002b0: 0018 b63d 9dd5 683d c567 3e3c 6e45 f03d
000002c0: 13e8 523b ab36 403c 8ceb 813d 9b5b ad3a
000002d0: 39a8 bcbd bfb6 a9bc d259 b33c f514 3b3c
000002e0: 2c87 0fbe 424f 2dbd 238b 9f3c 2158 d03c
000002f0: 2157 87bc a52f 8b3c e2d0 dfbc fad0 803c
00000300: adab 103d e121 23bc a4dc d73d 8e24 ca3d
00000310: d038 e5bc 3008 77bc 6710 41bd db45 ffbc
00000320: cfd0 95bd 8639 d8bd a2d2 d0bc a4f9 4b3b
00000330: 2bcc 7dbc d576 ce3c d7b9 f83b 85d5 383d
00000340: dd6f 343d 6a43 08bd bc75 ad3d 7cfb 0b3d
00000350: 1008 523d 710e 9ebd 161d 59be 1c64 27be
00000360: 659c 38be acb7 2bbe bbc5 6a3c 95ea 993b
00000370: cbdc 0b3c e624 783d 03e2 70bb 8355 783c
00000380: a9ee 40bd cdf1 10bd 5b69 1cbd 73a9 f7bc
00000390: 6877 7f3d e64c 1dbd 13f3 c9bd 8adb b4bd
000003a0: cfc4 87bc 6230 90bc 088b 3b3c 33f9 023d
000003b0: 16fc 9bbb ac94 b23c 7d0c a73b 60f9 793d
000003c0: 951d bbbd 56ea f8bc d994 4bbd a850 81bc
000003d0: dd7b 9abc 2ed9 eabd 29a2 05be a711 a5bd
000003e0: e2c1 813b 5911 143d 72f2 32bb 9cc6 9d3c
000003f0: d368 aa3d 7356 ae3d 8a57 573d 70d0 f93b
-0.010579471 0.0350215 -0.046692993 0.023554876 0.003858604 -0.0148268845 0.009953118 0.06704288
0.039798256 -0.009292587 -0.0004172204 -0.024760911 0.019672757 0.0742776 0.059287034 0.06288657
0.0036105562 0.068862624 -0.079271875 0.07845381 0.054663304 0.058420863 -0.018424204 0.031605456
0.002729012 -0.102129556 -0.10306196 -0.071342036 0.031232208 -0.008735536 -0.027530877 -0.017612455
-0.0051655634 0.009672101 -0.05843316 0.029508403 0.070626885 -0.0023861062 -0.0070050815 -0.012464215
0.0091393925 0.036855996 -0.025385413 -0.057087738 0.027881926 0.012964067 -0.07840963 -0.027360596
0.017141009 -0.004854217 -0.021052774 0.04083562 0.022810167 -0.046714958 -0.0078117307 -0.048037685
-0.09973155 -0.031038286 -0.05590628 -0.0668059 -0.04636992 -0.0088557 0.03721199 0.038333587
0.03516159 0.030364098 0.00409253 0.090407014 -0.003442009 0.018693998 0.013687306 -0.008596711
-0.1587721 -0.09770807 -0.065745495 -0.04232258 -0.049983907 -0.021749798 0.037900522 0.058922097
0.06041087 0.06377312 -0.015603614 0.056624107 0.069209866 0.08932224 -0.012325914 -0.021172393
-0.10925173 -0.042417724 -0.055075325 -0.009662329 -0.04747797 -0.08046435 0.02997177 0.041685324
0.031353097 0.05294172 -0.008071753 0.065096095 0.07686729 0.09770383 -0.06592309 -0.028376946
-0.05906697 -0.0002585901 0.016160533 -0.04905225 0.022744779 -0.0128245335 -0.0055626766 -0.011007953
0.081448674 0.04959214 0.073323496 0.065045804 0.0756576 -0.02419086 -0.029001888 -0.094180696
-0.08821706 0.031800598 0.07083767 0.030149022 0.011869161 -0.056510113 -0.013760834 -0.04891195
0.06255398 0.07735576 0.03636439 0.00025740673 0.057057034 -0.025857108 -0.046040326 -0.06892448
-0.11399406 0.043732774 0.015997432 0.08188025 0.0029002759 -0.02938006 -0.0280469 0.025678195
0.05765975 0.09461498 0.08939048 0.017157657 0.05767882 0.0439274 -0.028741805 -0.065717846
-0.10233531 0.09904496 0.09358388 0.10895154 0.067267776 0.0068306928 0.065739006 0.124738604
0.032681175 0.06863894 0.08364141 0.012382971 0.04800517 0.051921155 0.0054686195 0.00029422587
-0.07831852 0.024722587 0.035248548 0.073596045 0.088912964 0.056844342 0.01162142 0.11731993
0.0032181784 0.011731784 0.06343755 0.0013226153 -0.092117734 -0.020717023 0.021893416 0.011418571
-0.14016408 -0.042311914 0.019475525 0.025432648 -0.016521038 0.016990492 -0.027321283 0.015724648
0.035319973 -0.009956808 0.10540131 0.098702535 -0.027981192 -0.015077636 -0.047134783 -0.03116124
-0.07315218 -0.10557847 -0.025491063 0.003112414 -0.015490572 0.025203148 0.007590513 0.045125503
0.044051994 -0.033267416 0.08469722 0.03417538 0.05127722 -0.07717598 -0.21202502 -0.16346782
-0.1802841 -0.16769284 0.014329369 0.004697154 0.008536528 0.060582064 -0.0036755807 0.015157106
-0.047102604 -0.03538685 -0.038186412 -0.030232167 0.062369734 -0.038403414 -0.09860816 -0.08830936
-0.016573338 -0.017601196 0.011446722 0.031975936 -0.0047602756 0.021799408 0.0050979243 0.06102884
-0.09136502 -0.030385178 -0.0497025 -0.01578553 -0.01885789 -0.11467205 -0.1305014 -0.080600075
0.00395988 0.036149357 -0.0027305153 0.019259743 0.08320775 0.08512583 0.052573718 0.0076237246

bias f4 [128]
00000000: d529 42be 4f7f 6cbe f5ee 403e 5b96 85bd
00000010: 0b35 173e 290c 773d 362e 2b3f dd6f c9bd
00000020: b61e e7bd 3bd1 173d 9f39 e53d 3ce6 3ebb
00000030: b316 96bc d097 953e da5a 4c3e 3acf f43d
00000040: 5c99 7abd 103b cebd a5df 633d b6ba f83c
00000050: 0390 d7bc af68 f63c 5246 573e 99f9 653e
00000060: f03a 7dbd 2df4 88bd 22dd 833e fb3b 62bd
00000070: 39f4 42bd dbab aabd 8187 ae3d bac2 19be
00000080: cad4 99bc 3b7b 59bd f955 3bbd 2145 c23c
00000090: 94ab 4b3e d37d 073d 7918 533c 24c5 dfbd
000000a0: 592b 28be d83e 66be cf46 7e3d b680 053f
000000b0: 852a 1bbf d5e6 da3e 9234 04be a077 83bd
000000c0: 5162 45be 998e 7ebe f303 57bd 8cc6 063f
000000d0: 3eae 06bd 3eb3 46bd 6b25 febd eb4e 26bc
000000e0: f2e6 0abe 9f41 863d ba9f b63f 8417 06bf
000000f0: cd8e 3c3d 637b c03d a105 513d 2dff 99bc
00000100: eb61 e33d ac17 423e ebb3 29be 3521 243b
00000110: 2d47 08be 1621 873d 3ffb fdbd 1440 11be
00000120: 4df3 143e ff22 073f dbee 213e ee9a 0e3e
00000130: 85f5 263f 8dd3 b23a 7447 6e3e 51ae 3dbc
00000140: bbc6 1b3e bf41 bc3e bc70 9a3d 8769 11be
00000150: 2ebf 41be 19b2 f13d 852c 993d 0137 903e
00000160: 5707 553e 583c 843d d1d9 e33c 5b85 323e
00000170: 8915 dabe 2032 773e f533 c6bd 66ff 8a3d
00000180: 07cf 9abc 68d8 0b3e 987d c23d 4ed3 52be
00000190: 384d 833c 757f ab3d f431 fc3d 72e4 873b
000001a0: 72e1 713e 2f52 f9bc 9d8e 113f 6ff7 453e
000001b0: e900 1d3e 5e4f 2d3c 884b 28be 3100 ed3d
000001c0: 79f1 36bd fdf3 c03d f616 eb3c bf69 583e
000001d0: e317 7f3d bedc ddbd 49dd 803e adb0 fb3d
000001e0: b7f8 f53f 0f54 343e 2abf 283c f1bd 953d
000001f0: d8b2 d7bd e2cc 8a3d 804b c23d c540 183e
-0.1896127 -0.2309544 0.18841155 -0.06522819 0.14766328 0.06031433 0.6686739 -0.09835789
-0.112851545 0.037064772 0.11192631 -0.002912893 -0.01832137 0.29217386 0.19956532 0.11953588
-0.06118141 -0.10069859 0.055633206 0.030362468 -0.026313787 0.030079214 0.21022919 0.22458495
-0.061823785 -0.06687198 0.25754648 -0.055232983 -0.04759619 -0.0833356 0.08521939 -0.15015689
-0.018778224 -0.053096037 -0.045736287 0.023714604 0.1988967 0.03307898 0.012884253 -0.109262735
-0.16422786 -0.2248491 0.062079247 0.5214952 -0.60611755 0.42754236 -0.12910679 -0.06419301
-0.19275786 -0.24859084 -0.052494 0.5264671 -0.032881014 -0.048510782 -0.12409481 -0.010150651
-0.13564661 0.06555485 1.4267495 -0.5237963 0.046034623 0.09398534 0.05103076 -0.018798435
0.11102661 0.18954343 -0.1657254 0.0025044207 -0.13308401 0.065981075 -0.12401437 -0.141846
0.14545937 0.52787775 0.15813772 0.13926288 0.65218383 0.0013643369 0.23269445 -0.011577205
0.15212528 0.3676891 0.075410336 -0.14200412 -0.18920586 0.118015476 0.074791946 0.28166965
0.20803581 0.06456822 0.027813824 0.17433684 -0.42594555 0.24140215 -0.09677879 0.06786995
-0.018897546 0.13656771 0.09496611 -0.20588419 0.016028032 0.0837392 0.12314215 0.004147106
0.23621157 -0.030434696 0.56858236 0.1933267 0.15332378 0.010578005 -0.16435063 0.11572302
-0.04466388 0.09421537 0.028697472 0.21134089 0.06227864 -0.10833119 0.25168827 0.122895576
1.9216527 0.17610191 0.010299483 0.07311619 -0.105321586 0.067773595 0.09487057 0.14868458

weight f4 [64, 128]
00000000: eef1 3abe 7b32 95bc aa9b 863d f6cc a4bd
00000010: 676a 4abd 347d ce3c 6335 41bc 1adb 11be
00000020: 0c3b 093d ea60 c13c af73 d6bd 5a2b 9ebd
00000030: 8559 c23d a681 a3bd b881 55be 0038 9fbd
00000040: 14c9 9ebd dc5c 3f3d c477 a43d 2610 c3bc
00000050: 774d 853d ed10 8cbd 19ae 20be 427f c6bc
00000060: d833 0abd 8806 003d 3b4b c2bd 09a0 d2bc
00000070: 8bff 08be 9f92 3fbd a3b5 7cbc 7120 82bd
00000080: 375f 6fbd 6065 8e3d a59a 2dbd ed20 fa3c
00000090: be22 2abe 6cb7 6e3d e498 9737 73c3 edbd
000000a0: 8ded 873d 5958 9ebc e449 4bbc 25e7 703c
000000b0: 1e2d b6bd 3c63 ffbd a473 42bc bd61 1f3d
000000c0: 3ee1 7e3d 5e6d b7bd abcd 01bd b1e1 2fbe
000000d0: 9365 b83d 4d46 85bd bd0f 393d c9ae c83c
000000e0: 925e 44be f751 0abd 51f9 3a3d cd5b 8fbc
000000f0: b2d3 20bd f427 093d 3a90 44bc 6a36 e73c
00000100: 3c3b c23d 1819 123c 1958 ef3c 0126 d53d
00000110: 93fe 8ebd d87c 873d b62a b3bc c531 f8bd
00000120: 8543 db3b 286a 6dbd 61ab ee3c ff46 2e3d
00000130: e911 97ba d586 fdbc 8720 473e 739d 1e3e
00000140: 359c 3dbc d7d3 da3d 5536 90bd 47ca 0dbe
00000150: 18a2 e13a e3e6 193d cb93 ca3d 5fa4 de3d
00000160: 8e05 0b3b 2d5d aabd 5124 bc3c 4275 13be
00000170: f723 a6bb d450 ebbd 7757 073d fe56 883d
00000180: 36fd a43c dbd1 17bd d913 003c 2753 783c
00000190: f4ad c9bd 5563 f23c 8865 85bd 836c eabd
000001a0: 6ea7 c5bc e9ef bdbd b71a a7bb 8b54 b43b
000001b0: 5045 c5bd 396a d4bd 3e71 ecbc 055a fc3c
000001c0: 4c8f b43c c9de b0bc ca1e 843c bda7 a0bd
000001d0: bc99 72bd 35e0 2abd e6a5 9abd 7a54 25bc
000001e0: c1e8 a93d b5f1 d7bc d72e c23c feb1 363d
000001f0: 89df 7b3c 170b af3d a599 273d e3fa 71bc
00000200: 7a81 71bd 195d 7a3c 5ef4 233b a931 863b
00000210: 2ef8 c5bc c2fd b83d 952e 083d aeef dbbc
00000220: c42c 15bd 46a0 98bd 3ab9 3dbd 9916 fdbc
00000230: 56db e83d 25f8 593d 0f31 83bd d85a 80bd
00000240: fd95 163c 9168 dd3b 05fa 8e3c 3839 8fbd
00000250: 2447 91bc 6c89 503d be1a 56bd 99f1 fc3c
00000260: bbd6 0fbe dd68 943d 0f98 5cbd 6c60 c33d
00000270: 9648 ef3c d9cb eaba a012 f33c fd74 1abd
00000280: b5c3 d93c bd94 2dbe b967 6bbd baee a93c
00000290: 2bfb 0c3e 78be 09be 5a48 30be 412e e33c
000002a0: 522c 1bbc 2da5 03be 6899 2fbb 1ec0 14bc
000002b0: 8b76 8fbd 03c5 14bd 70aa a0bd 9c6a 87bd
000002c0: 4f85 b4bc e331 95bc eceb a6bd 81d7 f2bc
000002d0: c86e 76bd df6e 403d 1aff 36bd e874 dbbd
000002e0: eb0b a2bd 9f5c 3e3d 392f 0cbc f765 20be
000002f0: 7687 5c3c 0425 403c 0ae9 fa3d 1734 723d
00000300: 93b9 1d3d bf6c 2dbd 184e e23c ac38 adbd
00000310: 423f c7bc cde2 6e3d 70c6 36be 5013 5d3b
00000320: 0e32 03bd b566 5cbc c48a 9d3d 65db 673d
00000330: 5729 e73d eab4 d13c 9e18 c3bc 71c4 7d3c
00000340: 4f84 9dbd 83b8 afbd bbe2 783c cfe3 98bd
00000350: fcdb 23bd 1e0f 583d 8887 bdbb 481c b43d
00000360: a620 ea3d b2da 28bd 1a53 33be df08 d2bc
00000370: 1b61 61bb 8aab 093d 47d1 2cbe 777c a9bd
00000380: a1a2 c33c 5cf8 71bc fcd3 b83d c5cf bebd
00000390: b7b1 b6bd d964 ea3d aeab 8bbd 2d80 5abe
000003a0: d736 e7bb 792d 9c3d 3fad 5c3d 2807 15bd
000003b0: a78e bd3d 98f9 a3bd c4c3 24bd b750 83bc
000003c0: 52b3 6e3d ef7c 1cbd 1297 323d afc3 1bbe
000003d0: 3f49 46bd 36a3 563d edb8 d43b 8733 8bbd
000003e0: 479d 103d 2c37 cd3d ab16 f53c 3c0b 08bd
000003f0: 1113 a73c 9951 8d3d f604 11be e8b5 033d
-0.18256351 -0.018212548 0.06572659 -0.08046906 -0.04941788 0.025206186 -0.011792514 -0.14243737
0.033503577 0.023605783 -0.10471284 -0.077231124 0.09489731 -0.07983713 -0.20850265 -0.07774353
-0.07753196 0.046719417 0.08030656 -0.023811411 0.06508916 -0.06839166 -0.15691413 -0.024230603
-0.03374085 0.03125623 -0.09487005 -0.025711076 -0.13378732 -0.04677069 -0.015424165 -0.06353844
-0.058440413 0.069529295 -0.04238381 0.030533278 -0.16614816 0.058280393 1.8071798e-05 -0.116095446
0.06637106 -0.019329237 -0.012407754 0.014703547 -0.08895324 -0.12470099 -0.011868391 0.03891157
0.062226526 -0.08956407 -0.03169028 -0.17175938 0.09003749 -0.065075494 0.045181025 0.024497407
-0.191767 -0.033769574 0.045647923 -0.017499829 -0.03926439 0.033485368 -0.011997277 0.028224189
0.09483954 0.008917116 0.029216813 0.10407639 -0.0698215 0.06615609 -0.021870952 -0.12118868
0.0066913986 -0.057962567 0.029134454 0.042548176 -0.0011525723 -0.030948082 0.19446002 0.1548975
-0.011572887 0.106849365 -0.07041613 -0.13846694 0.0017214445 0.037573706 0.098914705 0.10871195
0.0021213028 -0.08318553 0.022966536 -0.14400199 -0.0050702053 -0.11490026 0.033042397 0.066572174
0.020140272 -0.03706537 0.007817232 0.015156544 -0.09847632 0.02958838 -0.06513506 -0.11446478
-0.024127688 -0.09274275 -0.00509962 0.0055032424 -0.09632361 -0.10371823 -0.028862592 0.030804643
0.022040986 -0.021590607 0.016127963 -0.078444935 -0.059228644 -0.041717727 -0.07551174 -0.010090942
0.082963474 -0.026360372 0.023703976 0.04460334 0.015373119 0.08547037 0.04091801 -0.014769289
-0.05896137 0.015280985 0.002501748 0.0040952754 -0.024166193 0.090327755 0.03324755 -0.026847687
-0.036419645 -0.07452445 -0.046319224 -0.030894564 0.1136996 0.053215165 -0.064058416 -0.06267327
0.009191033 0.00675685 0.017453203 -0.069933355 -0.017734118 0.050912306 -0.052271597 0.030876921
-0.14046757 0.072465636 -0.053855952 0.095398754 0.029209416 -0.0017913535 0.029671967 -0.037709225
0.026582578 -0.1695127 -0.057471965 0.020743717 0.13767688 -0.13451564 -0.172151 0.027732017
-0.009471016 -0.12855978 -0.0026794318 -0.009079007 -0.07005032 -0.036320698 -0.078450084 -0.06612131
-0.022036223 -0.018212264 -0.08150467 -0.029643776 -0.060164243 0.046980735 -0.044676878 -0.107156575
-0.079124294 0.04647505 -0.008556181 -0.15663897 0.013460031 0.011727575 0.1225148 0.059131708
0.038507055 -0.042340036 0.027625129 -0.08458075 -0.024322156 0.058321763 -0.17849135 0.0033733435
-0.032030158 -0.013452222 0.07692483 0.056605715 0.11287182 0.025598962 -0.02381545 0.01548873
-0.076912515 -0.08580115 0.0151907755 -0.07465326 -0.040004715 0.052748792 -0.005783979 0.08794457
0.114320084 -0.04122419 -0.1751217 -0.025638996 -0.0034390155 0.033610858 -0.16876708 -0.08275693
0.023881258 -0.014768686 0.09024808 -0.09316973 -0.08920615 0.114450164 -0.06819855 -0.21337958
-0.007056098 0.07625861 0.053876158 -0.036383778 0.092557244 -0.080065906 -0.04022576 -0.016029699
0.058276482 -0.038205083 0.043601103 -0.15211366 -0.048409697 0.052401744 0.0064917714 -0.067969374
0.03530624 0.10020289 0.029918035 -0.03321384 0.020394834 0.06900329 -0.14162049 0.0321559

bias f4 [64]
00000000: ce2b 703e 83f4 9b3f 866b 833e 125d 0e3f
00000010: 8857 243e f70a 8c3e 5abd 683e c988 053f
00000020: 8c0f c33e 233a 143f e546 183f 4da7 6c3f
00000030: 81b6 853d 9a21 c4bd f99f e23e 138c ff3e
00000040: 1755 ad3d 4be2 fd3e 6709 b53e c02b 163f
00000050: 958f f53e 65d5 603e afb8 983f d9d5 633f
00000060: f2b2 00bf 1343 a83e da41 423f bd34 403f
00000070: c0eb 553f 7489 82bd 7735 223e 48e9 bdbc
00000080: ed94 df3e c171 153e 5682 95bd d0df dc3f
00000090: d3a2 bbbc 07e8 59bf 68c6 093f 5868 293e
000000a0: 015a 873e 2bb9 423f c577 c13f 313d 383f
000000b0: 1c71 c53e 6c2b 513f c1db 2c3e 4b00 eb3e
000000c0: 9ef4 823f 35d4 5c3f 0851 753f 3fec 053f
000000d0: b91a 7f3f 7262 d73e c9ef 843e 633d afbe
000000e0: 3a86 253f f166 a33e 82e0 c83e b838 993f
000000f0: 04b9 933e 7206 b5be 6747 d43d e9df 113c
0.2345421 1.2183994 0.2566797 0.55610764 0.16049016 0.27352116 0.22728482 0.5216184
0.380978 0.5790121 0.59483176 0.9244278 0.065289505 -0.095767215 0.44262674 0.49911556
0.08463495 0.4958671 0.35358736 0.5866051 0.47961107 0.21956404 1.1931361 0.8899818
-0.5027305 0.32863674 0.7588173 0.7508047 0.8356285 -0.06373873 0.15840708 -0.023182526
0.4366831 0.14594175 -0.0730025 1.7255802 -0.02290479 -0.8511967 0.5381837 0.1654371
0.26435855 0.76063794 1.5114676 0.7196837 0.38562858 0.8170688 0.16880704 0.4589866
1.0230901 0.862613 0.9582677 0.5231361 0.9965015 0.42067295 0.25964192 -0.34226522
0.6465794 0.31914476 0.39233786 1.1970434 0.28852093 -0.3535648 0.103651814 0.008903482

weight f4 [32, 64]
00000000: a620 173e ad01 7a3e 3fb9 14bd 4807 82bd
00000010: 0ba9 babe 09ea 53bc 96ce cbbd 0c1c b7bd
00000020: 0463 103d 428a 98bd ca8f 4e3e 8a58 293e
00000030: 21b6 023e 954f 883d 45a4 72bc c984 eb3c
00000040: fa9c b6be 0a18 8bbd ac1b e23a d5d4 62bd
00000050: c145 91be 0b68 c53d 8021 373e 0cb0 9e3d
00000060: d740 b7bc c8c8 b53d 3f35 253c d7d0 683d
00000070: d0a0 ecbc 34ab 07be 0529 20bc 897f 80bb
00000080: 201d 49bc 4a85 aebd 7861 f93d 5a34 82bc
00000090: c664 fbbd 364c 07be 1e3f e4bc b3da f23d
000000a0: 638d dfbd a005 523c 45fc 623d fb90 21be
000000b0: a4c8 173c 9509 e2bc 5faa efbd 1e69 99bd
000000c0: 3b7d aa3b 6a56 da3d ba5a 823e 2dc3 7f3d
000000d0: b9fa 8a3d fa99 8d3d 5bbf 0d3e 8475 cbbd
000000e0: b893 6bbd 400c 353e feb4 583e 0f65 683d
000000f0: c758 1e3e e7b5 e23d 357c 8ebe cb5e e0bc
00000100: 68d3 b13d b610 6a3d eff4 a13d 2c43 ceba
00000110: b7ac 9dbc 813a 353e 27fd 2bbd 3ce8 253e
00000120: 237c 55be 8e30 9cbd 7e5d 973d d3f2 0a3e
00000130: 6c0d 5a3d 71c0 8d3d 783d f73c 9ba5 143e
00000140: 171e 1e3e 20db 3bbd 9a6c dfbd 8d5d 573d
00000150: d4d8 e23d 7d4e d73c b131 02bb e818 743c
00000160: 61c4 0fbe 4e2c c8bd ddc7 33be 9efb 943e
00000170: 51cc 49be 35fe 1c3e 68e2 b63d 0084 b1bd
00000180: 0274 813e e6d8 213e 4e3b 233c cd81 21bc
00000190: 3f76 1fbc 7158 8dbd e3d2 fd3d 06ce 4abd
000001a0: 13b6 9f3d ea5d 5c3e 50b2 143e 82d9 4d3e
000001b0: 9fba 18be ac5e 43bd af85 0ebd 9ff4 fa3d
000001c0: 4ec1 8cbc 628e 153e c230 163e 4a24 443e
000001d0: ca83 453e f61a 993c d3b2 d63d 8ea4 e23c
000001e0: 6ee9 1a3e 835b 00bd c6ef 1b3e fcd2 e73d
000001f0: 4fd2 123e dc0b 15bc 5562 453d d5ce b0bc
00000200: dac2 89bd 3290 1c3e 9df4 b0bd 120a cf3d
00000210: 4f89 cabd f8b4 b23c cedd a4bd a983 503d
00000220: 0aab 9cbc 8ff8 28be 96e0 163e 51e2 e93d
00000230: 34e5 3d3d 6852 afbd 9bc4 75bc a5e0 6abd
00000240: 61cb 28be 8049 f4bd 22e2 333d ddc8 28bd
00000250: 43be aabd 39fd 90bd 5c9e cdbd b17d a43d
00000260: 071b 83bd 977d 863b 3af5 513c 52fc d7bd
00000270: bbfc 73bd fa62 b93c 7849 cf3d daeb 0bbd
00000280: 7b9f 15bd 4b1d 133d eee4 ce3c 2661 4d3c
00000290: bff5 d63b 5447 0b3d c471 463d 35a8 acbd
000002a0: 33f1 793d fdd7 29bd 4a51 20bd 8eac 28bd
000002b0: 871a 47bd ca7d 3bbd 2d4a 2f3c 9529 6d3d
000002c0: 564b 9c3d c8ce 933c 7117 3e3d 990d d2bd
000002d0: 44f2 ba3a b0db ba3a 3995 71bd ac91 c0bd
000002e0: 9743 fcbc e0ab 033d 2612 31bb 8d35 98bd
000002f0: 3689 b6bd 09f8 58bc 6151 36be 19c5 00be
00000300: eafd fb3c 46f7 8e3d f33c e53d ed13 a43c
00000310: 5b7f 61bd a7f8 283c e0c3 e13c bafd 223b
00000320: 5e02 143d 1d30 c2bd 4cc2 01bd 64df 6cbd
00000330: a444 d73d 71ba 623d 26c7 a6bd 5dab 133e
00000340: 2432 33bd e8e7 ccbb 28a4 90bc 9a96 093d
00000350: bdc8 85bd 4b90 bebd d708 063d eb72 32bc
00000360: b5b3 84bd cb97 48bd bf5c 033e 4672 c5bc
00000370: 0598 96bd 5b91 6fbd 3ed0 3cbc 690d 013d
00000380: 07b4 313c 1285 0c3d a2fb 293c 8b1c ca3c
00000390: 11e2 053c 527d 713d f84a 50be 6916 9e3d
000003a0: b268 4fbe e3a0 83bc b315 f63d 6332 a8bc
000003b0: 8df8 d43c 40f3 27bd 96de 643d 732d 653d
000003c0: 72e3 83bd 8237 9c3d 8941 9e3d ac09 e2bd
000003d0: 9750 3abc e27d 443d 466e 17be e4f3 453d
000003e0: 91a7 08bd c63c efbd e120 9b3d 2882 4e3d
000003f0: b3c1 3f3d 0299 453b e621 bb3b 169d a3bc
0.14758548 0.24414702 -0.036309477 -0.06349045 -0.36457095 -0.012934216 -0.099515125 -0.089408964
0.03525068 -0.074482456 0.20172039 0.16537681 0.12764789 0.06655804 -0.014809673 0.02874984
-0.3566664 -0.067916945 0.0017250679 -0.055378754 -0.2837353 0.09638985 0.17883873 0.07748422
-0.022369785 0.088761866 0.010083496 0.05683979 -0.028885275 -0.13248903 -0.009775405 -0.0039214534
-0.01227501 -0.085215166 0.12176794 -0.015894104 -0.122750804 -0.13212666 -0.027862128 0.1185812
-0.10915639 0.012818724 0.055416364 -0.15777962 0.009264145 -0.02759246 -0.117024176 -0.07490753
0.005202917 0.106610134 0.25459844 0.062441994 0.06786103 0.06914134 0.13842528 -0.09934524
-0.057513922 0.17680454 0.21162793 0.056737002 0.15463553 0.11069851 -0.27829137 -0.02738895
0.08682901 0.057144843 0.079080455 -0.0015736572 -0.019247396 0.17698099 -0.04198947 0.16201872
-0.20848136 -0.076264486 0.07390879 0.13569193 0.053235456 0.06921471 0.030180678 0.14516298
0.15441166 -0.04586327 -0.10909386 0.05257945 0.11076513 0.026282543 -0.0019866044 0.014898516
-0.14039756 -0.097740754 -0.1755671 0.2909822 -0.19706847 0.15331347 0.08929902 -0.08667755
0.2528382 0.15805396 0.00996287 -0.009857607 -0.009732782 -0.069016345 0.12393739 -0.049512886
0.077984 0.215202 0.14521146 0.20102504 -0.1491494 -0.047697708 -0.03479546 0.12253689
-0.017182019 0.14605096 0.14667037 0.19154468 0.19288555 0.018689614 0.10483327 0.027666356
0.15128109 -0.031337272 0.15228185 0.11319539 0.14338039 -0.009097066 0.04818948 -0.021583
-0.06726618 0.15289381 -0.08640406 0.10109343 -0.09889471 0.021814808 -0.080501184 0.05090681
-0.019124527 -0.16501068 0.1473411 0.114201196 0.046361163 -0.085606396 -0.015000488 -0.057343144
-0.16483833 -0.119280815 0.04391683 -0.041207183 -0.08337071 -0.070795484 -0.1003997 0.08031786
-0.064016394 0.004104327 0.012814814 -0.10546173 -0.059567194 0.022630204 0.10121435 -0.034160472
-0.036529046 0.035916608 0.025255647 0.012535369 0.006560057 0.03400357 0.04844834 -0.084305204
0.06102104 -0.041465748 -0.039140023 -0.041180186 -0.048609283 -0.04577426 0.010698837 0.057900984
0.07631557 0.018042937 0.046409074 -0.102565 0.0014262875 0.0014256146 -0.0589802 -0.09402785
-0.030793948 0.032146335 -0.0027018874 -0.07432089 -0.0891289 -0.01324273 -0.17804481 -0.12575187
0.030760724 0.069807574 0.11193266 0.020029033 -0.055053096 0.01031319 0.02755922 0.002487047
0.03613507 -0.09481833 -0.031679437 -0.05783023 0.10511139 0.055353586 -0.08143453 0.14420839
-0.04374899 -0.0062532313 -0.0176564 0.03359089 -0.065324284 -0.093048654 0.032723274 -0.010891656
-0.06479589 -0.048972886 0.12828349 -0.024102341 -0.07353214 -0.05848823 -0.011524258 0.03150693
0.0108461445 0.034306593 0.010374935 0.024671813 0.008171574 0.058957405 -0.20341098 0.07719118
-0.20254782 -0.016067928 0.120158575 -0.020531839 0.025997424 -0.041003466 0.055876337 0.055951547
-0.06439866 0.07627775 0.077273436 -0.11037001 -0.011371753 0.047971614 -0.1478816 0.048328295
-0.03336293 -0.116815135 0.075746305 0.050417095 0.046815585 0.0030151014 0.005710828 -0.019972365

bias f4 [32]
00000000: 2503 963f eaaa 863f 8fb0 d73d 805d c53e
00000010: 2212 4a3f 92ea 713f 305c b03e 297b 813e
00000020: 8b0c a23f 4ded 963f e9ea ad3c 3f69 c63e
00000030: f51b b93f c7c5 a53f 8302 df3e 816a 723f
00000040: 6225 d13f ff85 bf3f c5a2 813f c951 893f
00000050: 5e81 fcbd 5c4e a73d dabb 153e 0678 b53e
00000060: 352b 283f cd43 a93f c0ff 853f acc1 773f
00000070: 3830 723f 1f10 3bbe 58ef 8b3f 3486 573f
1.171971 1.0520909 0.10531723 0.38547897 0.7893392 0.9449855 0.34445333 0.25289276
1.2660078 1.1791168 0.021230178 0.3875217 1.4461657 1.2950982 0.43556604 0.9469376
1.6339533 1.4962767 1.0127798 1.0728084 -0.12329362 0.08169243 0.14622441 0.35443133
0.6569093 1.3223816 1.0468674 0.96779895 0.94604826 -0.18267868 1.0932417 0.8418915

weight f4 [10, 32]
00000000: d58c a13c 982b d93b faa5 23be 0e77 65bc
00000010: 2bf8 8bbe 4cff 363c b6d3 51bd c954 be3d
00000020: a1f8 bd3c 8727 353c d356 04be c698 90be
00000030: af4d 04bc 2b81 063c 6214 b3be 702c 273d
00000040: 48da e8be 3103 1a3d 6981 91be 5c71 cdbe
00000050: 6d9b 99be a5b1 d4bd 2b12 f2bb f029 3ebc
00000060: 1b2d 62bb 51fb f1bc b0ae 8bbd a177 f8be
00000070: f4d3 32be 9cff b4be ca1d f4be b685 f4bc
00000080: a278 93be f77a 29bb 8c0e 7bbe 8e56 aebb
00000090: 2d86 ecbd 9e97 643d bd42 43bd 24f5 08be
000000a0: 4454 73be 0ac5 593e 6289 0dbe f15f 72be
000000b0: d1be dabe cbaa d13d 368e 42be 3925 4bbb
000000c0: 5380 aabe df48 c83d 4b95 643b 4ae0 c23d
000000d0: ab33 a9bd 23b6 3ebe 7dc2 593b 2c84 d83d
000000e0: 2d0e f2ba 88af dfbd 810d e53a 87d8 9ebe
000000f0: 12e1 6abe c1d7 42be 38b9 6e3d 6d53 48be
00000100: b9cd aabb 8e01 21bf 657d 42be 5350 b73b
00000110: daa8 38b9 5e07 423c eacd acbc 591f 973c
00000120: 3c81 c4bc 94b4 1abe b820 acbb 22d7 d5bd
00000130: 414c ab3c 5fae 8b3b 0e7d a6bb 9e0d 99bc
00000140: d5c0 d5be c8ba 1ebc d836 df3a 0344 923b
00000150: 003b 9639 e53d 983c c700 7bbd c281 17bd
00000160: 00d0 703a a66b 82bb 85b8 86bb 5a48 a33c
00000170: 3d08 92bc 8a1b 68be e111 25bc 69a0 31be
00000180: c987 27bf 6e34 81bb d2c7 1dbd 6cad 25bd
00000190: 7371 a53b 02b2 a039 2492 76bb b17a 4f3d
000001a0: 7580 b43c 2a60 afbd 50c7 b5bd 39ff 58be
000001b0: 4469 45bc 25d2 d2be f477 9ebe 234a d9b9
000001c0: 03b5 533c 1706 583b 66ff e6bc b2a4 9dbc
000001d0: 09a8 3fbe 53aa b4bc 2d0b 5fbd 236d 013b
000001e0: 1568 a43a 636b d2be 519f fbbc 6ca8 8dbe
000001f0: 5d29 8bbe d31c aebe 5355 f03c 79ea 45be
00000200: b95f 5ebc fd13 243b 40a1 29be 6bde 2cbb
00000210: 5660 543b 8cb1 c83a 6ad0 1d3b c3b5 abbc
00000220: 291d 003b 8b82 8dbe 5537 9d3b a69d 39be
00000230: 7413 5a3c 419f df3b e250 15bb 3366 efbe
00000240: 13e1 0fbf 9094 85be b956 1bbb 7bb3 573c
00000250: 3b82 8fbe 6350 44be 4dbb c8bb edfa 31bd
00000260: e1ee 4cba d287 0bba 08d7 633c b8a6 a8be
00000270: 5f51 8fbe f438 5abe d438 3cbc 471a ccbd
00000280: 905e 61bd f33e 933c bbec 38bb 6587 29be
00000290: d878 953c eee1 13bf fc50 82bd d108 a4bd
000002a0: 7b18 ae3b 37cd 28bc c58c f6bd 7275 05be
000002b0: c4d8 213d 0c9e 04bf a6f5 c6be d182 483d
000002c0: 48aa dabc de3a efbc ad12 a0be 224c 9e3d
000002d0: 8527 83be 538f 7c3c 4c03 7cbd 7dea e0bb
000002e0: 6c8a 9dbd 6879 b0be 1f8e 883d dde9 ecbd
000002f0: 62d8 febd 266a 62bd 40a5 9fbd ce5d e339
00000300: 41f5 083d 719d 173c 0e5a 97be a21f bebc
00000310: d8b1 95bd b466 febe ef65 af3c bc34 6e3d
00000320: be36 433d 3945 373c 0874 afbd 6250 63bd
00000330: 0e77 8fbe bbbf 1bbd 0733 47be 9010 813d
00000340: 2d74 fd3c 8075 abbe e460 603c 8757 573c
00000350: d843 41be ff84 ddbd 7a42 c5bd b991 d13b
00000360: 4f2a 2ebd 7dee dbbe e68c 7abd 11ab b4bd
00000370: 42b0 aabd c855 90be ccab a6be 9700 22bd
00000380: d3ec 3cbd c968 af3a a556 51be 628d c13a
00000390: 0b4e 28bd 5ed5 7bb9 c62d 6f3c 392b 83bc
000003a0: 61d5 f8bd 1033 85be 3762 09bd f439 b4bc
000003b0: e5b5 5a3c a250 543b 8d74 03be 6ce7 b9bb
000003c0: 83f9 afbe 4ea8 e1bb 3bd0 063c fe49 343a
000003d0: 9333 45be 3438 013c 86ec 1fbe 7963 14bd
000003e0: 8a7e c2bc 12ed 5f3b 5c56 23bf ffb2 07bf
000003f0: 02da 63bb 6ba3 ccbe 23ea f6bb 14b4 47be
0.019720474 0.0066275112 -0.15981284 -0.014005436 -0.27337775 0.011169266 -0.051227294 0.09293515
0.023189845 0.011056787 -0.12923746 -0.28241557 -0.008075162 0.008209507 -0.34976488 0.040813863
-0.45479035 0.0376007 -0.28419045 -0.4012555 -0.30001393 -0.103854455 -0.0073874197 -0.011606678
-0.0034511748 -0.029538782 -0.06820428 -0.4852877 -0.17463666 -0.35351264 -0.47678977 -0.029848915
-0.28802973 -0.0025860646 -0.24517268 -0.0053203767 -0.115490295 0.055808656 -0.04767107 -0.13374764
-0.23762614 0.2126657 -0.13821939 -0.23669411 -0.42723706 0.10237654 -0.18999562 -0.0030997528
-0.3330103 0.09779524 0.0034879025 0.09515436 -0.08261808 -0.18624167 0.0033227496 0.10572085
-0.001846736 -0.10922152 0.0017475338 -0.31024572 -0.2293742 -0.19027616 0.058282107 -0.19563074
-0.0052125123 -0.62893 -0.18993147 0.005594292 -0.0001761051 0.011842577 -0.021094281 0.018447565
-0.023987405 -0.15107948 -0.005252924 -0.10441424 0.020910384 0.00426273 -0.0050808256 -0.018683251
-0.41748682 -0.009688087 0.0017029895 0.004463674 0.00028654188 0.018584201 -0.06128004 -0.03698898
0.0009186268 -0.003980118 -0.004111352 0.01993196 -0.017826194 -0.22666755 -0.010075063 -0.17346348
-0.65441567 -0.0039430177 -0.03852064 -0.04044859 0.0050489246 0.00030650204 -0.0037623728 0.050654117
0.02203391 -0.08563264 -0.088759065 -0.2119111 -0.012049023 -0.41175953 -0.30950892 -0.00041444701
0.0129215745 0.0032962614 -0.028197955 -0.019243572 -0.18716444 -0.022053873 -0.054454017 0.0019748888
0.0012543226 -0.41097555 -0.030715616 -0.27667558 -0.27179995 -0.34006366 0.02933756 -0.19327725
-0.013572627 0.0025036328 -0.16565418 -0.0026377689 0.0032406054 0.0015311702 0.0024080523 -0.020960694
0.001954863 -0.2763866 0.004797856 -0.18126544 0.013310302 0.0068244045 -0.0022783806 -0.4675766
-0.5620281 -0.26089907 -0.0023702814 0.01316535 -0.28029045 -0.1917129 -0.0061258436 -0.043452192
-0.0007817578 -0.0005322668 0.013906248 -0.32939696 -0.2799177 -0.21310788 -0.011488158 -0.099659495
-0.055021822 0.017974352 -0.0028217274 -0.16555555 0.0182461 -0.57766616 -0.06363103 -0.08009494
0.005312977 -0.010302833 -0.120385684 -0.13033083 0.039513364 -0.5180366 -0.3885929 0.04895288
-0.026692525 -0.029202875 -0.31264248 0.07729365 -0.25616089 0.0154150305 -0.06152658 -0.0068638907
-0.076924175 -0.34467626 0.066677324 -0.115680434 -0.124436155 -0.055277012 -0.07795191 0.00043366704
0.033437017 0.009253846 -0.29560894 -0.023208443 -0.07309312 -0.4968773 0.02141091 0.05815576
0.047659628 0.011185938 -0.08567053 -0.05549658 -0.2802052 -0.038024645 -0.19453059 0.06301987
0.030939186 -0.33488083 0.0136949755 0.013143427 -0.18873537 -0.108163826 -0.0963182 0.0063955453
-0.042520817 -0.4295539 -0.061169527 -0.08821691 -0.083344 -0.28190446 -0.32552946 -0.039551344
-0.04612429 0.0013382669 -0.20443209 0.0014766867 -0.041090053 -0.00024016711 0.014598316 -0.016011821
-0.12150074 -0.2601552 -0.03354093 -0.02200029 0.013349031 0.0032396694 -0.1283743 -0.0056733396
-0.3437005 -0.0068865186 0.008228357 0.0006877481 -0.19257955 0.007886935 -0.1561757 -0.036227677
-0.02374198 0.0034168405 -0.6380365 -0.530075 -0.0034767394 -0.39968428 -0.0075352355 -0.19502288

bias f4 [10]
00000000: 0aa7 d038 4952 14ba 013a da38 d687 45b9
00000010: 20c0 ceb8 4353 f538 462b 0139 e8eb 9238
00000020: e2d8 c3b7 cab5 18b9
9.949326e-05 -0.00056580134 0.00010405854 -0.00018837987 -9.8586315e-05 0.00011698019 0.0001231852 7.0057635e-05
-2.3346805e-05 -0.00014563571
