Assignments/Assignment 4/results/classifier_cnn_M_256_kernels_32/classifier_cnn_M_256_kernels_32.model (torch, 179343 bytes, 8 tensors)

weight f4 [16, 1, 3, 3]
00000000: 6d88 8b3e 84ee 4fbe 3eb6 823e b584 b7be
00000010: 0cd0 b1be cac7 61be dceb ef3d 9f52 a23e
00000020: cfc4 8d3e fc99 123e 8748 66be 4e6f 55be
00000030: 2f1a d23e bff5 973e 31a1 2abe ecb8 813d
00000040: 8211 813e 31e2 be3e 2ca9 fb3c cfe3 d03e
00000050: 071a 07be 18aa 9dbe 027d 113e a771 7f3e
00000060: a6c5 513d 3dce 703e 4ef2 313e d728 83be
00000070: fa0c 993e 7d1e a8bd a399 b53e a219 e7bd
00000080: 90f1 8fbe acbf c63e dc0b 273e 5e37 acbe
00000090: baf1 603e 1c27 57bc 1aad 2fbe 50d8 d5be
000000a0: 56d7 64be 329d 7bbe 621e f13d 61ee 6bbe
000000b0: a821 b1be 0e87 d33e 9f9f 00bc fbd5 87be
000000c0: c389 7d3d 1177 e03e 62c7 633d 47d8 82be
000000d0: a6db adbd 6111 bb3d 5bd6 ce3d f84c 923c
000000e0: 5f09 b43d 1e39 a1be bb32 803e 1a9f d03e
000000f0: 331d d63d 8229 92be 3d0b ad3e 66de a0be
00000100: 7c8b c0be 0517 acbe 07e7 97bd 2f11 813e
00000110: 92e7 923e 93e3 2f3e 51bb 28bd 4cad fe3c
00000120: 9ce9 fdbd d424 e1bd 62ec 843e b164 aebd
00000130: 4aeb 82be 612a f23d 388f b63e 8b4e 61be
00000140: 68d4 75bc e5a2 bdbe 5ba2 51be 2b32 eb3d
00000150: 4dfb 783e bc2e 96be 8628 71be 2d4e a8be
00000160: 7398 3f3e b3ed 77be a68f b3bd 3aec 52be
00000170: ca33 833e 8887 b4be 091a 833e 5756 b83e
00000180: dd24 aebd 356b 9a3d 4ba9 0bbc 53d2 4bbc
00000190: 043d 29be f9c8 ed3d 5e08 8ebe 73bb 863d
000001a0: 5fe6 4f3e d092 603e 24ba 403e 0c8d 833d
000001b0: 39a5 70be 4daa a2be c3df a3be d5fa 453e
000001c0: 23dd 33bd 5477 cebe ac19 6c3d d0ed 96be
000001d0: 530a 89be d599 b23e 1383 d93e 139f 503e
000001e0: 82da a63e 641e e1bd f8b6 4c3e 8a4f 1a3e
000001f0: 90fd 16be 9ad5 b3be 0a78 81be 53a7 4f3e
00000200: 90a8 0cbc 503d 0b3e 78d4 8fbd 260e 623e
00000210: 8669 b13e d2c2 563e 8f6f aa3e 8940 b4be
00000220: cefd 74be 4544 9a3e c781 3a3e b97b 3c3b
00000230: 5d33 623e 85cf 7d3e 99f5 a83d e1fe 893e
0.27252522 -0.2030583 0.25529665 -0.35843435 -0.3472904 -0.2204887 0.117149085 0.3170366
0.27689216 0.14316553 -0.22488604 -0.2084324 0.41035601 0.29679677 -0.16663052 0.06334099
0.2520867 0.37281945 0.030720316 0.40798804 -0.13193522 -0.30793834 0.14207843 0.24945699
0.051213883 0.23516174 0.17377588 -0.25617096 0.29892713 -0.0820894 0.35468778 -0.11284186
-0.28113985 0.3881811 0.16313118 -0.33635992 0.21967211 -0.013131883 -0.17155877 -0.41766596
-0.22347769 -0.24571684 0.11773373 -0.23040153 -0.3459599 0.41313976 -0.007850557 -0.26530442
0.061898958 0.4384084 0.05561007 -0.25555632 -0.0848916 0.09134174 0.10099479 0.017858967
0.0879085 -0.3148889 0.25038704 0.40746385 0.10454788 -0.28547293 0.33797637 -0.31419677
-0.37606418 -0.33611313 -0.07417112 0.25208423 0.286923 0.17176656 -0.041194264 0.031088494
-0.12398073 -0.109933525 0.25961596 -0.08515299 -0.25570136 0.118244894 0.35656142 -0.22002618
-0.015004255 -0.3703834 -0.2047209 0.11484178 0.24314614 -0.2933253 -0.23550615 -0.32872143
0.18710499 -0.24211769 -0.08767633 -0.20597926 0.2562545 -0.35259652 0.256058 0.36003372
-0.08503125 0.07539979 -0.008524249 -0.012440282 -0.16527182 0.11610598 -0.2774076 0.06578722
0.20302723 0.21931005 0.18821007 0.06423387 -0.23500527 -0.31770554 -0.32006654 0.19333966
-0.043912064 -0.40325415 0.05764167 -0.29478312 -0.2676569 0.3488299 0.42482814 0.20373182
0.32588583 -0.10992125 0.19991672 0.15069404 -0.14745164 -0.35123903 -0.25286895 0.20278673
-0.00858511 0.13597608 -0.07022947 0.2207571 0.3465082 0.20972756 0.33288237 -0.35205486
-0.23924944 0.3013021 0.18213569 0.0028760268 0.22089906 0.24786194 0.08249969 0.2695227

bias f4 [16]
00000000: e8d8 07be b268 e33d fb6a 8b3e b786 17be
00000010: 106d 273e c476 5a3d 3258 a23e bdf6 b53b
00000020: 6521 7e3e f967 7abe cc9f 243e aff7 d13d
00000030: 30f7 8abe 1840 2f3e c2f2 59bc 0fe9 47be
-0.13266337 0.111039534 0.27230057 -0.14797483 0.16350198 0.05333592 0.31707913 0.005553095
0.24817427 -0.24453725 0.16076583 0.1025232 -0.27141714 0.17114294 -0.013302507 -0.19522499

weight f4 [64, 16, 3, 3]
00000000: f23d 863d 638c b83d 8fb6 7b3d b6d9 c9bc
00000010: f2d6 4fbd 3adc 833d 7237 14ba a618 b53b
00000020: d88e 403d 3918 883d 06cd 6c3d 9f15 60bd
00000030: f697 bd3c d62b ccbc 0451 07bc 6df8 bfbd
00000040: 2866 3ebb 367d fc3c d4e3 f63a 47bd 8e3c
00000050: 91f0 e9bb c293 7a3d 7d31 b93d ddce f33b
00000060: f5d9 00bc 4f58 6a3d 7a2a 8b3c 5935 e6bd
00000070: ac73 f2bc 065a 2e3c fb22 b7bd 0f25 013e
00000080: 86ae 8abd 21d9 adbd d044 ccbb 2f2e 44bc
00000090: df65 c93d c2c5 80bd 448b 963d 945a 133d
000000a0: 1bc4 93bd f86c 2a3d f2c6 1b3c 6d15 fbbc
000000b0: f649 8a3d 126e d5bd e294 873c 1c56 503d
000000c0: df69 943d 646e 273b 8f1f 0c3d d199 aabd
000000d0: 90bb 18bd 572b 97bd d57b 5a3c a6ef 893b
000000e0: 85eb 9e3d ecb7 253d aa29 eb3c a0f9 673d
000000f0: 4634 41bc 9a81 183a b568 d93d 4299 793d
00000100: 2319 7f3d 8c6f 82bc 96b0 ab3d e80c d33c
00000110: f95d 0d3d ebe1 8e3d 97af 9fbd bea3 a13d
00000120: d7f3 773d b8d6 8c3d 0fb3 b73d 02af 12bd
00000130: ca1a bfbc 01b5 d43d f581 8a3d 1bf2 d8bc
00000140: a97c 85bc 1731 653d e70e 8abd 202a 433d
00000150: b2c6 94bd 102c 1e3d f69d ca3c 5a8c dabc
00000160: d556 cc3c 13cf ddbc 7354 4fbd f69c c9bc
00000170: 1896 88bc 8c02 9fbc 0a28 35bd eb34 98ba
00000180: b316 af3d dd8a 0c3d eccd 62bd 4b85 3fbd
00000190: 3343 1c3d 7801 103d 2681 b4bc 7627 acbc
000001a0: 52a9 7dbd e1e4 8c3d acee 4c3c befd c83d
000001b0: 2cb3 133d bfe6 293c 8e7d 853d 3b43 fcbc
000001c0: c248 4b3d 9b15 48bd 43a2 2fbd 517c 2bbd
000001d0: e14a 863d a224 6ebd 2db6 a9bc 7bd6 67bd
000001e0: c44f ae3c cd51 87bb 10bf 983d 1f29 9bbd
000001f0: 6656 483d 9175 e0bc 6e3a 773d 0511 923d
00000200: 2c36 8f3d a3ac 86bd b205 ba3c bbe6 a3bb
00000210: bf25 ef3c 6fad 96bd 72c9 f3bc 0e38 613c
00000220: 9e21 053d c011 153d 36d5 da3d e3e8 093d
00000230: c7fd cbbc 05fd 823d 1365 d63c 0de6 a33d
00000240: 07dd 233d 2375 84bd 5b01 a83c c663 f6bd
00000250: 2921 093c 9dba b3bd 36ab 81bd de4f a7bd
00000260: 8af4 783d 6d4d 7abd bdb3 83bc 79e1 b3bd
00000270: 3316 c93c 9727 81bd ab6c 993d 2aec 433c
00000280: dde7 18bd 2b04 9d3d 6d8e 3bbd 92b5 b93d
00000290: 587b a53d fb80 9cbd 883b 12bd 3d55 763d
000002a0: 64fb 1c3d 8dc0 9d3d 5f48 ed3c 8d64 ac3d
000002b0: 6b81 f53c e745 8c3d d46a 533d 60f7 9d3c
000002c0: 5f11 24bd acc4 3e3d c8a8 453d f121 3bbd
000002d0: f9c9 3f3d 1d05 083d 91c0 29bd 223b 143d
000002e0: ed27 b7bd 42b9 b5bd 4a39 d53d 5ae2 a3bd
000002f0: 3721 023d 563e c33c 5822 94bc ba1d cfbd
00000300: d64a cc3c a680 9bbd 3d07 76bd 9c13 98bc
00000310: 7688 2b3d e887 383d eaa2 f53c 8723 86bc
00000320: 1ccf 2b3d 481c 94bd 3b01 603d c6f7 37bc
00000330: b62b d1bd b79c c73d f6c3 3f3d 613c 0bbc
00000340: 249c 81b8 f562 99bd fe91 523b 401f a7bd
00000350: 2929 673d a96e a13c e145 29bd b6fe 20bd
00000360: 0e35 d23c a4c5 913d 9d8f 06bc 5b8e 5dbd
00000370: 951c f03b 110f cebb 530e 68bd dcd5 853d
00000380: 6ae7 313d 5d87 a43d 5c33 ef3c dae8 90bc
00000390: 7ec7 67bd 2252 d3bc 62f7 77bd 2a7c 82bd
000003a0: 0e27 44bd bcee 10bd 64aa 6cbd 48d4 8c3c
000003b0: 987f 10bc 09c4 a2bc c638 c03d 4fad 3d3c
000003c0: df11 99bd ce32 9e3d a5b0 b63d efe9 17bc
000003d0: 3580 2f3d 1491 37bd 3bb7 c8bd caa5 353d
000003e0: a39c 8abd 301a c2bd 13ad 923d 8681 b73d
000003f0: e38d 553d 418e 88bd 51d4 89bd c02f 9a3d
0.06554784 0.09011152 0.0614534 -0.024639945 -0.050742097 0.06438489 -0.0005654014 0.00552662
0.047011226 0.06645245 0.057812713 -0.05470812 0.02314375 -0.024923246 -0.008259062 -0.09373555
-0.002905259 0.030821424 0.0018836209 0.017424239 -0.0071392735 0.06117607 0.09042642 0.0074404315
-0.007864465 0.057213124 0.016988028 -0.11240644 -0.029596172 0.01064158 -0.08942219 0.12611793
-0.06771569 -0.0848868 -0.006233789 -0.011973902 0.098338835 -0.06287719 0.073507816 0.035975054
-0.072151385 0.041607827 0.0095078815 -0.030649865 0.06752388 -0.10421385 0.016550485 0.05086337
0.07246756 0.0025547976 0.034209784 -0.083301194 -0.03728825 -0.07381313 0.013335188 0.0042094765
0.077597655 0.040458605 0.02870639 0.056634545 -0.011792248 0.0005817652 0.106156744 0.060937174
0.06227983 -0.01592233 0.083832905 0.02576299 0.034513447 0.06976684 -0.07797163 0.078925595
0.06053528 0.06876892 0.089696996 -0.03581143 -0.023328204 0.10386086 0.067630686 -0.026482632
-0.016294794 0.05595502 -0.06741124 0.047647595 -0.072644606 0.03861624 0.024733525 -0.026678253
0.024943748 -0.02707628 -0.050617646 -0.024610978 -0.016673133 -0.019410394 -0.044227637 -0.001161245
0.085492514 0.034312118 -0.055372164 -0.046757977 0.038150024 0.03515765 -0.022034239 -0.02101491
-0.061929055 0.06879593 0.012508076 0.098140225 0.036059543 0.010369956 0.06518088 -0.030793777
0.049629934 -0.04884873 -0.042879354 -0.041866604 0.06557251 -0.058140405 -0.020716751 -0.05660103
0.02127827 -0.0041296245 0.07458317 -0.075762026 0.04891052 -0.02739981 0.060358457 0.071321525
0.06992754 -0.065758966 0.022707794 -0.0050018704 0.029192803 -0.073572986 -0.029759143 0.013746275
0.032502763 0.03639388 0.10685198 0.033669364 -0.024901284 0.06395916 0.026171243 0.08002863
0.04000571 -0.064676546 0.020508459 -0.12030749 0.008369722 -0.08775828 -0.06331484 -0.0816953
0.060780086 -0.061108995 -0.016076917 -0.0878324 0.024546718 -0.06306379 0.0749143 0.011958161
-0.037330497 0.076668106 -0.045790125 0.09067835 0.080801666 -0.076417886 -0.035701305 0.060139883
0.038325682 0.07702742 0.028965173 0.08417616 0.029968938 0.0684927 0.05161555 0.019282997
-0.04005563 0.04657428 0.048256665 -0.045686666 0.046823476 0.033208 -0.04144341 0.036189206
-0.08943162 -0.08873226 0.10411318 -0.080021575 0.031769957 0.023833435 -0.018082783 -0.10113092
0.024938028 -0.07592897 -0.060065497 -0.018564038 0.041878186 0.045051485 0.02998491 -0.016374363
0.04194556 -0.07231957 0.054688673 -0.011228507 -0.10213415 0.09746688 0.046817742 -0.008498282
-6.180283e-05 -0.07489578 0.0032130475 -0.08160257 0.056435738 0.019706087 -0.041326407 -0.03930541
0.025660064 0.07117775 -0.008212951 -0.05409084 0.007327626 -0.006288417 -0.056654286 0.06534931
0.043433584 0.08033631 0.029199295 -0.017689157 -0.056586735 -0.025796 -0.060538657 -0.06371339
-0.047888808 -0.035383925 -0.057779685 0.017191067 -0.008819483 -0.019868867 0.09385829 0.0115769645
-0.07474112 0.07724534 0.08920411 -0.009272083 0.042846877 -0.04481609 -0.098005734 0.044347562
-0.06768157 -0.09477651 0.071619175 0.089602515 0.052137267 -0.06667758 -0.06729949 0.07528639

bias f4 [64]
00000000: 2280 30bd a077 83bd e0ec 823d 7ea4 173d
00000010: 096e acbd 04ab 93bd 6e16 b13d 4e6b 8a3d
00000020: 27fc 91bd 0f0e 8a3c 550b 253c f744 abbd
00000030: 7d7b 933d 96f9 243d 0923 7f3d 73d9 7abd
00000040: c061 813d 8019 14bc d951 3abd 0c64 0a3d
00000050: 768b 3d3d 5c5a 87bc dffd 62bd 1920 3bbd
00000060: d714 733d f3a6 933c b173 8e3d 85c5 09bd
00000070: 1054 793d 67b6 5abd 2b45 4b3d 847a 473d
00000080: 4fef 9d3c a1a2 43bd 7c5a ebba 5457 8bbd
00000090: d6c0 303c ee71 623d 24ff 9dbd f95b b23c
000000a0: a8bd 1fbc 6d84 733d c25c 1c3d becd 393a
000000b0: 0e10 e1bb 9fbf 5abc d4c3 84bd bf58 043d
000000c0: 5b14 36bd a4a1 2fbd 0fdc 933c ebd0 d73c
000000d0: 440e cabc 2f0b 20bd 1c89 113d cebb 57bb
000000e0: c95a 36bb 95be a3bd 1593 933d 8e9f f8bc
000000f0: 2404 11bd 5a73 96bd cb9e 2a3c f6c7 613c
-0.043090947 -0.06419301 0.063928366 0.037022106 -0.08419425 -0.07210353 0.08646856 0.06758748
-0.07128172 0.016852407 0.010073503 -0.083627634 0.07201288 0.040277086 0.06228927 -0.061242532
0.063174725 -0.009039283 -0.045488212 0.03378682 0.04627558 -0.016522579 -0.05541789 -0.045684908
0.059346046 0.018023944 0.0695566 -0.033635635 0.060871184 -0.05339661 0.04962651 0.048700824
0.01927915 -0.047762517 -0.0017956044 -0.06803766 0.010788163 0.055284433 -0.0771468 0.021772372
-0.009749807 0.059452463 0.0381744 0.0007087848 -0.006868369 -0.01335135 -0.06482664 0.032311197
-0.044453006 -0.042878762 0.018049268 0.026344737 -0.024665006 -0.039073166 0.03553115 -0.0032918337
-0.0027825108 -0.07995335 0.07205788 -0.03034952 -0.03540434 -0.0734622 0.010413836 0.013780585

weight f4 [128, 256]
00000000: 8742 483d e897 67bc 4e84 083d 3838 00bd
00000010: 633c 16bd c16f 133c ea31 6d3c adfe 03bd
00000020: 65be 73bc baf5 633d a244 973c b1f2 133d
00000030: d78f 26bd ed47 f13c fffa 593d cc5d c4bc
00000040: 2e70 c6bc 8e55 753d 0074 dfbc 351c d73c
00000050: 0839 45bd 455d 0bbc 3d43 263d e62b ba3b
00000060: 5574 fabb f449 edbc 961c 563d 095d 3fbd
00000070: 7924 4b3c 7889 93bc 891a 3b3d 6559 06bd
00000080: 6252 1f3c 7696 363d 9b9d bbbc 59c6 07bd
00000090: 1733 56bd d873 47bd 1279 8dbc 9c43 4c3b
000000a0: 648b c2bc 1f66 043d ed25 1cbd cd74 19bd
000000b0: 3ff4 55bd 4daa 1cbd da5f 77bd 9037 ce3c
000000c0: e54c eb3c 11b3 003d f921 32ba 8b2d 33bd
000000d0: ea5b f73c 4940 3ebd 8bad 53bc 945b 293d
000000e0: 3851 4abd cd5f 373d 7fe6 053d d8d7 0fbd
000000f0: 9cff 66bd 2ed1 9bbc 4591 8cbc a99b 573d
00000100: caf9 7cbc 8672 3fbd 0f21 223d 7062 1dbc
00000110: 4a71 2b3d a390 373d 1d3a 02bc b6ba 87bb
00000120: 61e4 5a3a 234b f23c 60ef 09bc be8c 75bc
00000130: acd6 ebbb 8c32 36bd 7ee7 3f3d f73b 62bd
00000140: 9a86 a1bc 769d 45bd 6cf3 173b 5e2b 963b
00000150: 9eeb d03c 2364 a5bc f017 4e3d 9235 503d
00000160: f579 69bd f892 0abd af23 9cbb 1cd8 f23c
00000170: 71c3 86bc e3d9 853c c579 113d 7635 65bd
00000180: 7eda 25bd 623e 70bd 0cf4 33bd 40dc bcbb
00000190: 0a1f 29bc c2c4 b23c c60d 673d 2bd0 463d
000001a0: 44c8 89bc 8daf 43bd 5247 3dbd 033f 2cbd
000001b0: 4ef2 fabc a99b 41bd df49 213c 0fa9 48bd
000001c0: 81a4 81bd 890c 743c 5981 863b e62d 613c
000001d0: aa13 783c 85b1 3fbc 840c 40bd b7ad 183d
000001e0: 57bc 72bd e035 d9bc 6d66 2fbc 4a12 4ebd
000001f0: a1c8 c53c 39c4 32bd 3814 123d f94e 0a3c
00000200: e66f 5f3d 639e 253d 09db 763d 9aca 15bd
00000210: eea9 cb3c 405d 113d c459 193c 58b9 3e3d
00000220: 9236 49bd 4cdd 73bc 04cd 69bd 61b9 113c
00000230: d68f 65bd b749 65bc 56c7 433d 1f95 f2bc
00000240: dd4d 82bc 264e 3f3d b352 e83c ff17 2139
00000250: 920e 083d d52e f8bc 3ed0 063d bfe7 e7bc
00000260: 1203 0a3d 4496 91bc 49fc 083d 96e0 563d
00000270: 875d e03c 7e45 1abd 2ba9 143d 0d41 173d
00000280: 72c0 2dbc 1b90 92bc 22a3 3d3d 3f25 4dbd
00000290: 36cb 5bbd dd72 a73c 405e 7ebc b9d1 bbbc
000002a0: 6aae 38bd 8de3 8e3c 811f cebc 724b 523d
000002b0: 5a2c 8b3c c32f 533c d4e3 a1ba e91a 263d
000002c0: 27a3 3dbd 2b2a 053c 1b92 d43c d433 1a3d
000002d0: 4345 073d 774a babc 15f9 15bd 66ab e43c
000002e0: 52cd c4bc ca73 4e3d 6517 1a3d 850a 323d
000002f0: dada 843b f20a ce3c debc 173d 4ff3 53bc
00000300: 3ec4 d63c 3af0 63bd 4a3c 3e3d 5cc4 073d
00000310: 151e 5cbd 790c 2d3d d6d2 86bd 2880 53bc
00000320: 7229 413d 5375 823b 1e44 21bd a655 0e3d
00000330: 6bf7 493d 44e6 02bc 8b6c 7fbd 5c4e 053d
00000340: e5d1 20bd 1fa7 153d 4298 13bd a445 243d
00000350: 85cd 7cbc a820 d2bc f3a2 a63c bf18 313d
00000360: b3fc a2bb 301c 023c ec21 b03b 41ff edb8
00000370: 80ba 9a3c 986c babb 2929 163d 324d 8a3c
00000380: 7b2f 29bd 328b 89bd 6add 7cbd 12ae 2bbd
00000390: f270 0cbd 2d2e d33c e7bf 6cbd e808 81bd
000003a0: 8c11 1fbd d143 63bd ac73 88bd fd89 1bbd
000003b0: 7ada 803d 411b 053c 9dbc 85bc 3125 09bc
000003c0: 5080 d33c 300f dcbc f6eb 38bd d3b9 383d
000003d0: 7b56 5fbb d5cb 80bd b967 e73c d4f7 35bd
000003e0: e587 2a3c 0b64 ba3c c10b be3c 10e7 d4bb
000003f0: 98ef c73a c8e1 e63c b7cb 1a3d 4904 3f3d
0.04889157 -0.014135338 0.0333293 -0.031303614 -0.036678683 0.008998812 0.0144772325 -0.0322253
-0.014876937 0.055654265 0.018465344 0.03612012 -0.04066452 0.029453242 0.053217884 -0.023970507
-0.024223413 0.059896044 -0.027276993 0.026258567 -0.048150092 -0.008506124 0.040591467 0.0056815026
-0.0076432624 -0.028965928 0.052273355 -0.046719585 0.0123988325 -0.018009886 0.045679603 -0.032800097
0.009724231 0.044577084 -0.0229023 -0.033148143 -0.052294817 -0.04869446 -0.017269645 0.0031168228
-0.023748107 0.032323953 -0.038122106 -0.037464906 -0.052234884 -0.03824835 -0.060394146 0.025172979
0.02872319 0.03142077 -0.00067952235 -0.043744605 0.030195195 -0.046448026 -0.012919794 0.0413471
-0.049393862 0.044769097 0.03269052 -0.035117954 -0.05639611 -0.019020643 -0.017159114 0.052638683
-0.015440414 -0.046740077 0.03958231 -0.009605989 0.041856088 0.04481567 -0.007948426 -0.0041421307
0.0008350071 0.029576844 -0.008418888 -0.014987169 -0.0071972217 -0.0444818 0.046851628 -0.05523297
-0.019717503 -0.04824587 0.0023185862 0.0045828065 0.025502976 -0.02018935 0.050315797 0.05083234
-0.057001073 -0.033831567 -0.004764996 0.029644065 -0.016450616 0.016339248 0.03551652 -0.055959187
-0.040491574 -0.058653243 -0.043933913 -0.0057635605 -0.010322342 0.021822337 0.05640962 0.04853837
-0.016819127 -0.04777484 -0.046210594 -0.04205228 -0.030633118 -0.04726759 0.009844272 -0.04898935
-0.06330205 0.014895567 0.004104775 0.013743853 0.015141407 -0.011700039 -0.046886936 0.037275042
-0.059261646 -0.026514947 -0.010705573 -0.05031041 0.024143519 -0.043644164 0.035663813 0.00844168
0.054550074 0.040434252 0.060267482 -0.03657017 0.024861302 0.03548932 0.009359781 0.046563476
-0.049124308 -0.014884304 -0.057080284 0.008894295 -0.056045376 -0.013994626 0.047797523 -0.029612122
-0.015906269 0.046705388 0.028359747 0.00015363096 0.03321702 -0.030295769 0.03291344 -0.028308747
0.033694334 -0.017771848 0.033443723 0.052460276 0.027388347 -0.03766393 0.036294144 0.03692727
-0.010604965 -0.01789098 0.046298154 -0.05008435 -0.053660594 0.020440513 -0.015525401 -0.022927152
-0.04508821 0.017442489 -0.025161507 0.05134148 0.016988922 0.012889805 -0.0012351223 0.040553007
-0.046298172 0.008127729 0.025948575 0.037647083 0.033025037 -0.022740586 -0.036614496 0.02791376
-0.024023686 0.050403394 0.037619967 0.043467063 0.0040544095 0.025151704 0.037045352 -0.012936427
0.026216622 -0.05564902 0.046444215 0.033146247 -0.053739626 0.042248223 -0.065831825 -0.012908973
0.047158666 0.0039812713 -0.039371602 0.03474965 0.04930822 -0.00798947 -0.062359374 0.032545432
-0.03926267 0.036536332 -0.036033876 0.040105477 -0.015429859 -0.025650337 0.020341372 0.04323649
-0.0049739718 0.007941291 0.0053751376 -0.000113485854 0.018887758 -0.005689215 0.036660347 0.016882513
-0.041305047 -0.067160025 -0.061734594 -0.041914053 -0.0342874 0.025778854 -0.0578002 -0.06300527
-0.038835093 -0.055484597 -0.06662688 -0.037973393 0.06291671 0.008124174 -0.01632529 -0.0083706835
0.02581802 -0.02686271 -0.045146905 0.04509909 -0.0034078646 -0.06288878 0.028247701 -0.0444258
0.010408376 0.022752782 0.023198964 -0.0064972714 0.00152539 0.028183833 0.037791934 0.046634946

bias f4 [128]
00000000: c65b 81bd f7ca 763d 0017 293d 1fda bd3c
00000010: e782 65bd e7c3 28bd 49e5 7a3d d814 2d3d
00000020: d15f 033c 6e7c c1bc 54c9 143d 21ff fbbb
00000030: bca7 ddbc deca 153d ae40 09bd e04b 0e3d
00000040: 826f 0b1c efda 073d b433 32b9 d43f 3a3d
00000050: 7c67 173d 0a36 4d3d b832 65bd 67e6 403d
00000060: 46b7 16bd 7903 3d3d c0f8 553d ba18 103d
00000070: d0e4 803d ec5d 843d 13b1 a43b a416 1ebd
00000080: e3c4 42bd 86c3 06ba a6ce 0a3d c930 2f37
00000090: c28d a1bc e1dc 50bd c908 d0b7 3803 45bd
000000a0: 43a2 983c 53bc c200 0107 d53b b8f4 20bd
000000b0: 85a5 22bd 4b11 183d fa6c 7e3d def0 fbbc
000000c0: e5b4 2b3d 589c 8fbc 92b1 2cb0 ccf9 023c
000000d0: f1e0 093d fc31 00b9 51e8 513d 6ad0 603d
000000e0: 0361 0d3b ce33 6abc cd98 af01 75f4 32bd
000000f0: 42c0 73bc 5560 bdbc 0bcf 1ebd 1324 4ebd
00000100: d97d 913d 9026 83ba 71d1 a23c 9288 243d
00000110: 4110 c03c 58ae dfbc 2bbe b881 9df6 1001
00000120: 2cc1 9e3a 8817 483d 38cf 463d e882 8f3c
00000130: 9115 a8bc 4ee0 a13c 54c5 7a3c 3aeb 983c
00000140: 05fa bbba 999c d93c 7c3b 6700 67c0 763c
00000150: a035 edbc 3cba 5012 cbb7 ffbc 9f26 55bd
00000160: a14e e53c 5ff6 febc ff1c 8ebc 1d5e 033d
00000170: d7ae b9bc d852 a2bc 43ab 0fbc 2052 073c
00000180: 5577 1ebd c42d 13bd cc24 c43a 5766 d7b7
00000190: 8296 bcb6 5afe 0cbc 3b79 7b3d 12ec afbc
000001a0: a0d4 0c3d 47fb 4e3c 5aff 713c 92cf 89bc
000001b0: 6253 9c3c d5a9 08bd 00e0 1c3b f0d0 0ebd
000001c0: 956a 693b f6c0 e1bc cd99 57bd 0b44 e83b
000001d0: d674 a93c ac1a e5bc d6e0 cfbc ad74 b43a
000001e0: befc 543d 64de 71bd a5a9 b9bc 9dfc 99a9
000001f0: a251 76bc 44ab 9cbc 3488 87bc 0913 a1bb
-0.063163325 0.060252156 0.0412817 0.023175297 -0.05603304 -0.041202452 0.06125382 0.042256206
0.00801845 -0.023618903 0.036324814 -0.007690326 -0.027057521 0.036570422 -0.03350895 0.03474033
4.6135363e-22 0.033167776 -0.00016994664 0.045471027 0.036963925 0.050100364 -0.055956572 0.04709473
-0.036795877 0.04614589 0.05223918 0.03517983 0.062936425 0.06463227 0.0050259917 -0.03859581
-0.047551047 -0.00051408296 0.03388848 1.04421715e-05 -0.019720916 -0.050991897 -2.4799623e-05 -0.048098773
0.01863206 1.7883644e-38 0.006501079 -0.039295882 -0.039708633 0.037125867 0.062115647 -0.030754503
0.04192056 -0.017530605 -6.282558e-10 0.0079941265 0.033661786 -0.00012225652 0.051246945 0.05488626
0.0021572716 -0.014294578 6.4504106e-38 -0.043690164 -0.014877381 -0.023117224 -0.03877167 -0.05032737
0.07104082 -0.0010005999 0.01987526 0.040169306 0.02344525 -0.027304813 -6.7863803e-38 2.662556e-38
0.0012112013 0.048850566 0.048537463 0.017518476 -0.020518096 0.019760277 0.015305836 0.018666852
-0.0014341479 0.02656393 9.480395e-39 0.015060521 -0.028956234 6.586278e-28 -0.031215569 -0.052038785
0.027991595 -0.031123338 -0.01734781 0.032072175 -0.022666378 -0.019814894 -0.008768859 0.008259326
-0.038688023 -0.035932317 0.001496458 -2.5677653e-05 -5.620358e-06 -0.008605564 0.06139491 -0.021474872
0.034382463 0.012633151 0.014770353 -0.01682261 0.019082729 -0.03336509 0.0023937225 -0.034867227
0.0035616506 -0.027557831 -0.05263691 0.0070881895 0.020685595 -0.02796682 -0.025375765 0.0013767682
0.051998846 -0.05904998 -0.0226639 -6.838386e-14 -0.015034111 -0.019124635 -0.016544439 -0.0049155992

weight f4 [10, 128]
00000000: efc8 8abd 01c9 abbd 5a6a ecba 3124 91bd
00000010: eb9b a03c ffce 003d b919 763c 2984 0a3e
00000020: eae8 9bbc 22b9 ddb9 55aa 803d 2fab ed3d
00000030: 8ceb 2d3c 6a67 86bc 1376 59bd 74ab 943d
00000040: 73f7 bab8 fa5f 81bd e73c f3b9 e481 6e3d
00000050: 0e81 09be baf0 493d fa45 bdbd 1bee 8c3d
00000060: 5c91 bcbd 72b0 fdbd cc24 00be b8c1 88bd
00000070: 20e6 ce3c d4a7 babd 8e8e 793d 771b e8bb
00000080: 7c40 833d bd15 60ba 3c89 36be 6205 8001
00000090: cd39 71bd 6fc3 b0bd b488 8a01 b78e 6c3c
000000a0: 3f1a 9b3d 700d 4d01 6d1d 21bb 477d 90bd
000000b0: d0a8 dc3c 72b6 dbbd bfea 84bc a7d7 8a3c
000000c0: 1e5c 04be b9b0 c13d 7035 5180 510d 88bd
000000d0: 13eb 10bd df14 caba b7f4 5e3d a672 a5bb
000000e0: 0a8a b0bc a0f5 a4bd 39a6 9801 e0c2 ab3c
000000f0: 5101 2e3d 0ee3 11bd 566e df3d 6ce6 63bd
00000100: ba1a 8e3c 77c5 713a 0d5d 243c fce0 9d3d
00000110: b7e9 3ebd eaae 31bd 5e09 5e81 8ef0 f581
00000120: 0b29 823d bb31 8a3d 0fd1 cbbd 5255 fdbd
00000130: 6eec 933d 55f7 e8bc df54 88bd 3263 13be
00000140: 9dd0 9db7 05a1 d2bc 628d ad01 a43a d73c
00000150: 3bdf 823c 163d 7837 c479 85bd 2d86 e53d
00000160: d068 0dbd abd4 80bd 56b4 f5bc 1e6b a13b
00000170: 2fd0 943d 0c2d 1a3d 1b0d bf3d 1f96 84bd
00000180: 0e39 973b 73d0 77bc 00f0 40bd 7420 2100
00000190: a8b3 fab9 d011 173d 9131 f23d c5aa 7ebd
000001a0: 923f 73bd 5d0b 9b3d 1f12 33bd 0a71 e9b2
000001b0: 27d1 27bd 89d8 503c 8de6 8f3d 91a8 843d
000001c0: 04bb 67bd 4598 a63b 810a 013e 0424 53bd
000001d0: e20e 803d 64a4 cfbd 2350 4b3d ee67 823c
000001e0: 9dc3 adbd c5c3 8ebc 8e26 bbbb 2812 b688
000001f0: efea 96bd 799b 17bd 9a30 4c3d b16d 79bd
00000200: 7bf1 183b c45e fdbd 31ac 993d 8ed7 953c
00000210: e6bb f93d 3bb2 c6bc 5f7d acbd 8613 1ebe
00000220: 85dd 8d3c 7647 71ba 7ea6 733b 1e65 66bd
00000230: 5107 0cbc c3ae 393d 3dd3 e03d d229 b13d
00000240: 357c 1aba 0c82 0f3d 8504 213c 83d7 33bd
00000250: 9079 f43b 6f38 aabd 6101 98bc e2d9 87bd
00000260: 985c 363d cdbe 1b3d e86f 5f3d 61dd 833d
00000270: 0698 e53d 0f0b 39bd e15c 963d 86e3 943c
00000280: ec82 bd3c 347c 01ba f284 033e cf19 fc00
00000290: e918 b63d d7d6 6bbd fd63 dc00 6152 debd
000002a0: 88dd f0bd f437 2081 c080 b4bd 7e71 d5bc
000002b0: ed80 143e 8675 12bd a5a6 d0bd 0c1e dabd
000002c0: 7dda 6e3d ae42 01be 0de7 c921 6767 6dbd
000002d0: 2c4c 783d 22ee 9f39 5bee 743d cd6f cd3d
000002e0: 6a6b 06bd 6851 403d b214 5e81 6168 efbd
000002f0: 9907 c63d 4cc0 5f3d 4329 ea3d 393e 8dbd
00000300: af90 02be 347e a9ba 6ab7 0a3d 22e6 ff3d
00000310: 2e8f 93bb dea5 78bd 21e5 fa80 c836 cf00
00000320: dcd6 8cbb d477 ccbc 0de9 ba3d d987 8bbd
00000330: 26bd a43d c0dd f8bc 2814 15bd a85f a63d
00000340: 08f5 4b3b 818a 8fbd 5606 6601 f806 80bc
00000350: f8f2 dabd 7cf4 37b9 dcc7 96bc 8bd9 f63d
00000360: eb9e 25bd fc3e fcbd 5068 963c 2330 ddbd
00000370: 70ba 8b3c 3708 d43c 30ac 51bd 78ac 99bd
00000380: f1c1 ed3c 0016 ccbd d2bd 313d c8c7 20b9
00000390: e250 1d3b 278a f1bc 914d 403d 908a 90bc
000003a0: 8a4c 293d ff14 92bc 05b2 a9bd e168 b9bc
000003b0: 2305 3d3d 9f9c 00bc df8f aebc c041 2f3d
000003c0: d5cf 943c 5e38 ae3a 444c 20bc a0f4 713d
000003d0: 6703 6e3d 32f3 46bd f294 573d 5510 783d
000003e0: 0462 09bd 88ae 6bbd 22dc 1fbd abcb ad89
000003f0: 7c56 6f3c 8804 413d 8101 c63d 38e8 9fbc
-0.06776606 -0.08387948 -0.0018037066 -0.07086981 0.019605597 0.031447407 0.015020781 0.13526978
-0.01903196 -0.0004229034 0.06282488 0.11604916 0.010615241 -0.016406734 -0.05309112 0.072592646
-8.915262e-05 -0.06317134 -0.00046393948 0.058229342 -0.13428137 0.04930184 -0.092418626 0.068813525
-0.092074126 -0.1238717 -0.12514037 -0.06677574 0.025256217 -0.09114042 0.060926966 -0.007083352
0.06408784 -0.0008548161 -0.17825788 4.70275e-38 -0.058893014 -0.08631026 5.0889353e-38 0.014438323
0.075733654 3.7662194e-38 -0.002458419 -0.07055145 0.026935965 -0.10728158 -0.016225217 0.016948534
-0.12925765 0.09457535 -7.457845e-39 -0.06643165 -0.035380434 -0.0015417597 0.054432597 -0.0050490675
-0.021550197 -0.08054662 5.60745e-38 0.020966947 0.042481724 -0.035616927 0.10909717 -0.05563967
0.017346729 0.0009222845 0.010031951 0.07708928 -0.046609607 -0.0433797 -4.078168e-38 -9.0343965e-38
0.063554846 0.067477666 -0.09951984 -0.12369789 0.0722283 -0.02843825 -0.06656813 -0.14393309
-1.8813002e-05 -0.025711546 6.375304e-38 0.02627308 0.015975585 1.4796175e-05 -0.065173656 0.112072326
-0.034523785 -0.06290563 -0.029993217 0.0049260994 0.0726627 0.037640616 0.093286715 -0.06473946
0.0046149557 -0.015125382 -0.04710388 3.042213e-39 -0.0004781757 0.03688222 0.1182586 -0.062174577
-0.059386797 0.07570527 -0.043718453 -2.7176174e-08 -0.040970948 0.0127469385 0.07026396 0.06477464
-0.056574836 0.00508407 0.12601663 -0.05154802 0.06252839 -0.10138777 0.04963697 0.015918698
-0.08484576 -0.017427335 -0.005711383 -1.0957995e-33 -0.07369029 -0.037013505 0.049851038 -0.060895626
0.0023337293 -0.12371591 0.07503546 0.018291261 0.12194042 -0.024254909 -0.0842235 -0.15437135
0.017317543 -0.0009204069 0.0037178094 -0.056248777 -0.008546666 0.04533268 0.109777905 0.08650555
-0.0005893142 0.03503613 0.009827738 -0.0439067 0.0074607804 -0.08311545 -0.018555345 -0.06633355
0.044521898 0.03802376 0.05455008 0.06438709 0.11210637 -0.045176562 0.07341934 0.018174898
0.023133717 -0.0004939467 0.12843683 2.3151803e-38 0.0889147 -0.057577934 2.0239678e-38 -0.10855556
-0.11761004 -2.9427503e-38 -0.088136196 -0.026055094 0.14502306 -0.03575661 -0.10188035 -0.10650262
0.058313835 -0.12623093 1.3681448e-18 -0.05795994 0.06061952 0.00030504266 0.059797626 0.1003109
-0.03281728 0.046952635 -4.0789808e-38 -0.116898306 0.09669418 0.054626748 0.11433651 -0.06896634
-0.12750505 -0.0012931288 0.033866324 0.12495066 -0.0045031523 -0.06070506 -2.304107e-38 1.90296e-38
-0.004298074 -0.024959482 0.09126482 -0.0681302 0.0804389 -0.030379176 -0.036396176 0.08123714
0.0031121392 -0.070088394 4.2248874e-38 -0.015628323 -0.10690874 -0.00017543318 -0.018405847 0.12053212
-0.04043476 -0.12316701 0.018360287 -0.10800197 0.017056674 0.025882823 -0.0511896 -0.07503599
0.029023143 -0.09965134 0.043393917 -0.00015333213 0.0024004509 -0.029484821 0.046948973 -0.017644197
0.04133276 -0.017832277 -0.08285908 -0.022633018 0.046147477 -0.007849841 -0.021308837 0.042787313
0.018165508 0.0013291945 -0.009783808 0.059071183 0.058108713 -0.048571773 0.05263228 0.06056245
-0.03354074 -0.057539493 -0.039028294 -4.1839763e-33 0.014608022 0.047123462 0.096682556 -0.01951991

bias f4 [10]
00000000: 52c0 923d ff6f 3b3b 88b7 963d 05dd 1fbd
00000010: 8717 8fbd d6ff 193d 59fb b8bd 6aa0 0fbd
00000020: a1e0 403d 0da4 1d3d
0.071655884 0.002860069 0.073592246 -0.03902914 -0.06986909 0.0375975 -0.09032316 -0.035065092
0.047089223 0.03848653
