Assignments/Assignment 4/results/classifier_cnn_M_256_kernels_32/classifier_cnn_M_256_kernels_32.model (torch, 445627 bytes, 14 tensors)

weight f4 [3, 3, 3, 3]
000000 84 ed 09 be 11 e3 6b 3e 18 d1 f8 bd 7c 0b 23 be
       -0.13469511 0.23035838 -0.121492565 -0.1592235
000010 33 b4 02 be ac 33 8f bd ec 71 27 3e ac 75 f9 3d
       -0.12764053 -0.069922775 0.16352051 0.12180647
000020 29 60 a4 3d 95 3b 2e be da c6 ba bd eb 03 01 3e
       0.080261536 -0.17014916 -0.09119959 0.12599151
000030 e3 34 bd 3b 4e bd 93 bd 9a 43 94 be a1 ba 1e 3e
       0.005774127 -0.072138414 -0.28957826 0.15500881
000040 b2 0a a9 3d 61 e5 e5 3d ae cd d9 bc 1b a9 da 3d
       0.08253993 0.11225391 -0.026587334 0.106767856
000050 cb c1 ac bd bb b9 dd bc eb 86 6f be 1e 23 46 3d
       -0.084354006 -0.027066102 -0.23391311 0.048373334
000060 42 95 dc 3d 01 1f e4 3d 20 41 96 bb c3 a1 dd bd
       0.10770656 0.11138726 -0.0045854 -0.10821869
000070 01 3f 64 bd b0 b5 df 3d 67 6e 7f 3d b4 ac ed bc
       -0.055724148 0.10923326 0.062361147 -0.029013015
000080 b9 70 1d be d4 81 6d 3d 4e 61 ca bd 2b df 4e 3d
       -0.15375032 0.057985142 -0.09881841 0.0505058
000090 c1 91 ac 3d e2 ce 66 be 9f c6 0c 3e e5 17 45 3c
       0.08426238 -0.22539857 0.13747643 0.012029623
0000a0 db 35 1a be d1 b4 50 be fa 67 87 3a ed 1f f3 bd
       -0.15059607 -0.20381476 0.001033067 -0.11871324
0000b0 16 64 a6 3c eb 03 dd 3b e1 45 f4 bc 40 36 95 3c
       0.020311397 0.006744852 -0.029818477 0.018214345
0000c0 66 c7 3e 3d f3 11 0e be 12 e6 32 3c 98 33 89 3d
       0.04657688 -0.13874035 0.010919111 0.06699294
0000d0 2e c8 3b 3c 8d c9 49 bd 5a ee 8e bd 6a 51 e9 3c
       0.011461301 -0.04926448 -0.06979056 0.028481204
0000e0 71 fb 37 3e 1e dd f7 bd 5d 2f 4a be 65 bc 96 3d
       0.17967011 -0.12102722 -0.1974463 0.07360152
0000f0 cb c4 d2 3c 96 a0 92 bd 18 44 f1 3d 36 da 52 3d
       0.025728604 -0.071595356 0.11780566 0.051477633
000100 a4 23 97 bd 41 0a 01 3e b8 bd 26 bd e2 6c 7e be
       -0.07379845 0.12601568 -0.040708274 -0.24846223
000110 b1 6a 5c 3d b6 61 98 bd e9 6d 34 be 9c 57 75 3e
       0.053812686 -0.07440512 -0.17620052 0.23959202
000120 f4 50 9e bd 7d 92 8d bd 84 ea 59 3e aa 8f a5 3c
       -0.07730284 -0.06912706 0.21280867 0.020210106
000130 dd 95 aa bc 12 bb 34 bc 9c 39 8f 3d 90 80 96 bd
       -0.020823414 -0.011030929 0.0699341 -0.0734874
000140 37 55 24 bd
       -0.04012033

bias f4 [3]
000000 3d cf 71 3f ae 1d 01 40 1e 37 02 40
       0.94456846 2.0174365 2.034614

weight f4 [3, 3, 3, 3]
000000 5a 92 b7 3d 09 30 67 3e f5 8a 91 3b 29 60 06 3e
       0.08963461 0.22576918 0.004441614 0.1312262
000010 ca fc 18 3e 38 15 0d 3d d8 8c fc bd aa af d3 bc
       0.14940181 0.034444064 -0.12331551 -0.0258406
000020 89 77 cf 3d 59 f6 49 3e 2a d2 c7 3d ab 24 c4 bd
       0.101302214 0.1972288 0.097568825 -0.09577306
000030 f3 39 b5 bd cb d7 0c be 92 4b 96 3d 63 96 7a be
       -0.088489436 -0.13754193 0.07338633 -0.2447143
000040 c2 0b 30 bb c0 b1 4b 3d 67 f5 27 3d eb 2a e4 3d
       -0.0026862477 0.049730062 0.04100552 0.111409985
000050 7e 17 c1 3c 61 35 44 be 01 f1 53 bb 98 55 16 bd
       0.023570772 -0.19160987 -0.0032339694 -0.036702722
000060 ea ca fc bd bb 4a 76 be b3 d4 dd bc 9a 57 98 bd
       -0.1234339 -0.24051945 -0.027078962 -0.07438584
000070 e1 3b 9a 3d 94 80 22 3d 11 bf 18 bd 81 04 ce bd
       0.07530952 0.039673403 -0.03729159 -0.10059453
000080 00 3a 87 3d 22 92 2c bd cf 09 31 be 80 17 7f 3d
       0.066028595 -0.04213155 -0.17288898 0.06227827
000090 95 c3 0e bd bf eb 17 be 60 ed 6f 3e be 8b 6a be
       -0.03485449 -0.14836024 0.23430395 -0.2290487
0000a0 2b 9d 75 bc 8e f1 86 3d 98 c3 d2 3c c9 f6 90 bd
       -0.014991085 0.06589042 0.025728032 -0.070783205
0000b0 c5 60 18 3e bc d5 0a 3e ae 73 5b bd 12 81 91 3c
       0.14880665 0.13558096 -0.053577118 0.01776174
0000c0 e2 db 4a 3e 8d 76 88 be d5 f4 38 3d 11 58 b2 bd
       0.19810441 -0.26652947 0.045155365 -0.087082036
0000d0 69 ce 64 bd 60 c8 0a be 59 9f 22 be f8 43 eb 3d
       -0.05586091 -0.13553 -0.15881099 0.114875734
0000e0 df 61 02 3e d0 6e 2d be 77 ea 44 be 7e 54 55 bd
       0.12732647 -0.16936803 -0.19230066 -0.05208253
0000f0 f6 e6 01 3e 6c d7 59 bd fa 75 09 bc 96 14 4e be
       0.12685761 -0.053183958 -0.008389944 -0.2012504
000100 e8 9c 23 be 52 92 0f bc 98 b1 eb 3d 97 58 ae bc
       -0.15977824 -0.008762913 0.11508483 -0.021282477
000110 db 27 8c bc 2a c4 18 3e 50 19 9f 3d 57 d0 cb 3d
       -0.017108848 0.1491858 0.077685 0.09951847
000120 79 46 bb bd 9c 80 bb bd 45 4b 75 3c fc 85 21 3e
       -0.09144301 -0.0915539 0.014971559 0.15773767
000130 a7 ee a9 bd 13 4e 91 bb 93 01 2f 3d d4 4b 43 3e
       -0.082974724 -0.004434356 0.04272611 0.19071895
000140 72 df 88 bd
       -0.06683244

bias f4 [3]
000000 83 81 3a bf 77 5f 1e 3f 80 7f cb bf
       -0.7285387 0.6186442 -1.5898285

weight f4 [3, 3, 3, 3]
000000 e9 6c 86 3d 37 79 3e 3c 3c ec e1 bd fd d3 15 3e
       0.06563742 0.01162558 -0.11031386 0.14631648
000010 06 a7 9a be 24 c0 27 be 49 41 d5 bd 33 98 9e be
       -0.30205554 -0.1638189 -0.10412843 -0.30975494
000020 58 1a 0c 3e 1a cd f0 3d 4c 9f 21 3e be 0a 2d bd
       0.13681924 0.1175787 0.15783423 -0.042246573
000030 ff a5 7d 3e d9 af 44 3e a9 a6 d9 bd fc 44 6f bc
       0.24770354 0.19207706 -0.10627491 -0.0146038495
000040 1d 43 b2 be 19 ef c1 3d 96 27 ea bd 71 99 e1 bd
       -0.34816828 0.094694324 -0.11433332 -0.11015595
000050 21 e5 d3 bb 46 79 af bd cd 45 00 be e6 9e 36 3d
       -0.0064665233 -0.08568053 -0.12526627 0.04458513
000060 c3 df 98 3d 28 57 fe 3c 15 f4 4a bd 71 d7 6b 3c
       0.07464554 0.031047419 -0.04954918 0.014394627
000070 0a c1 cc 3d f9 0e 18 3c 53 af e4 bd c3 5d e8 3b
       0.09997757 0.0092809135 -0.11166253 0.0070912554
000080 49 10 be bc 9c 9a a7 3d 4d 2a 1d be e2 e4 12 3c
       -0.023201125 0.08183786 -0.15348168 0.008965703
000090 a3 9f 23 3d d2 54 d9 3d 29 be 19 3d c3 42 ba 3d
       0.039947163 0.10611881 0.037534866 0.09094765
0000a0 50 98 c2 bc df b1 9c bc c6 d8 77 be 45 62 98 bd
       -0.023754269 -0.019127784 -0.24203786 -0.074406184
0000b0 9f ec b9 bc 47 e0 d0 3d 8d a3 16 3e c6 87 6d bd
       -0.022695838 0.101990275 0.14710827 -0.05799081
0000c0 0f 18 0d 3e 3e e6 e7 3d 6b c5 2b be 41 99 b3 3d
       0.13778709 0.11323212 -0.16774528 0.08769465
0000d0 b7 ad 3a 3d 1b 7a 85 bc d4 f5 50 bc d5 9e 2a be
       0.045575824 -0.016293576 -0.0127539225 -0.16662152
0000e0 bd 53 9c bc c2 b9 fa 3d 82 6e a7 be 26 8f 79 bd
       -0.019082898 0.12242462 -0.32701498 -0.060927533
0000f0 70 f7 94 3d 0d f8 b8 bd 2b f0 9e bd bd 1b ae bd
       0.072737575 -0.09031687 -0.07760652 -0.085013844
000100 69 60 03 3b b5 35 f4 3c 00 94 ec 3d 97 84 ad 3d
       0.0020046479 0.029810766 0.11551666 0.08472555
000110 d9 2a d4 3d ee 19 d0 bb 2a 03 f1 3d 8d 55 01 3e
       0.10359735 -0.0063507473 0.117681816 0.12630291
000120 e1 98 15 bc 71 5b 03 3e 24 85 8c be 9f d7 b0 bd
       -0.009130687 0.12827851 -0.27445328 -0.086348765
000130 a5 e3 1c bc 8d 6f ad bd a5 ae 7f be 18 12 26 3e
       -0.009575759 -0.08468542 -0.24968965 0.1621784
000140 7a 13 02 3d
       0.031756856

bias f4 [3]
000000 95 81 94 3f fc a8 d7 bf 39 19 33 be
       1.1602045 -1.6848445 -0.1749009

weight f4 [128, 768]
000000 22 c2 47 bd ea 6b 5d bc d5 75 28 bb fb f9 14 3d
       -0.048769124 -0.013514498 -0.0025705 0.036371212
000010 4b 3d 1b bc fc de 55 bd 1e 6c 34 bd ef f2 ac 3c
       -0.009475063 -0.052214608 -0.04404842 0.021111934
000020 cb 1f dd 3d be 89 69 3d 0a 6e 3e 3d 77 6a 48 bc
       0.1079708 0.057016127 0.04649166 -0.012232414
000030 75 18 5a 3c 72 20 31 bc db 11 37 bc e8 c6 a0 3b
       0.013311495 -0.010810958 -0.011173691 0.004906524
000040 43 52 80 bd b5 67 21 3b 64 59 0b 3d 9d b4 c8 ba
       -0.0626569 0.0024628465 0.034020796 -0.0015312616
000050 ce c1 fe bc 75 5f d0 bd dd b5 9a bd 1b 70 35 3d
       -0.031098273 -0.10174457 -0.07554219 0.044296365
000060 d7 81 b3 3d 09 c4 3b 3d e6 10 93 3d cc ad ee 3c
       0.08764999 0.04584125 0.071809575 0.029135607
000070 e5 de d8 3c d2 01 85 ba 37 f9 98 bb 3d 96 14 3c
       0.026473472 -0.0010147637 -0.0046683806 0.009069023
000080 83 7d b8 bd 6f 67 b5 ba 6b f5 71 3d 3a a3 85 bc
       -0.090083145 -0.001384003 0.05907194 -0.016313184
000090 fc b4 33 bd a5 35 0d be 68 f9 83 bd c0 35 09 3e
       -0.043873772 -0.13789995 -0.06444055 0.1339941
0000a0 39 9a ae 3d 7b f0 9a 3d a5 43 c1 3d f8 d6 a1 3d
       0.085255094 0.07565399 0.0943673 0.0790233
0000b0 7f 3b 39 3d 9c 7b 8c 3d ea d3 28 3d 31 5c f1 3c
       0.045222756 0.06859514 0.041217722 0.029462906
0000c0 4d 43 11 bd 8c 89 34 3d 2a 45 eb 3b ae 51 3c 3c
       -0.035464574 0.044076487 0.007179876 0.011494083
0000d0 67 bc c3 bd c9 23 be bd 93 30 62 3c 72 a6 ec 3d
       -0.09557419 -0.09284169 0.013805526 0.115551844
0000e0 87 3c 92 3d 0c c5 d9 3d 4a a2 dc 3d 19 07 91 3d
       0.07140451 0.10633287 0.10773142 0.07081432
0000f0 58 75 e5 3c 66 6d 90 3d 79 03 60 3d a5 1a 99 bc
       0.028010055 0.07052116 0.05469081 -0.018689463
000100 d8 60 0d 3c a7 0c 38 3d 33 07 17 3d 21 44 10 3d
       0.008629046 0.04493394 0.0368721 0.035221223
000110 63 8f 91 bd de ee 0c bc 35 68 0e 3d 61 64 8b 3d
       -0.07107427 -0.008601872 0.03476735 0.06806255
000120 e7 0c ab 3d 2c 69 f6 3d f4 4b cf 3d bf 06 7b 3c
       0.0835207 0.12031779 0.10121909 0.015321433
000130 1a 67 24 3d e8 ce 81 3d 23 e3 25 bd ac d0 90 bd
       0.040137388 0.06338292 -0.040499818 -0.07071051
000140 37 71 f7 3c 96 2c 4e 3d 35 25 90 3d 6b bd 47 bc
       0.030205352 0.05033549 0.07038347 -0.012191157
000150 81 79 ed bd b6 19 7c bb 37 91 ca bb 33 d7 8e 3d
       -0.11595441 -0.0038467473 -0.0061818617 0.0697464
000160 ff 99 8a 3d 17 f5 06 3c 25 ad 28 bd 75 18 b4 3c
       0.06767654 0.008237145 -0.04118075 0.021984318
000170 10 4a cf 3c d6 85 60 ba fe d5 8e bd 28 9f ee bc
       0.02530387 -0.0008564865 -0.069744095 -0.029128626
000180 9b ff 95 3d da 71 40 3d 80 5b 2c 3d e6 03 f3 bc
       0.073241435 0.046983577 0.04207945 -0.029664945
000190 0f 18 85 bd 8e 56 b5 bc d9 15 5e bb d7 76 96 3d
       -0.064987294 -0.022135999 -0.0033887534 0.07346886
0001a0 e8 86 a0 3d f7 d0 d8 3c d0 97 1f bd 52 fc 76 bb
       0.07838231 0.02646683 -0.03896314 -0.0037687016
0001b0 de ee 2e 3b cd af 3e bd f5 ae 62 bd de 17 b9 bb
       0.002669267 -0.046554375 -0.055342633 -0.005648597
0001c0 34 94 93 3d d8 38 66 3c c1 e4 17 3c 54 c4 6e bd
       0.07206002 0.014051639 0.009270848 -0.0582927
0001d0 7c 72 b7 bc 92 25 07 bb 15 c3 b5 3d b4 2c 9f 3d
       -0.022393458 -0.002062176 0.088750996 0.07772198
0001e0 ae 83 52 3d 7d b2 11 bd 82 0a 9c bd 9b 24 8b bd
       0.05139511 -0.03557061 -0.07619192 -0.06794091
0001f0 ba e4 2d bd 14 6f e0 bb 40 a4 13 bc c3 b5 1b 3d
       -0.04245446 -0.006849179 -0.009011328 0.03801514
000200 90 dd f9 3c af 92 12 bb 88 d9 d3 ba 2b dc 9d bd
       0.030501157 -0.0022365262 -0.0016162852 -0.07708009
000210 e7 6e a5 3a 5a fa f5 3c ec 0b 21 3d 24 3a f9 bc
       0.0012621552 0.030026603 0.03931801 -0.030423231
000220 a5 dd 54 bd 9b be 15 bd 13 5c 6e bd 8f 5f 3a bc
       -0.05196919 -0.03655873 -0.058193278 -0.011375322
000230 ab a8 a9 bd 33 cd cf 3a 4e 3f 82 3c 3c 61 3b 3c
       -0.08284124 0.0015854001 0.015899327 0.011436757
000240 5c b2 12 bd be c3 e0 3b 21 a5 be bb 4a 97 cd 3c
       -0.035814628 0.006859272 -0.0058180247 0.025096554
000250 8f f2 d5 3d 52 b9 8b 3d dc 2a c3 3c a4 48 9b bd
       0.10446655 0.068224564 0.023824148 -0.075822145
000260 d6 fe b7 bc 76 f4 bc bc ad 0f 24 3c 5c 5a 07 3c
       -0.022460382 -0.023065787 0.010013503 0.008261289
000270 a6 25 cc 3b 5a f0 86 3d c9 39 5b 3d 00 b8 54 3c
       0.006230074 0.06588812 0.053521905 0.012983322
000280 79 87 4b bd bc 8d 5c bd a5 af 55 bc 55 4f 61 3d
       -0.049689744 -0.053846106 -0.013042365 0.055007298
000290 06 86 a2 3d 6d 0a 42 3d cc e6 24 bc d4 92 b6 b9
       0.07935719 0.047373224 -0.010064792 -0.0003482314
0002a0 61 74 bb bc 86 8f 61 bb 1c d0 1d bc d0 1e 24 bc
       -0.022882642 -0.0034417822 -0.009632137 -0.010017112
0002b0 5a 4c 03 3d fc 61 2c 3c 81 3d 04 bc 93 48 90 bb
       0.032055236 0.010521408 -0.008071304 -0.004403183
0002c0 f8 5b 48 bd 1f 7b c6 bd e7 3f b5 bc 9d f9 dc bc
       -0.048915833 -0.09691452 -0.022125198 -0.026974494
0002d0 7d d7 eb 3b 71 2f 4c bd 83 6b 53 bc e9 07 9e 3b
       0.007197319 -0.04984993 -0.012904051 0.0048227203
0002e0 87 3b 51 bb b8 bd 37 bd 90 e2 9d bd 81 b0 83 bd
       -0.003192635 -0.044858664 -0.07709229 -0.0643015
0002f0 29 27 70 3c 5b 0b 43 3b d2 6c 07 bc 0d 03 bc 3c
       0.014657774 0.0029761407 -0.008265691 0.022950673
000300 a6 5b 31 bd fb fd f2 bc 7f 63 11 bc 98 0e 36 bd
       -0.043300293 -0.029662123 -0.008873819 -0.04444751
000310 62 42 8a 3b 0d 99 6a bc fd f1 12 3d 38 24 39 3d
       0.004219339 -0.014318717 0.03587531 0.045200557
000320 7f 2e 86 bc 3a cc 56 bd 9b e7 61 bd 37 f4 73 bb
       -0.016379593 -0.05244086 -0.055152517 -0.003722442
000330 50 92 2e 3d 50 d0 bd 3c 33 30 62 3d 55 7b 46 3c
       0.042620003 0.02317062 0.055221748 0.012114366
000340 dd e2 88 3c 84 94 e6 3a 63 c3 8a bd 7a 58 2c bd
       0.01670974 0.0017591869 -0.06775548 -0.042076565
000350 74 18 0b 3d 20 78 eb 3c 5d fe fa 3c 2c 93 86 3d
       0.033958867 0.028743804 0.030638868 0.065710396
000360 86 34 19 3d 2a 9c 40 3c 40 a1 39 3d 38 2e 64 bb
       0.037403606 0.011755982 0.045319796 -0.0034817588
000370 ab 25 a8 ba 1c 42 37 3d 06 43 eb 3d c2 8d 7a 3c
       -0.0012828609 0.04474078 0.11487393 0.015292587
000380 ff 13 9f 3d a8 14 3f 3d 12 da ae 3a dc cd 20 bd
       0.07767486 0.04665056 0.0013340137 -0.039258823
000390 fe 8e 16 bb 81 b8 aa 3c ae 02 06 3d b0 7a 59 3d
       -0.0022973414 0.020839931 0.0327174 0.05309552
0003a0 05 5d 8a 3c 29 cb 90 3d d6 35 11 3c 89 36 94 bb
       0.016890058 0.0707 0.008862933 -0.0045231027
0003b0 05 45 81 bc a4 dd ff 3b d4 53 b0 3c ef ea d2 bc
       -0.015779981 0.007808404 0.021524347 -0.02574679
0003c0 74 20 77 3d 81 7f 0a 3d b5 c3 91 3c 21 de 43 bd
       0.060333684 0.033813003 0.017793516 -0.04781926
0003d0 56 8b 5e bd 56 00 04 bd ab 11 66 bc 2b d2 7e 3c
       -0.0543321 -0.032226883 -0.014042298 0.015553038
0003e0 94 6f 84 bb cc 44 0d bd 6c 4c 4a bd 0d 58 2d bc
       -0.0040416215 -0.034489438 -0.049389288 -0.010580075
0003f0 4b 23 fa bb ea dc 51 3c 67 a6 cd bc 78 81 22 bd
       -0.007633602 0.012809018 -0.02510376 -0.039674252

bias f4 [128]
000000 4e 56 27 3c d2 33 26 bd c8 8d a2 bd 47 66 e3 3d
       0.010213448 -0.040576763 -0.07937199 0.11103492
000010 32 1f 87 bb 05 c2 42 be 41 43 93 3d 23 81 2f 3d
       -0.004123592 -0.19019325 0.07190562 0.042847764
000020 13 83 b6 3d 00 82 33 bf 74 dd f4 3c c6 ab 46 bd
       0.08911719 -0.7012024 0.029890753 -0.04850366
000030 6c 44 ad bc 45 4f b4 bd 60 30 11 3e 0c bf 21 3e
       -0.02115079 -0.08804182 0.1417861 0.15795535
000040 43 1d c9 3e 60 ad 8c be 2c 75 2e bd 0a 75 1a be
       0.39280137 -0.27476025 -0.042592213 -0.1508371
000050 96 38 01 3d 16 2f 2b 3c 80 33 ad bd f9 31 38 3c
       0.031548105 0.010448238 -0.084570885 0.011242383
000060 89 ca 2b be 65 bd 44 3d d4 9a 30 bd 28 55 c6 bc
       -0.1677648 0.048032183 -0.043116406 -0.024210528
000070 63 99 ab 3e ab c2 f7 3e 51 7d d7 3c 92 c1 bf 3c
       0.33515462 0.48390707 0.026304873 0.023407731
000080 5b 1d 59 bb 1c 1e 23 bd cd 5d f8 3d 7f eb a7 3b
       -0.003312907 -0.039823636 0.12127266 0.005124509
000090 6b a8 bd 3d 9b 94 46 3c ec d1 e6 bd 27 82 0d bd
       0.09260639 0.012120391 -0.11270508 -0.03454795
0000a0 fd 54 7a 3b f7 6c 5f 3d ef 27 b8 3e 1c 35 bf bd
       0.003819763 0.054547276 0.35967967 -0.09336302
0000b0 8a 36 1b bd ec 72 df 3d 34 f0 89 3e 0b 89 8d bd
       -0.03789381 0.109105915 0.26941073 -0.069109045
0000c0 32 eb 3b 3d c6 0a 4d be e5 c4 0c 3f cc ab 52 3f
       0.045878597 -0.20023641 0.5498794 0.8229339
0000d0 bf 8b 24 be db a0 27 3d 37 31 76 3e 60 87 2a be
       -0.16068934 0.040924888 0.24042211 -0.16653204
0000e0 6f b8 ba 3d b4 28 72 3c 61 40 8e bd 62 f9 28 3d
       0.09117209 0.014780212 -0.06945873 0.041253455
0000f0 a3 61 46 3e e3 3f 96 be 18 3f 6f 3d 73 1e 7f be
       0.19373183 -0.29345617 0.05840978 -0.24913959
000100 4b 1b b0 3d 44 2b 9d bc 2a 6f 40 bd 03 d2 21 3f
       0.08598956 -0.01918567 -0.046981014 0.6321108
000110 bd 28 39 be db 04 4c bd f7 4f 9a 3e 8b 88 94 bc
       -0.18081947 -0.049809318 0.30139133 -0.018131515
000120 5e 2f 04 be 1d 42 82 3b db 90 f7 bb cb ee 98 3e
       -0.12908694 0.0039751665 -0.00755511 0.29869685
000130 8f e9 77 be 97 a5 8f 3e 81 4b f3 3c b8 d2 8c 3c
       -0.2421019 0.28056023 0.029699089 0.017190322
000140 03 ce 12 be ab 6a 49 be 09 f7 da bc 53 18 cb 3b
       -0.143364 -0.19669597 -0.026729124 0.006197968
000150 99 81 2a 3f 00 cb 2a 3f b9 14 c8 bb eb d0 2d 3c
       0.66604 0.66716003 -0.006105986 0.010608892
000160 53 7c 17 bc 31 20 dc bb d3 78 17 bd 13 99 bd 3d
       -0.00924595 -0.0067177047 -0.03698046 0.09257712
000170 eb 44 e5 3d 80 01 15 3d 5b 60 d5 3e b2 63 b0 bd
       0.11194786 0.036378384 0.41675076 -0.08612765
000180 ae 40 44 3c cc 11 c9 3c 30 a6 89 3e 3a f7 ed 3e
       0.011978311 0.024544619 0.26884604 0.4647768
000190 f5 1d 7e 3c 5a 10 2f 3c 14 bd 33 be b9 67 d2 bd
       0.015510072 0.010685051 -0.17552596 -0.1027369
0001a0 33 9c d7 bd 3a 9c ed bc 89 73 ed 3c 61 78 99 3d
       -0.105278395 -0.029005159 0.028985756 0.074936636
0001b0 df be 54 bd ea 0e 4c bb 43 ea a4 bd d8 69 f0 bd
       -0.05193984 -0.003113682 -0.080524944 -0.11738938
0001c0 72 85 f5 3d 69 92 11 be 32 8b b3 3e e8 86 fc bd
       0.11988343 -0.14216007 0.35067135 -0.12330419
0001d0 60 18 8e bd 48 96 e8 bd 8c bc 0d be e5 0e b0 3f
       -0.06938243 -0.11356789 -0.13841456 1.3754545
0001e0 15 ce 1d 3d c1 bb be 3d 08 63 74 3e 8d f9 53 be
       0.038526613 0.09313155 0.23865902 -0.20700665
0001f0 d6 e4 7a 3d 56 db e5 bb 56 25 14 bb 1c a7 03 bc
       0.06125339 -0.0070146723 -0.0022605262 -0.008035447

weight f4 [64, 128]
000000 db 22 8b bd 7b c0 92 be cc 73 ef bc 86 0b ae 3b
       -0.067937575 -0.28662476 -0.029230021 0.0053114323
000010 6d 09 34 bc 9a 5a ff bc 40 79 97 bd 90 90 b9 3d
       -0.010988575 -0.031171132 -0.073961735 0.09060776
000020 06 be 9c 3d ce 3f c2 bc 31 dd 7e bd 68 21 01 bd
       0.076534316 -0.023712065 -0.062222663 -0.031526
000030 0d 83 d2 3c 3b 3b 38 be 78 e1 85 3d 87 5a 40 bc
       0.025697256 -0.17991345 0.065371454 -0.011740333
000040 07 00 c3 bd ca bc 99 3d 27 1d 61 be 7a 32 b5 bd
       -0.095214896 0.07506712 -0.21983777 -0.08847518
000050 8f 88 b0 3d 68 05 d3 3d a6 eb 99 3d cd 7d 43 3d
       0.086197965 0.103037655 0.075156495 0.047727395
000060 61 e6 b8 3d c7 13 3f 3c 6e 5a 6a bd a1 1a 97 bc
       0.09028316 0.01166243 -0.057215147 -0.018445315
000070 e9 ec d4 3c a1 97 e3 3d 42 71 75 bd 5f f5 41 3a
       0.025991874 0.11112905 -0.059922464 0.0007398929
000080 b8 86 3f bc 36 5a 9a bd 6f 61 72 bd 85 56 af 3d
       -0.011689834 -0.075367376 -0.05917495 0.08561424
000090 bf 70 65 3d d0 f7 02 be 93 25 01 3d 71 1d b7 3d
       0.056015726 -0.12789845 0.031529974 0.089411624
0000a0 c7 68 9a 3c 9c b7 7f bb 8b 47 e9 3c 63 ee 36 bc
       0.01884879 -0.0039019352 0.028476497 -0.011165234
0000b0 9a e4 0c bd 9d 0b 96 bc 9e 82 c7 bc e9 d7 f7 bc
       -0.0343977 -0.018316085 -0.024354275 -0.030254321
0000c0 22 5b 32 bd bd 23 0d 3d e7 18 a6 bc 2d b4 13 3d
       -0.043543942 0.03445791 -0.020275546 0.0360605
0000d0 4b 7c 0e 3d ab fc 52 3b f1 18 5c bd 36 8a 33 be
       0.034786504 0.003219406 -0.053734723 -0.17533192
0000e0 36 eb bc bd a2 6e b9 3d 82 ad 0c 3e 5b 9b 2d 3c
       -0.092245504 0.09054305 0.13738063 0.010596122
0000f0 33 e6 ad 3d 9f 0e 9f 3c 1e 1e 8b bd f2 82 02 bc
       0.08491173 0.019416152 -0.06792854 -0.00796579
000100 af 73 35 be d0 26 57 3d cf a7 c5 bc 2b 2d aa bd
       -0.17719911 0.05252725 -0.024127869 -0.08309396
000110 52 fb 49 bc b5 20 4b bd 00 5f 21 bc ed be a6 bb
       -0.012327986 -0.04959174 -0.00984931 -0.005088678
000120 7a bd 6b 3d 40 c0 64 3d 94 27 b8 bd 6f 75 6c bc
       0.057553746 0.055847406 -0.08991924 -0.014432295
000130 c9 3c 65 bd 6c e1 69 bd e3 b1 58 bd bb 69 d9 3b
       -0.055966172 -0.057099745 -0.05290402 0.0066349185
000140 e0 67 dd 3c b0 d4 08 bd f1 27 13 bd cc 8f df 3c
       0.02702707 -0.03340596 -0.035926763 0.027290247
000150 02 6f c9 3c 3d 44 84 bb e4 a1 12 bd b2 54 17 3d
       0.024589065 -0.004036455 -0.035798922 0.036946006
000160 2f 12 03 3c dc 92 0b bc 12 fe d9 3d 92 97 1c bd
       0.007999941 -0.008518901 0.10644163 -0.038230486
000170 42 23 22 bd 97 29 c4 bc 1e e1 67 bd 3e da 5e 3d
       -0.039584406 -0.023945613 -0.056611173 0.05440735
000180 7c a0 26 3d f6 08 21 3d 85 d5 3d bc d6 be 90 3d
       0.040680394 0.039315186 -0.011586552 0.07067649
000190 71 51 03 be 26 6c 26 bb 6d 43 f7 3d f2 83 14 3d
       -0.12824036 -0.0025394051 0.12073407 0.036258645
0001a0 9e 79 30 bc 23 c8 b3 bc 84 61 a3 ba 21 f9 1f 3c
       -0.010771183 -0.021946019 -0.0012464975 0.009763987
0001b0 82 cf fa 3d 2a 91 8b 3d d2 69 cd 3c 81 19 53 3d
       0.1224661 0.06814797 0.025074873 0.051537994
0001c0 54 e7 21 3d 26 fc b5 bd 78 cd c7 bc f0 55 43 3d
       0.039527252 -0.08885984 -0.024389967 0.04768938
0001d0 00 2a 25 bd 78 92 d4 3c 59 87 92 3d a3 23 86 3d
       -0.040323257 0.025948748 0.07154722 0.06549766
0001e0 a6 9c d9 3d 28 bf 03 be 87 e9 57 bd 11 0b 9f 3d
       0.106255814 -0.12865889 -0.052712943 0.077657826
0001f0 37 e1 da bc 64 93 98 3c 12 65 17 3d 69 f9 2f 3e
       -0.026718719 0.018624969 0.036961623 0.17184986
000200 37 8a ec 3c 5b aa 63 3d 00 ab d3 3d 40 e4 04 3d
       0.0288745 0.055582386 0.1033535 0.03244424
000210 b0 fe 80 3d 54 9f 92 bb 82 b3 3a bd 18 e0 d1 bd
       0.06298578 -0.00447456 -0.04558135 -0.102478206
000220 e9 3d 33 3e 9b c9 84 bd 92 3a 92 3c 92 c9 8a bd
       0.17504086 -0.06483766 0.017850194 -0.06776728
000230 dc f3 32 3e da 47 c6 3b bf d3 66 3c 14 44 fd bd
       0.17475837 0.006051046 0.01408857 -0.123665005
000240 c7 a0 b4 3c 10 54 36 be 61 d0 95 3d 18 70 34 be
       0.02204932 -0.17805505 0.07315136 -0.17620885
000250 a9 fe a5 bd 38 b1 ae bd 82 57 00 be 89 6e 6f bc
       -0.08105213 -0.085298955 -0.12533382 -0.014613756
000260 9e 6a 24 be f0 73 86 bd a8 cf 07 be b6 a2 bb bd
       -0.16056296 -0.06565082 -0.13262808 -0.09161894
000270 5f 3d 65 3d ac 3f 3c bd f6 a9 23 3c 12 a7 03 bd
       0.05596673 -0.04595916 0.009989252 -0.032141753
000280 e0 3a 1f 39 46 9e 74 bd d0 fd a4 bd ce 53 04 3d
       0.00015185354 -0.059721254 -0.080562234 0.032306485
000290 76 cb 67 be 69 d2 db 3d 6a 5e 25 bd dd ee aa bc
       -0.22636208 0.10733492 -0.040373243 -0.020865852
0002a0 0e dc 2e be 0a 70 4f be b2 71 90 3d df a1 9f ba
       -0.17076132 -0.20257583 0.07052936 -0.0012178979
0002b0 cc 8d ea bc ae 27 e1 bc 56 52 0e 3d 2e a9 b8 3d
       -0.028632067 -0.027484741 0.03474649 0.090166435
0002c0 90 2f 03 bd 8b 0e 11 bd aa 49 47 bb 9e f7 28 3e
       -0.03202778 -0.03541426 -0.0030408897 0.16500708
0002d0 21 f8 5a bd b6 ab c1 3c 08 dc 16 be b8 64 c0 bd
       -0.05345929 0.023641448 -0.14732373 -0.093942106
0002e0 4d 92 79 bc 1d 7a 6a bb 00 02 65 bd 3d 4e 62 bb
       -0.015232635 -0.0035778352 -0.05591011 -0.0034531497
0002f0 97 58 46 3c 51 91 27 bd b5 8d 14 bd e6 7f 21 be
       0.012106082 -0.04091007 -0.036267955 -0.15771446
000300 d0 20 05 3e ac ab 56 3d ab 6d 0f be 89 9e 00 3e
       0.13000798 0.052409813 -0.14006679 0.12560476
000310 bd 45 9a 3d 75 94 e6 bd 84 0c 90 bc f3 4c 41 3c
       0.07532833 -0.11258785 -0.017584093 0.011798131
000320 0b 50 aa bd 5f 5f 48 bd 5e 16 8c bd 42 75 c9 bd
       -0.08316048 -0.048919078 -0.06840204 -0.09836818
000330 21 3d 77 bd c5 a8 cf bd 69 1f 4b 3d 3c 81 2c bd
       -0.06036103 -0.10139612 0.049590502 -0.042115435
000340 fd 63 0d bc 65 dd 6f 3c 9e 5f fe 3c a3 ed 91 bc
       -0.008629796 0.014640187 0.031051453 -0.01781351
000350 d3 02 58 bc 55 7b 9c 3c ea 95 66 3e c0 fc b3 bd
       -0.013184267 0.019101778 0.22518125 -0.087884426
000360 7a a3 35 bc 58 85 63 3c 43 74 23 3d 9a 4e 10 bd
       -0.011086339 0.013886772 0.039905798 -0.03523121
000370 09 17 9e 3d c8 97 ed 3b 64 d7 02 3d 0a e7 37 be
       0.07719237 0.0072507598 0.031943694 -0.17959228
000380 46 50 78 bd 18 12 0f 3d ba 39 90 3d 3a a1 80 3d
       -0.06062343 0.034929365 0.070422605 0.062807515
000390 e4 64 7a bd 9b 7d 34 3c b3 c3 23 be 33 1c d7 bd
       -0.061131373 0.011016275 -0.15992622 -0.105034254
0003a0 4d e4 01 3d 69 1d 97 3d db d0 b2 3c b8 1f 39 be
       0.031711865 0.073786564 0.021828106 -0.18078506
0003b0 b0 a4 89 3d a2 e0 33 3d d1 b2 9d bd bd 41 02 bd
       0.06720865 0.0439154 -0.07700122 -0.031800974
0003c0 ad d8 c1 3d 58 a5 ec bc 9a d2 6c bd 21 0d 1c bd
       0.09465156 -0.028887436 -0.057818033 -0.03809846
0003d0 98 2a a3 3d 89 c3 73 bd ec be 28 be 58 d8 97 bb
       0.079671085 -0.05951265 -0.16479081 -0.0046339445
0003e0 ea 41 41 3d f4 54 45 3e 6b bf bb 3d ae 12 07 bc
       0.047182 0.19270688 0.091673695 -0.0082442
0003f0 69 6d 9c bd 05 d5 e1 3c 2c 06 6c bd dc 18 08 3d
       -0.07638056 0.027567396 -0.057623073 0.033226833

bias f4 [64]
000000 75 78 26 3f bb 15 27 3f f3 cb e1 3e 63 9e 26 3f
       0.6502755 0.65267533 0.44100913 0.6508543
000010 ae 8b 1c bc 4c 1a c5 3e ec be 82 3e 74 51 5f be
       -0.009554787 0.38496625 0.25536287 -0.21808416
000020 a9 88 b7 3c 75 2e 8f 3f ae 5d 94 3e 1f fd 1e bd
       0.022404032 1.1186053 0.28977722 -0.038815614
000030 84 be 54 3f be 03 0b 3f d4 0c 3f 3e 43 c1 b8 3d
       0.83103204 0.54302585 0.18657237 0.09021237
000040 0e bb 38 3e 93 4f 95 3d cf a9 e5 3e 8d 88 02 3d
       0.18040106 0.07290568 0.44856116 0.031868506
000050 28 1e a4 3e 23 d1 b0 bc 4a e8 fc 3d 90 f6 09 3e
       0.32054257 -0.0215841 0.12348993 0.13472962
000060 90 47 14 3f d1 09 ec 3e 33 5f 9e 3a 6a 0c c0 3e
       0.57921696 0.4610124 0.0012082815 0.3750947
000070 9a 1f f3 3e 2d 61 91 3f 5a d2 0b 3e 64 b5 ac 3e
       0.47485048 1.1357781 0.13654462 0.3373214
000080 44 09 5c 3e a2 ba 22 3f 6f 76 8f 3d 47 ea c2 bc
       0.2148791 0.6356603 0.07005011 -0.023793353
000090 6f cc 5b 3f 1e 18 bd 3e df ef e8 3d 00 1b d1 3f
       0.85858816 0.36932462 0.11373877 1.6336365
0000a0 8c 63 b2 3e 25 4b 6e 3d 73 9b 51 3f 03 e4 55 3e
       0.34841573 0.058177132 0.8187782 0.20887761
0000b0 5c f6 d5 3d 16 8d 3b 3f 5c 42 e7 3f 37 2a 26 3f
       0.1044738 0.73262155 1.8067126 0.64908165
0000c0 a3 5d 34 3f 5e 34 8e bd 38 8a ef 3e f3 f5 82 3d
       0.7045538 -0.06943582 0.4678514 0.06394567
0000d0 78 b0 c0 3e 03 9d dd 3e 5d d6 33 3e 1c c0 14 3f
       0.37634635 0.43283853 0.17562242 0.58105636
0000e0 23 68 de 3e 90 9b 5f 3e 8c f9 b6 3e a6 7a 50 be
       0.43438825 0.21836686 0.35737264 -0.20359287
0000f0 87 26 76 3f 25 3a 8f be c4 79 f2 3c b1 a6 a2 3e
       0.9615254 -0.27974048 0.029599078 0.317678

weight f4 [32, 64]
000000 26 c3 99 bd 2f e4 6e 3e 78 07 13 3e bf af 7f bd
       -0.07507925 0.23329233 0.14358318 -0.062423464
000010 5e ba a5 bd 7e f0 ce bc 52 5d 62 be 65 d4 4e 3d
       -0.08092187 -0.02526116 -0.22105911 0.050495524
000020 82 ed 51 bc a3 8f b1 3d e6 20 e1 3b ff d0 f8 bd
       -0.012812974 0.08669975 0.006870377 -0.12149238
000030 af 68 c1 bd ea c6 d8 bc 36 d4 4b bc 79 32 75 bd
       -0.09443795 -0.026462037 -0.012440732 -0.059862588
000040 66 f6 80 bd ce 04 a0 bc 97 4b 55 3e 70 00 19 bd
       -0.06296997 -0.019533541 0.20829616 -0.037353933
000050 8e 59 d6 bd 7d 57 cb 3d bf b3 2c bd 1e a4 83 bb
       -0.104663 0.099287964 -0.042163607 -0.004017367
000060 df dc 44 3d 10 1b 2b 3e 2f fb 00 3e cc d1 17 bd
       0.0480622 0.16709542 0.12595819 -0.037065312
000070 ca 4f 73 3d 40 4d 99 bc 79 3a 81 be 69 3b b0 bb
       0.059402265 -0.018713593 -0.25239924 -0.005378176
000080 07 ee 1b be 27 db b3 3d c3 85 b2 3e 32 c1 21 bc
       -0.15227519 0.08782034 0.34867677 -0.0098727215
000090 86 64 bd 3d ac e9 cd 3c c7 d9 56 3d 03 91 88 3c
       0.09247689 0.025135837 0.052453782 0.01667071
0000a0 58 29 75 bc 3f 75 12 3d 59 26 10 3e f3 af ec bd
       -0.01496347 0.035756346 0.14077128 -0.11556997
0000b0 b2 b2 5e bd a0 18 2e 3d a5 1e ac 3d ed c4 f2 bc
       -0.054369636 0.042503953 0.084042825 -0.029634917
0000c0 18 d3 9a bc 3c 2d 8f bd d4 db 9c 3d e9 b2 86 3d
       -0.018899485 -0.0699105 0.076591164 0.06577093
0000d0 39 b3 2c be e3 5d 33 be fa 70 50 be f7 d0 09 3d
       -0.16865243 -0.17516284 -0.20355597 0.03364655
0000e0 16 08 65 3c 59 ce c4 3d 64 3d 14 3e f7 ae 07 3e
       0.013978979 0.0960967 0.14476544 0.13250338
0000f0 b1 06 e6 bd 84 ad 40 3b ce fc 71 3d f4 93 52 bc
       -0.11231745 0.0029400298 0.059078984 -0.012852658
000100 60 4c 61 3d 7e 2c 21 3e 0e 89 c4 bd 59 f1 e4 3d
       0.055004478 0.15739629 -0.095964536 0.11178846
000110 a5 69 1a 3d 30 52 5f 3d 35 fe 37 3d 34 51 f0 bc
       0.037698407 0.05452174 0.044920165 -0.029335596
000120 17 f2 ea 3d bd ab 7e 3d 46 08 df 3c 4e 07 c4 3d
       0.11471956 0.0621755 0.027225625 0.09571706
000130 4a 0e bb 3d f6 1e 73 bd 04 3b 0f 3b 82 1d 75 3d
       0.09133585 -0.0593557 0.0021855244 0.059842594
000140 ca 6d 1f 3d ac 14 a1 3c 0d b0 90 3c f7 ee f7 3c
       0.038923062 0.019663177 0.017662073 0.030265315
000150 d8 34 85 3d 16 38 91 3d db 03 b1 ba b6 c4 0e bd
       0.0650422 0.07090776 -0.0013505177 -0.034855567
000160 b8 d6 ec 3d 72 81 c4 3d f9 ee fd 3a 81 c7 85 3d
       0.11564392 0.09595002 0.0019373588 0.06532193
000170 64 93 a1 3d 88 eb d9 3b 01 79 9f bc 2f a3 63 bd
       0.07889441 0.006650392 -0.019466879 -0.055575546
000180 a1 66 92 3d aa 49 3e 3c 08 f5 88 3d 77 33 c9 3d
       0.07148481 0.011614243 0.06687361 0.09824269
000190 df 0d 04 3e f8 46 47 bc dc 61 68 3d a3 ef b8 3d
       0.12895916 -0.012162916 0.05673395 0.09030082
0001a0 7c 79 7b 3c 97 82 0c 3d dc 97 44 3b df 2d bd 39
       0.015348788 0.034304228 0.0029997742 0.00036083066
0001b0 ee 6c 6a 3d e8 31 98 3c 8d 21 dc 3d 66 3b f1 3b
       0.05723279 0.018578485 0.10748587 0.007361817
0001c0 48 52 ac 3d 81 09 24 bc bc 09 a3 3d ee 9c 6e bc
       0.084141314 -0.0100120315 0.07960841 -0.014563782
0001d0 f3 0c 41 bd 0f de 17 3d 71 39 0b 3e 8e ac ca 3d
       -0.04713149 0.037077006 0.13596131 0.098961934
0001e0 b2 a1 ae 39 a9 b1 0c 3d 64 ee 48 bd 58 4f 53 3c
       0.0003330834 0.034349117 -0.049055472 0.012897335
0001f0 24 34 3b 3d 54 8f 1d 3d b5 9a 34 3c 05 1f f3 3d
       0.045704022 0.038466766 0.011023213 0.11871151
000200 28 c8 a4 3d f8 9d 27 be 9e 0b 01 3e 00 3d 82 3d
       0.08045989 -0.16368854 0.12602088 0.06359291
000210 72 f3 ba bc 75 05 09 bc 5f d2 47 be 03 79 9a 3d
       -0.022821162 -0.008363117 -0.19513844 0.075426124
000220 ac 91 15 3d 23 54 33 3e 4d f9 15 3e 42 10 f9 bd
       0.036515877 0.17512564 0.14645882 -0.12161304
000230 41 1b 86 3d 44 9b 28 bd e4 7c 33 3e 30 46 3e 3e
       0.06548167 -0.041163698 0.1752811 0.18581462
000240 ee fb 2c be 3b 7a ad be af 3b 8d bd 0c a6 18 3e
       -0.16892979 -0.33882317 -0.06896149 0.14907092
000250 e8 5f e3 bd 57 e1 1f 3e 5b d3 21 be d5 9f 6c 3d
       -0.11102277 0.15613304 -0.15803282 0.057769615
000260 3e fc 3d 3d 46 c6 1c 3d 35 6d 0a 3e fe 73 11 3e
       0.046383135 0.038275026 0.13518222 0.14204404
000270 54 5d 8c 3d d5 a9 39 3d 8d 77 b8 be 27 6a 6c 3d
       0.068537384 0.04532798 -0.3602871 0.057718422
000280 f9 7b 52 be 85 73 f4 bc 0d 3c 1a be 78 39 dc ba
       -0.20555104 -0.02984024 -0.1506197 -0.0016801795
000290 1f f6 ee 3d db 6d f7 3a 9a 46 0f 3e e1 08 21 3d
       0.116680376 0.0018877344 0.13991776 0.03931511
0002a0 c5 c4 2e 3e ff f9 cf 3d 46 e7 ea 3d 6d 55 80 be
       0.17067249 0.10155105 0.11469893 -0.25065175
0002b0 f2 0d d8 bd fb 30 1e bd 1e fd 3a 3d af 81 a2 bc
       -0.10549535 -0.03862093 0.045651548 -0.019837229
0002c0 7b 7b 7b be 79 c9 37 3e d6 2f b1 3d ea dd 8f 3b
       -0.24558823 0.1794795 0.08651702 0.004390468
0002d0 16 f5 80 be b5 58 0c bd 86 24 48 3d f0 d2 68 bb
       -0.25186986 -0.034264285 0.048862956 -0.003552612
0002e0 f1 2f 7c bc 1f d5 c6 3d b2 bd d0 3d de e2 70 3d
       -0.0153922895 0.097086184 0.101924315 0.058810107
0002f0 c5 af f7 3c f5 ec 53 bd af c4 0a be bc 3e 3a 3d
       0.03023518 -0.05173965 -0.13551591 0.045469984
000300 95 49 71 3c 38 01 ce 3d 86 20 7d be f3 b0 b2 3c
       0.014727016 0.10058826 -0.24719438 0.021812892
000310 74 5a a4 bd 48 42 01 bd c7 df e7 3d 66 a8 82 3c
       -0.08025065 -0.03155735 0.11321979 0.01594944
000320 4c a3 75 3e e6 62 94 bd 73 1b 2c 3c a0 57 08 3e
       0.23988074 -0.07245426 0.010504591 0.13314676
000330 f7 e5 68 3d ab ed df bc 4f 29 a4 3d f3 d2 a4 bd
       0.056859937 -0.027335009 0.080156915 -0.08048048
000340 7f 21 34 3b fd 5b ea 3d d2 d2 5b be d8 68 97 bb
       0.0027485786 0.114433266 -0.2146714 -0.0046206526
000350 7f 9f 7f 3c fc fe 17 be 5c 0a de bd 2f 08 16 be
       0.015601992 -0.14843363 -0.1084182 -0.1465156
000360 a3 f3 1a be 27 01 40 3e 44 3f e4 bd e9 e4 ab 3d
       -0.15132003 0.1875044 -0.111448795 0.083932705
000370 38 d6 02 be 97 9c 36 3c 3c bc b6 3d 4b 91 95 3e
       -0.1277703 0.011145732 0.089226216 0.29212412
000380 5b 81 35 3d 80 22 f9 3c 1e 77 42 be a0 fd 7f 3b
       0.044312816 0.030411959 -0.18990752 0.0039061084
000390 23 92 19 3e 22 94 1c 3d 4c 6e 02 be c4 12 54 bd
       0.14997153 0.038227208 -0.12737387 -0.05177571
0003a0 b2 69 97 3d 57 da f6 bc 0a 68 1e bc 2e 3f 15 3e
       0.07393207 -0.03013341 -0.0096683595 0.14574882
0003b0 ad c0 10 3e 2a 62 f8 bd c5 d1 9b bd ea 0c be 3c
       0.14136 -0.12128098 -0.0760837 0.023199517
0003c0 b3 80 4f bd 82 58 fb bc 46 1e 5f be 86 da 92 3d
       -0.050659847 -0.030681852 -0.21788892 0.07170586
0003d0 ae 45 94 3d 52 da 77 3d 39 90 63 3c e4 1f 97 3d
       0.07239853 0.06051094 0.013889366 0.073791295
0003e0 b2 46 fd 3d 32 c3 97 bc 75 0e e8 3d 7b 08 b7 bd
       0.12367 -0.018525694 0.113308825 -0.089371644
0003f0 89 88 1a bd 80 f4 c3 bd ec 07 a0 be 04 63 64 3d
       -0.037727866 -0.09568119 -0.31256044 0.05575849

bias f4 [32]
000000 43 5f aa 3f 7e ba 7d 3e e5 a1 62 3d d0 7b 92 3f
       1.3310322 0.24778172 0.055330176 1.1444035
000010 6f 66 ca 3d 45 fb 3a 3f b3 82 51 3f ee cd fa 3e
       0.09882819 0.73039657 0.81840056 0.48985237
000020 1e 7b 7d 3f cb 97 6a 3f a9 78 77 3f d0 17 f0 3e
       0.99015987 0.9163787 0.9666849 0.46893167
000030 00 25 76 3f 9a c3 9f 3f ec de 8b 3f e5 13 33 3f
       0.9615021 1.2481568 1.0927405 0.6995223
000040 91 5d 79 3e d9 5b 6f 3f 6f c2 43 3f b6 f6 91 3f
       0.24352099 0.93499523 0.7646856 1.1403415
000050 0e 25 b3 3f bd 03 c3 3f a0 96 8f 3f 3a 7f a3 3f
       1.3995683 1.5235516 1.1217842 1.2773201
000060 20 02 cc 3e 41 14 38 3f 06 67 a4 3d 75 53 23 3f
       0.3984537 0.71905905 0.08027463 0.6379922
000070 46 5d 86 3f 95 2e a3 3b 9f a5 59 3f 4f 2c a5 3f
       1.0497215 0.0049799182 0.8501834 1.2904147

weight f4 [10, 32]
000000 2d e2 bf 3d 78 3c 61 be 04 fd af bd a9 1e b6 be
       0.093693115 -0.21995723 -0.08593181 -0.35570267
000010 eb a1 68 bb d4 7a 9f 3d bc 0a 13 be e7 50 1f be
       -0.0035496901 0.077870995 -0.14359564 -0.15558206
000020 7d c3 58 bd cb b1 f7 bd 9a af 06 3d 65 99 12 3d
       -0.052920807 -0.12094458 0.03288231 0.03579082
000030 b7 f8 0c 3e 37 5c 71 be 3a db f2 be 10 9a 57 bd
       0.13766752 -0.23570333 -0.47432882 -0.05263716
000040 bb ca 6d 3c 5d 51 89 3d 63 1a 08 bf a3 57 40 bd
       0.014513667 0.06704972 -0.5316526 -0.046958577
000050 3b 95 0e be e6 a2 19 bf 87 86 95 be 2f 3e cd be
       -0.13924114 -0.6001419 -0.292042 -0.40086505
000060 ff dc 1d 3e 95 d8 2b 3e 32 a3 b9 be 6b 59 5a bc
       0.15416335 0.16781838 -0.3625732 -0.013326983
000070 7b b4 9d be bb 1a 32 be 35 9f 91 be 45 8d 09 bd
       -0.30801758 -0.1739301 -0.28441778 -0.03358199
000080 13 65 e2 be fc 67 20 3c 63 63 fa bd 21 3a a5 bb
       -0.44217739 0.009790417 -0.12225988 -0.00504233
000090 cf fb 59 3c db 43 72 3d 6e 71 7b bb 17 08 9d bc
       0.013304665 0.059146743 -0.003836717 -0.019168897
0000a0 4e d2 38 3c 41 d9 f6 bc 96 59 2a bd 5b 9a 85 bd
       0.011280609 -0.030132892 -0.041589342 -0.065235816
0000b0 2a 19 6c 3d bb 4c af be b3 2a 8c 3c a5 a5 21 3c
       0.057641186 -0.34238228 0.017110204 0.009866153
0000c0 7b d2 24 be b7 58 99 3d db 08 ad bc 15 e9 e7 ba
       -0.16095917 0.07487624 -0.021122387 -0.0017693365
0000d0 0f bb fc be fa e8 91 bc ab 71 ca be 23 ce 83 be
       -0.49361464 -0.017811287 -0.39539847 -0.25743207
0000e0 ba 32 85 bd ab 3f a5 3c 76 83 ac be 1b 25 32 bd
       -0.06503816 0.02017196 -0.33694047 -0.043492418
0000f0 87 3a bb bb 90 cb 2f ba fb ac 7f bc 37 4d f7 be
       -0.005713764 -0.00067060534 -0.015605207 -0.48301098
000100 f1 cf 2b 3c c8 6b 55 3d 3d f7 36 bb 67 1d b9 bc
       0.010486589 0.05210474 -0.0027918362 -0.022597028
000110 8e fb 49 bc 7a 9a 12 3d d0 49 1f bd fd 89 89 be
       -0.012328042 0.03579185 -0.038888752 -0.2686309
000120 9a 4d 53 3d 16 f4 8b bd 08 a2 1b bc a1 1a 10 bd
       0.05158768 -0.06833665 -0.0094990805 -0.035181645
000130 fd 89 85 3c ac 3a 31 be cd 73 28 3d 57 8c ea 3b
       0.01630115 -0.17307538 0.04112606 0.007157843
000140 81 b7 f4 3c 91 3a a6 be 23 65 d0 bc 5b 1e c5 bc
       0.029872658 -0.32466558 -0.02543885 -0.024062326
000150 04 7a 91 be f8 79 5f be 02 2c c7 bc 8c 32 46 3d
       -0.28413403 -0.21823871 -0.024312977 0.04838805
000160 32 f8 eb bc a7 45 d1 be e4 5d ba be 41 ba 95 be
       -0.028804872 -0.40873453 -0.36399758 -0.29243663
000170 e0 49 8d be 2d fd 7e ba a4 dc 4a bd 7d dd 07 bd
       -0.27595425 -0.0009727057 -0.049526826 -0.033170212
000180 03 a6 9e bd 7d 75 2c 3d 71 f0 e5 bd 49 26 23 bd
       -0.07746508 0.042104233 -0.11227501 -0.039831433
000190 86 6c 99 bb 3e e9 8f 3d 22 d1 a6 3d dc 6c 62 be
       -0.0046821265 0.07026909 0.08145358 -0.22111839
0001a0 a7 dd f2 bd bc e7 75 bd 6c 65 06 bf 48 5c 87 3d
       -0.11858683 -0.060035452 -0.5249851 0.06609398
0001b0 e7 81 a8 b8 82 85 b8 be 00 61 fe bc e4 65 a9 bd
       -8.0350605e-05 -0.36039358 -0.031052113 -0.08271387
0001c0 d2 d6 04 be 5b 00 1f 3c 17 2e 5b bd 00 e3 d8 be
       -0.12972572 0.009704675 -0.05351075 -0.42360687
0001d0 78 82 c3 3d a9 56 dd 3a be d7 ec 3c a1 a6 41 be
       0.09546369 0.0016886789 0.028911468 -0.1891122
0001e0 db af 12 3d a0 f8 57 3c 7e 58 e5 be 1a f4 7c bd
       0.03581224 0.013181835 -0.44794077 -0.06175623
0001f0 09 75 ed 3c 9f 64 80 bd 1f 72 df be 46 e4 bb 3d
       0.02898647 -0.06269192 -0.43641755 0.09174399
000200 6c 0d 97 be 57 f1 0e bd 9b 4c f9 be c4 01 41 3c
       -0.29502428 -0.03489813 -0.48691258 0.011780206
000210 23 14 a3 3b 77 bd c3 be b0 76 be 3d 34 48 01 bc
       0.0049767657 -0.38230488 0.092999816 -0.00789075
000220 9d b6 05 be 05 d1 03 3b 79 26 06 3d d0 9e 86 be
       -0.13057943 0.00201136 0.032751534 -0.2629304
000230 e8 26 d7 3d ba b3 01 3e 29 61 db 3d c4 39 8b bd
       0.10505468 0.12666216 0.10711891 -0.06798127
000240 af 1a 05 3d fb a0 e2 bc df 92 43 bb 7f 6c 29 3d
       0.03249615 -0.027664652 -0.002984218 0.041363236
000250 b6 8b c1 be f3 2e b7 bc 97 51 23 bd 64 56 96 be
       -0.37801903 -0.022361254 -0.039872732 -0.29362786
000260 c8 b1 58 3c 02 a6 29 bc fa 0a d9 bd c5 32 60 bc
       0.01322598 -0.010354521 -0.10597797 -0.013683979
000270 bd c9 11 3e 88 84 b3 bb 06 a7 da be eb 7d 13 3d
       0.14237113 -0.0054784454 -0.42705554 0.036008757
000280 85 db 1d 3e d5 04 1e 3e df 2d e5 bd be ae b4 be
       0.15415771 0.15431531 -0.1119039 -0.35289568
000290 95 0c 4e bd 05 51 b3 3c 01 fd f0 bd 21 d4 fa be
       -0.050304968 0.021889219 -0.11767007 -0.48989967
0002a0 d2 9a f0 be 02 db 60 bd a2 4e e9 bd 2a 41 59 3d
       -0.4699312 -0.054896362 -0.11391951 0.05304066
0002b0 61 c1 ee bd ac dc 47 3d d7 30 2c be fb ab b2 3d
       -0.11657978 0.048794433 -0.16815506 0.08724209
0002c0 2a a5 1b be 74 78 19 3c d1 1c 3b bd 0a 08 fd be
       -0.15199724 0.009367097 -0.04568178 -0.49420196
0002d0 d0 93 b3 bc fa da 40 3d 44 9a 82 be 75 91 64 bd
       -0.021921068 0.047083832 -0.2550832 -0.05580278
0002e0 f7 bd 17 be aa 0b a2 3d 5e f1 92 be 65 f0 04 bc
       -0.1481856 0.07912381 -0.28699774 -0.008113955
0002f0 26 e9 cd be 6c 06 8d be 93 a3 3d be 21 eb 75 3d
       -0.4021694 -0.27543962 -0.1851943 0.06003869
000300 b6 be d1 bc c5 f1 10 3e 5a c1 95 bd f9 c7 ea bc
       -0.025603633 0.14154728 -0.073122695 -0.028659808
000310 bb e5 91 bd 7b f1 42 bb 9d e3 0d bf 04 f3 cf be
       -0.07123896 -0.0029745984 -0.55425435 -0.40615094
000320 b4 6c 03 bf e8 21 c3 bb b9 e3 47 bc d1 ce 2b bd
       -0.5133774 -0.0059549697 -0.012200289 -0.041945282
000330 19 46 4e bd 56 e5 04 3c a6 21 e1 bd 73 94 fc bd
       -0.05035982 0.008111319 -0.10992746 -0.12333002
000340 b5 b4 4f bc 75 1f f8 3c 0a 4f 4c be 59 ac 28 bd
       -0.012677361 0.030288437 -0.19952026 -0.04117999
000350 5c 16 92 3d 02 c7 b8 3b 3d 24 e8 bd 00 18 83 bd
       0.07133171 0.005638958 -0.11335037 -0.06401062
000360 e1 a0 23 3e 1e fd 7d 3d 7e f4 e4 be 86 3c 83 bd
       0.15979339 0.06200897 -0.44717783 -0.06408028
000370 ee 6a 51 be 62 6b d6 bd e6 4c 38 be 56 69 83 bc
       -0.20450947 -0.104697004 -0.17998084 -0.016041439
000380 a4 b4 39 bd 40 23 0f 3b cb 10 7a bd 07 72 88 be
       -0.045338288 0.002184108 -0.06105117 -0.26649496
000390 14 92 94 3b a4 96 71 bd 25 64 10 3d 53 35 d1 bc
       0.0045340154 -0.058981553 0.035251755 -0.025538122
0003a0 01 8e 49 3d ac c1 37 3c f5 6c 97 3d 64 4f 77 3d
       0.04920769 0.011215609 0.07393829 0.060378447
0003b0 98 2f cd bd cf 48 bb bd 29 e8 96 3b 9e c9 cd 3c
       -0.100188434 -0.091447465 0.0046053124 0.025120553
0003c0 76 1e 2d bc 9b 6a 1c 3d 3b 95 85 bd 80 13 b8 be
       -0.0105663445 0.038187604 -0.06522604 -0.35952377
0003d0 04 a0 f4 3c 8c f4 b7 be 9d 41 5a 3c 26 3f b5 be
       0.029861458 -0.35928762 0.0133213075 -0.3539974
0003e0 17 63 55 bd 24 de 97 bd 1c 88 d8 bd 99 87 05 bf
       -0.052096453 -0.07415417 -0.10572836 -0.5216003
0003f0 6d 74 94 3a 0d 4c de 3b 14 47 92 bc 59 b7 0f bf
       0.0011326201 0.0067839683 -0.017856158 -0.5613914

bias f4 [10]
000000 0f 06 c7 38 22 40 58 b8 fc b3 c1 b9 ac ac ef 38
       9.490188e-05 -5.155814e-05 -0.00036945927 0.00011428571
000010 3b c5 3c 37 10 5f 3a b9 28 7b 57 39 c0 83 0c 39
       1.12515945e-05 -0.00017773756 0.00020549877 0.00013400521
000020 c0 ab af 34 bb 9d bb b8
       3.2721255e-07 -8.9462344e-05
